============================================================================================================================================
Layer (type (var_name))                  Kernel Shape              Input Shape               Output Shape              Param #
============================================================================================================================================
ResNet (ResNet)                          --                        [500, 3, 32, 32]          [500, 1000]               --
├─Conv2d (conv1)                         [7, 7]                    [500, 3, 32, 32]          [500, 64, 16, 16]         9,408
├─BatchNorm2d (bn1)                      --                        [500, 64, 16, 16]         [500, 64, 16, 16]         128
├─ReLU (relu)                            --                        [500, 64, 16, 16]         [500, 64, 16, 16]         --
├─MaxPool2d (maxpool)                    3                         [500, 64, 16, 16]         [500, 64, 8, 8]           --
├─Sequential (layer1)                    --                        [500, 64, 8, 8]           [500, 256, 8, 8]          --
│    └─Bottleneck (0)                    --                        [500, 64, 8, 8]           [500, 256, 8, 8]          --
│    │    └─Conv2d (conv1)               [1, 1]                    [500, 64, 8, 8]           [500, 128, 8, 8]          8,192
│    │    └─BatchNorm2d (bn1)            --                        [500, 128, 8, 8]          [500, 128, 8, 8]          256
│    │    └─ReLU (relu)                  --                        [500, 128, 8, 8]          [500, 128, 8, 8]          --
│    │    └─Conv2d (conv2)               [3, 3]                    [500, 128, 8, 8]          [500, 128, 8, 8]          36,864
│    │    └─BatchNorm2d (bn2)            --                        [500, 128, 8, 8]          [500, 128, 8, 8]          256
│    │    └─ReLU (relu)                  --                        [500, 128, 8, 8]          [500, 128, 8, 8]          --
│    │    └─Conv2d (conv3)               [1, 1]                    [500, 128, 8, 8]          [500, 256, 8, 8]          32,768
│    │    └─BatchNorm2d (bn3)            --                        [500, 256, 8, 8]          [500, 256, 8, 8]          512
│    │    └─Sequential (downsample)      --                        [500, 64, 8, 8]           [500, 256, 8, 8]          16,896
│    │    └─ReLU (relu)                  --                        [500, 256, 8, 8]          [500, 256, 8, 8]          --
│    └─Bottleneck (1)                    --                        [500, 256, 8, 8]          [500, 256, 8, 8]          --
│    │    └─Conv2d (conv1)               [1, 1]                    [500, 256, 8, 8]          [500, 128, 8, 8]          32,768
│    │    └─BatchNorm2d (bn1)            --                        [500, 128, 8, 8]          [500, 128, 8, 8]          256
│    │    └─ReLU (relu)                  --                        [500, 128, 8, 8]          [500, 128, 8, 8]          --
│    │    └─Conv2d (conv2)               [3, 3]                    [500, 128, 8, 8]          [500, 128, 8, 8]          36,864
│    │    └─BatchNorm2d (bn2)            --                        [500, 128, 8, 8]          [500, 128, 8, 8]          256
│    │    └─ReLU (relu)                  --                        [500, 128, 8, 8]          [500, 128, 8, 8]          --
│    │    └─Conv2d (conv3)               [1, 1]                    [500, 128, 8, 8]          [500, 256, 8, 8]          32,768
│    │    └─BatchNorm2d (bn3)            --                        [500, 256, 8, 8]          [500, 256, 8, 8]          512
│    │    └─ReLU (relu)                  --                        [500, 256, 8, 8]          [500, 256, 8, 8]          --
│    └─Bottleneck (2)                    --                        [500, 256, 8, 8]          [500, 256, 8, 8]          --
│    │    └─Conv2d (conv1)               [1, 1]                    [500, 256, 8, 8]          [500, 128, 8, 8]          32,768
│    │    └─BatchNorm2d (bn1)            --                        [500, 128, 8, 8]          [500, 128, 8, 8]          256
│    │    └─ReLU (relu)                  --                        [500, 128, 8, 8]          [500, 128, 8, 8]          --
│    │    └─Conv2d (conv2)               [3, 3]                    [500, 128, 8, 8]          [500, 128, 8, 8]          36,864
│    │    └─BatchNorm2d (bn2)            --                        [500, 128, 8, 8]          [500, 128, 8, 8]          256
│    │    └─ReLU (relu)                  --                        [500, 128, 8, 8]          [500, 128, 8, 8]          --
│    │    └─Conv2d (conv3)               [1, 1]                    [500, 128, 8, 8]          [500, 256, 8, 8]          32,768
│    │    └─BatchNorm2d (bn3)            --                        [500, 256, 8, 8]          [500, 256, 8, 8]          512
│    │    └─ReLU (relu)                  --                        [500, 256, 8, 8]          [500, 256, 8, 8]          --
├─Sequential (layer2)                    --                        [500, 256, 8, 8]          [500, 512, 4, 4]          --
│    └─Bottleneck (0)                    --                        [500, 256, 8, 8]          [500, 512, 4, 4]          --
│    │    └─Conv2d (conv1)               [1, 1]                    [500, 256, 8, 8]          [500, 256, 8, 8]          65,536
│    │    └─BatchNorm2d (bn1)            --                        [500, 256, 8, 8]          [500, 256, 8, 8]          512
│    │    └─ReLU (relu)                  --                        [500, 256, 8, 8]          [500, 256, 8, 8]          --
│    │    └─Conv2d (conv2)               [3, 3]                    [500, 256, 8, 8]          [500, 256, 4, 4]          147,456
│    │    └─BatchNorm2d (bn2)            --                        [500, 256, 4, 4]          [500, 256, 4, 4]          512
│    │    └─ReLU (relu)                  --                        [500, 256, 4, 4]          [500, 256, 4, 4]          --
│    │    └─Conv2d (conv3)               [1, 1]                    [500, 256, 4, 4]          [500, 512, 4, 4]          131,072
│    │    └─BatchNorm2d (bn3)            --                        [500, 512, 4, 4]          [500, 512, 4, 4]          1,024
│    │    └─Sequential (downsample)      --                        [500, 256, 8, 8]          [500, 512, 4, 4]          132,096
│    │    └─ReLU (relu)                  --                        [500, 512, 4, 4]          [500, 512, 4, 4]          --
│    └─Bottleneck (1)                    --                        [500, 512, 4, 4]          [500, 512, 4, 4]          --
│    │    └─Conv2d (conv1)               [1, 1]                    [500, 512, 4, 4]          [500, 256, 4, 4]          131,072
│    │    └─BatchNorm2d (bn1)            --                        [500, 256, 4, 4]          [500, 256, 4, 4]          512
│    │    └─ReLU (relu)                  --                        [500, 256, 4, 4]          [500, 256, 4, 4]          --
│    │    └─Conv2d (conv2)               [3, 3]                    [500, 256, 4, 4]          [500, 256, 4, 4]          147,456
│    │    └─BatchNorm2d (bn2)            --                        [500, 256, 4, 4]          [500, 256, 4, 4]          512
│    │    └─ReLU (relu)                  --                        [500, 256, 4, 4]          [500, 256, 4, 4]          --
│    │    └─Conv2d (conv3)               [1, 1]                    [500, 256, 4, 4]          [500, 512, 4, 4]          131,072
│    │    └─BatchNorm2d (bn3)            --                        [500, 512, 4, 4]          [500, 512, 4, 4]          1,024
│    │    └─ReLU (relu)                  --                        [500, 512, 4, 4]          [500, 512, 4, 4]          --
│    └─Bottleneck (2)                    --                        [500, 512, 4, 4]          [500, 512, 4, 4]          --
│    │    └─Conv2d (conv1)               [1, 1]                    [500, 512, 4, 4]          [500, 256, 4, 4]          131,072
│    │    └─BatchNorm2d (bn1)            --                        [500, 256, 4, 4]          [500, 256, 4, 4]          512
│    │    └─ReLU (relu)                  --                        [500, 256, 4, 4]          [500, 256, 4, 4]          --
│    │    └─Conv2d (conv2)               [3, 3]                    [500, 256, 4, 4]          [500, 256, 4, 4]          147,456
│    │    └─BatchNorm2d (bn2)            --                        [500, 256, 4, 4]          [500, 256, 4, 4]          512
│    │    └─ReLU (relu)                  --                        [500, 256, 4, 4]          [500, 256, 4, 4]          --
│    │    └─Conv2d (conv3)               [1, 1]                    [500, 256, 4, 4]          [500, 512, 4, 4]          131,072
│    │    └─BatchNorm2d (bn3)            --                        [500, 512, 4, 4]          [500, 512, 4, 4]          1,024
│    │    └─ReLU (relu)                  --                        [500, 512, 4, 4]          [500, 512, 4, 4]          --
│    └─Bottleneck (3)                    --                        [500, 512, 4, 4]          [500, 512, 4, 4]          --
│    │    └─Conv2d (conv1)               [1, 1]                    [500, 512, 4, 4]          [500, 256, 4, 4]          131,072
│    │    └─BatchNorm2d (bn1)            --                        [500, 256, 4, 4]          [500, 256, 4, 4]          512
│    │    └─ReLU (relu)                  --                        [500, 256, 4, 4]          [500, 256, 4, 4]          --
│    │    └─Conv2d (conv2)               [3, 3]                    [500, 256, 4, 4]          [500, 256, 4, 4]          147,456
│    │    └─BatchNorm2d (bn2)            --                        [500, 256, 4, 4]          [500, 256, 4, 4]          512
│    │    └─ReLU (relu)                  --                        [500, 256, 4, 4]          [500, 256, 4, 4]          --
│    │    └─Conv2d (conv3)               [1, 1]                    [500, 256, 4, 4]          [500, 512, 4, 4]          131,072
│    │    └─BatchNorm2d (bn3)            --                        [500, 512, 4, 4]          [500, 512, 4, 4]          1,024
│    │    └─ReLU (relu)                  --                        [500, 512, 4, 4]          [500, 512, 4, 4]          --
├─Sequential (layer3)                    --                        [500, 512, 4, 4]          [500, 1024, 2, 2]         --
│    └─Bottleneck (0)                    --                        [500, 512, 4, 4]          [500, 1024, 2, 2]         --
│    │    └─Conv2d (conv1)               [1, 1]                    [500, 512, 4, 4]          [500, 512, 4, 4]          262,144
│    │    └─BatchNorm2d (bn1)            --                        [500, 512, 4, 4]          [500, 512, 4, 4]          1,024
│    │    └─ReLU (relu)                  --                        [500, 512, 4, 4]          [500, 512, 4, 4]          --
│    │    └─Conv2d (conv2)               [3, 3]                    [500, 512, 4, 4]          [500, 512, 2, 2]          589,824
│    │    └─BatchNorm2d (bn2)            --                        [500, 512, 2, 2]          [500, 512, 2, 2]          1,024
│    │    └─ReLU (relu)                  --                        [500, 512, 2, 2]          [500, 512, 2, 2]          --
│    │    └─Conv2d (conv3)               [1, 1]                    [500, 512, 2, 2]          [500, 1024, 2, 2]         524,288
│    │    └─BatchNorm2d (bn3)            --                        [500, 1024, 2, 2]         [500, 1024, 2, 2]         2,048
│    │    └─Sequential (downsample)      --                        [500, 512, 4, 4]          [500, 1024, 2, 2]         526,336
│    │    └─ReLU (relu)                  --                        [500, 1024, 2, 2]         [500, 1024, 2, 2]         --
│    └─Bottleneck (1)                    --                        [500, 1024, 2, 2]         [500, 1024, 2, 2]         --
│    │    └─Conv2d (conv1)               [1, 1]                    [500, 1024, 2, 2]         [500, 512, 2, 2]          524,288
│    │    └─BatchNorm2d (bn1)            --                        [500, 512, 2, 2]          [500, 512, 2, 2]          1,024
│    │    └─ReLU (relu)                  --                        [500, 512, 2, 2]          [500, 512, 2, 2]          --
│    │    └─Conv2d (conv2)               [3, 3]                    [500, 512, 2, 2]          [500, 512, 2, 2]          589,824
│    │    └─BatchNorm2d (bn2)            --                        [500, 512, 2, 2]          [500, 512, 2, 2]          1,024
│    │    └─ReLU (relu)                  --                        [500, 512, 2, 2]          [500, 512, 2, 2]          --
│    │    └─Conv2d (conv3)               [1, 1]                    [500, 512, 2, 2]          [500, 1024, 2, 2]         524,288
│    │    └─BatchNorm2d (bn3)            --                        [500, 1024, 2, 2]         [500, 1024, 2, 2]         2,048
│    │    └─ReLU (relu)                  --                        [500, 1024, 2, 2]         [500, 1024, 2, 2]         --
│    └─Bottleneck (2)                    --                        [500, 1024, 2, 2]         [500, 1024, 2, 2]         --
│    │    └─Conv2d (conv1)               [1, 1]                    [500, 1024, 2, 2]         [500, 512, 2, 2]          524,288
│    │    └─BatchNorm2d (bn1)            --                        [500, 512, 2, 2]          [500, 512, 2, 2]          1,024
│    │    └─ReLU (relu)                  --                        [500, 512, 2, 2]          [500, 512, 2, 2]          --
│    │    └─Conv2d (conv2)               [3, 3]                    [500, 512, 2, 2]          [500, 512, 2, 2]          589,824
│    │    └─BatchNorm2d (bn2)            --                        [500, 512, 2, 2]          [500, 512, 2, 2]          1,024
│    │    └─ReLU (relu)                  --                        [500, 512, 2, 2]          [500, 512, 2, 2]          --
│    │    └─Conv2d (conv3)               [1, 1]                    [500, 512, 2, 2]          [500, 1024, 2, 2]         524,288
│    │    └─BatchNorm2d (bn3)            --                        [500, 1024, 2, 2]         [500, 1024, 2, 2]         2,048
│    │    └─ReLU (relu)                  --                        [500, 1024, 2, 2]         [500, 1024, 2, 2]         --
│    └─Bottleneck (3)                    --                        [500, 1024, 2, 2]         [500, 1024, 2, 2]         --
│    │    └─Conv2d (conv1)               [1, 1]                    [500, 1024, 2, 2]         [500, 512, 2, 2]          524,288
│    │    └─BatchNorm2d (bn1)            --                        [500, 512, 2, 2]          [500, 512, 2, 2]          1,024
│    │    └─ReLU (relu)                  --                        [500, 512, 2, 2]          [500, 512, 2, 2]          --
│    │    └─Conv2d (conv2)               [3, 3]                    [500, 512, 2, 2]          [500, 512, 2, 2]          589,824
│    │    └─BatchNorm2d (bn2)            --                        [500, 512, 2, 2]          [500, 512, 2, 2]          1,024
│    │    └─ReLU (relu)                  --                        [500, 512, 2, 2]          [500, 512, 2, 2]          --
│    │    └─Conv2d (conv3)               [1, 1]                    [500, 512, 2, 2]          [500, 1024, 2, 2]         524,288
│    │    └─BatchNorm2d (bn3)            --                        [500, 1024, 2, 2]         [500, 1024, 2, 2]         2,048
│    │    └─ReLU (relu)                  --                        [500, 1024, 2, 2]         [500, 1024, 2, 2]         --
│    └─Bottleneck (4)                    --                        [500, 1024, 2, 2]         [500, 1024, 2, 2]         --
│    │    └─Conv2d (conv1)               [1, 1]                    [500, 1024, 2, 2]         [500, 512, 2, 2]          524,288
│    │    └─BatchNorm2d (bn1)            --                        [500, 512, 2, 2]          [500, 512, 2, 2]          1,024
│    │    └─ReLU (relu)                  --                        [500, 512, 2, 2]          [500, 512, 2, 2]          --
│    │    └─Conv2d (conv2)               [3, 3]                    [500, 512, 2, 2]          [500, 512, 2, 2]          589,824
│    │    └─BatchNorm2d (bn2)            --                        [500, 512, 2, 2]          [500, 512, 2, 2]          1,024
│    │    └─ReLU (relu)                  --                        [500, 512, 2, 2]          [500, 512, 2, 2]          --
│    │    └─Conv2d (conv3)               [1, 1]                    [500, 512, 2, 2]          [500, 1024, 2, 2]         524,288
│    │    └─BatchNorm2d (bn3)            --                        [500, 1024, 2, 2]         [500, 1024, 2, 2]         2,048
│    │    └─ReLU (relu)                  --                        [500, 1024, 2, 2]         [500, 1024, 2, 2]         --
│    └─Bottleneck (5)                    --                        [500, 1024, 2, 2]         [500, 1024, 2, 2]         --
│    │    └─Conv2d (conv1)               [1, 1]                    [500, 1024, 2, 2]         [500, 512, 2, 2]          524,288
│    │    └─BatchNorm2d (bn1)            --                        [500, 512, 2, 2]          [500, 512, 2, 2]          1,024
│    │    └─ReLU (relu)                  --                        [500, 512, 2, 2]          [500, 512, 2, 2]          --
│    │    └─Conv2d (conv2)               [3, 3]                    [500, 512, 2, 2]          [500, 512, 2, 2]          589,824
│    │    └─BatchNorm2d (bn2)            --                        [500, 512, 2, 2]          [500, 512, 2, 2]          1,024
│    │    └─ReLU (relu)                  --                        [500, 512, 2, 2]          [500, 512, 2, 2]          --
│    │    └─Conv2d (conv3)               [1, 1]                    [500, 512, 2, 2]          [500, 1024, 2, 2]         524,288
│    │    └─BatchNorm2d (bn3)            --                        [500, 1024, 2, 2]         [500, 1024, 2, 2]         2,048
│    │    └─ReLU (relu)                  --                        [500, 1024, 2, 2]         [500, 1024, 2, 2]         --
├─Sequential (layer4)                    --                        [500, 1024, 2, 2]         [500, 2048, 1, 1]         --
│    └─Bottleneck (0)                    --                        [500, 1024, 2, 2]         [500, 2048, 1, 1]         --
│    │    └─Conv2d (conv1)               [1, 1]                    [500, 1024, 2, 2]         [500, 1024, 2, 2]         1,048,576
│    │    └─BatchNorm2d (bn1)            --                        [500, 1024, 2, 2]         [500, 1024, 2, 2]         2,048
│    │    └─ReLU (relu)                  --                        [500, 1024, 2, 2]         [500, 1024, 2, 2]         --
│    │    └─Conv2d (conv2)               [3, 3]                    [500, 1024, 2, 2]         [500, 1024, 1, 1]         2,359,296
│    │    └─BatchNorm2d (bn2)            --                        [500, 1024, 1, 1]         [500, 1024, 1, 1]         2,048
│    │    └─ReLU (relu)                  --                        [500, 1024, 1, 1]         [500, 1024, 1, 1]         --
│    │    └─Conv2d (conv3)               [1, 1]                    [500, 1024, 1, 1]         [500, 2048, 1, 1]         2,097,152
│    │    └─BatchNorm2d (bn3)            --                        [500, 2048, 1, 1]         [500, 2048, 1, 1]         4,096
│    │    └─Sequential (downsample)      --                        [500, 1024, 2, 2]         [500, 2048, 1, 1]         2,101,248
│    │    └─ReLU (relu)                  --                        [500, 2048, 1, 1]         [500, 2048, 1, 1]         --
│    └─Bottleneck (1)                    --                        [500, 2048, 1, 1]         [500, 2048, 1, 1]         --
│    │    └─Conv2d (conv1)               [1, 1]                    [500, 2048, 1, 1]         [500, 1024, 1, 1]         2,097,152
│    │    └─BatchNorm2d (bn1)            --                        [500, 1024, 1, 1]         [500, 1024, 1, 1]         2,048
│    │    └─ReLU (relu)                  --                        [500, 1024, 1, 1]         [500, 1024, 1, 1]         --
│    │    └─Conv2d (conv2)               [3, 3]                    [500, 1024, 1, 1]         [500, 1024, 1, 1]         2,359,296
│    │    └─BatchNorm2d (bn2)            --                        [500, 1024, 1, 1]         [500, 1024, 1, 1]         2,048
│    │    └─ReLU (relu)                  --                        [500, 1024, 1, 1]         [500, 1024, 1, 1]         --
│    │    └─Conv2d (conv3)               [1, 1]                    [500, 1024, 1, 1]         [500, 2048, 1, 1]         2,097,152
│    │    └─BatchNorm2d (bn3)            --                        [500, 2048, 1, 1]         [500, 2048, 1, 1]         4,096
│    │    └─ReLU (relu)                  --                        [500, 2048, 1, 1]         [500, 2048, 1, 1]         --
│    └─Bottleneck (2)                    --                        [500, 2048, 1, 1]         [500, 2048, 1, 1]         --
│    │    └─Conv2d (conv1)               [1, 1]                    [500, 2048, 1, 1]         [500, 1024, 1, 1]         2,097,152
│    │    └─BatchNorm2d (bn1)            --                        [500, 1024, 1, 1]         [500, 1024, 1, 1]         2,048
│    │    └─ReLU (relu)                  --                        [500, 1024, 1, 1]         [500, 1024, 1, 1]         --
│    │    └─Conv2d (conv2)               [3, 3]                    [500, 1024, 1, 1]         [500, 1024, 1, 1]         2,359,296
│    │    └─BatchNorm2d (bn2)            --                        [500, 1024, 1, 1]         [500, 1024, 1, 1]         2,048
│    │    └─ReLU (relu)                  --                        [500, 1024, 1, 1]         [500, 1024, 1, 1]         --
│    │    └─Conv2d (conv3)               [1, 1]                    [500, 1024, 1, 1]         [500, 2048, 1, 1]         2,097,152
│    │    └─BatchNorm2d (bn3)            --                        [500, 2048, 1, 1]         [500, 2048, 1, 1]         4,096
│    │    └─ReLU (relu)                  --                        [500, 2048, 1, 1]         [500, 2048, 1, 1]         --
├─AdaptiveAvgPool2d (avgpool)            --                        [500, 2048, 1, 1]         [500, 2048, 1, 1]         --
├─Linear (fc)                            --                        [500, 2048]               [500, 1000]               2,049,000
============================================================================================================================================
Total params: 34,931,496
Trainable params: 34,931,496
Non-trainable params: 0
Total mult-adds (G): 60.72
============================================================================================================================================
Input size (MB): 6.14
…
