…
=======================================================================================================================================================
Layer (type (var_name))                                      Input Shape               Output Shape              Kernel Shape              Param #                   Mult-Adds
=========================================================================================================================================================================================
EEWrapper (EEWrapper)                                        [128, 3, 32, 32]          [128, 100]                --                        --                        --
├─RepeatData (repeater)                                      [128, 3, 32, 32]          [128, 48, 32, 32]         --                        --                        --
├─ConvNeXt (model)                                           [128, 48, 32, 32]         [128, 1600]               --                        --                        --
│    └─Sequential (features)                                 [128, 48, 32, 32]         [128, 3072, 4, 4]         --                        --                        --
│    │    └─Conv2dNormActivation (0)                         [128, 48, 32, 32]         [128, 384, 32, 32]        --                        --                        --
│    │    │    └─Conv2d (0)                                  [128, 48, 32, 32]         [128, 384, 32, 32]        [3, 3]                    10,752                    1,409,286,144
│    │    │    └─GroupNorm (1)                               [128, 384, 32, 32]        [128, 384, 32, 32]        --                        768                       98,304
│    │    └─Sequential (1)                                   [128, 384, 32, 32]        [128, 384, 32, 32]        --                        --                        --
│    │    │    └─CNBlock (0)                                 [128, 384, 32, 32]        [128, 384, 32, 32]        --                        384                       --
│    │    │    │    └─Sequential (block)                     [128, 384, 32, 32]        [128, 384, 32, 32]        --                        --                        --
│    │    │    │    │    └─Conv2d (0)                        [128, 384, 32, 32]        [128, 384, 32, 32]        [7, 7]                    19,200                    2,516,582,400
│    │    │    │    │    └─Permute (1)                       [128, 384, 32, 32]        [128, 32, 32, 384]        --                        --                        --
│    │    │    │    │    └─PermutedGroupNorm (2)             [128, 32, 32, 384]        [128, 32, 32, 384]        --                        --                        --
│    │    │    │    │    │    └─GroupNorm (gn)               [128, 384, 32, 32]        [128, 384, 32, 32]        --                        768                       98,304
│    │    │    │    │    └─GroupedLinear (3)                 [128, 32, 32, 384]        [128, 32, 32, 1536]       --                        38,400                    4,915,200
│    │    │    │    │    └─GELU (4)                          [128, 32, 32, 1536]       [128, 32, 32, 1536]       --                        --                        --
│    │    │    │    │    └─GroupedLinear (5)                 [128, 32, 32, 1536]       [128, 32, 32, 384]        --                        37,248                    4,767,744
│    │    │    │    │    └─Permute (6)                       [128, 32, 32, 384]        [128, 384, 32, 32]        --                        --                        --
│    │    │    │    └─StochasticDepth (stochastic_depth)     [128, 384, 32, 32]        [128, 384, 32, 32]        --                        --                        --
│    │    │    └─CNBlock (1)                                 [128, 384, 32, 32]        [128, 384, 32, 32]        --                        384                       --
│    │    │    │    └─Sequential (block)                     [128, 384, 32, 32]        [128, 384, 32, 32]        --                        --                        --
│    │    │    │    │    └─Conv2d (0)                        [128, 384, 32, 32]        [128, 384, 32, 32]        [7, 7]                    19,200                    2,516,582,400
│    │    │    │    │    └─Permute (1)                       [128, 384, 32, 32]        [128, 32, 32, 384]        --                        --                        --
│    │    │    │    │    └─PermutedGroupNorm (2)             [128, 32, 32, 384]        [128, 32, 32, 384]        --                        --                        --
│    │    │    │    │    │    └─GroupNorm (gn)               [128, 384, 32, 32]        [128, 384, 32, 32]        --                        768                       98,304
│    │    │    │    │    └─GroupedLinear (3)                 [128, 32, 32, 384]        [128, 32, 32, 1536]       --                        38,400                    4,915,200
│    │    │    │    │    └─GELU (4)                          [128, 32, 32, 1536]       [128, 32, 32, 1536]       --                        --                        --
│    │    │    │    │    └─GroupedLinear (5)                 [128, 32, 32, 1536]       [128, 32, 32, 384]        --                        37,248                    4,767,744
│    │    │    │    │    └─Permute (6)                       [128, 32, 32, 384]        [128, 384, 32, 32]        --                        --                        --
│    │    │    │    └─StochasticDepth (stochastic_depth)     [128, 384, 32, 32]        [128, 384, 32, 32]        --                        --                        --
│    │    │    └─CNBlock (2)                                 [128, 384, 32, 32]        [128, 384, 32, 32]        --                        384                       --
│    │    │    │    └─Sequential (block)                     [128, 384, 32, 32]        [128, 384, 32, 32]        --                        --                        --
│    │    │    │    │    └─Conv2d (0)                        [128, 384, 32, 32]        [128, 384, 32, 32]        [7, 7]                    19,200                    2,516,582,400
│    │    │    │    │    └─Permute (1)                       [128, 384, 32, 32]        [128, 32, 32, 384]        --                        --                        --
│    │    │    │    │    └─PermutedGroupNorm (2)             [128, 32, 32, 384]        [128, 32, 32, 384]        --                        --                        --
│    │    │    │    │    │    └─GroupNorm (gn)               [128, 384, 32, 32]        [128, 384, 32, 32]        --                        768                       98,304
│    │    │    │    │    └─GroupedLinear (3)                 [128, 32, 32, 384]        [128, 32, 32, 1536]       --                        38,400                    4,915,200
│    │    │    │    │    └─GELU (4)                          [128, 32, 32, 1536]       [128, 32, 32, 1536]       --                        --                        --
│    │    │    │    │    └─GroupedLinear (5)                 [128, 32, 32, 1536]       [128, 32, 32, 384]        --                        37,248                    4,767,744
│    │    │    │    │    └─Permute (6)                       [128, 32, 32, 384]        [128, 384, 32, 32]        --                        --                        --
│    │    │    │    └─StochasticDepth (stochastic_depth)     [128, 384, 32, 32]        [128, 384, 32, 32]        --                        --                        --
│    │    └─Sequential (2)                                   [128, 384, 32, 32]        [128, 768, 16, 16]        --                        --                        --
│    │    │    └─GroupNorm (0)                               [128, 384, 32, 32]        [128, 384, 32, 32]        --                        768                       98,304
│    │    │    └─Conv2d (1)                                  [128, 384, 32, 32]        [128, 768, 16, 16]        [2, 2]                    74,496                    2,441,084,928
│    │    └─Sequential (3)                                   [128, 768, 16, 16]        [128, 768, 16, 16]        --                        --                        --
│    │    │    └─CNBlock (0)                                 [128, 768, 16, 16]        [128, 768, 16, 16]        --                        768                       --
│    │    │    │    └─Sequential (block)                     [128, 768, 16, 16]        [128, 768, 16, 16]        --                        --                        --
│    │    │    │    │    └─Conv2d (0)                        [128, 768, 16, 16]        [128, 768, 16, 16]        [7, 7]                    38,400                    1,258,291,200
│    │    │    │    │    └─Permute (1)                       [128, 768, 16, 16]        [128, 16, 16, 768]        --                        --                        --
│    │    │    │    │    └─PermutedGroupNorm (2)             [128, 16, 16, 768]        [128, 16, 16, 768]        --                        --                        --
│    │    │    │    │    │    └─GroupNorm (gn)               [128, 768, 16, 16]        [128, 768, 16, 16]        --                        1,536                     196,608
│    │    │    │    │    └─GroupedLinear (3)                 [128, 16, 16, 768]        [128, 16, 16, 3072]       --                        150,528                   19,267,584
│    │    │    │    │    └─GELU (4)                          [128, 16, 16, 3072]       [128, 16, 16, 3072]       --                        --                        --
│    │    │    │    │    └─GroupedLinear (5)                 [128, 16, 16, 3072]       [128, 16, 16, 768]        --                        148,224                   18,972,672
│    │    │    │    │    └─Permute (6)                       [128, 16, 16, 768]        [128, 768, 16, 16]        --                        --                        --
│    │    │    │    └─StochasticDepth (stochastic_depth)     [128, 768, 16, 16]        [128, 768, 16, 16]        --                        --                        --
│    │    │    └─CNBlock (1)                                 [128, 768, 16, 16]        [128, 768, 16, 16]        --                        768                       --
│    │    │    │    └─Sequential (block)                     [128, 768, 16, 16]        [128, 768, 16, 16]        --                        --                        --
│    │    │    │    │    └─Conv2d (0)                        [128, 768, 16, 16]        [128, 768, 16, 16]        [7, 7]                    38,400                    1,258,291,200
│    │    │    │    │    └─Permute (1)                       [128, 768, 16, 16]        [128, 16, 16, 768]        --                        --                        --
│    │    │    │    │    └─PermutedGroupNorm (2)             [128, 16, 16, 768]        [128, 16, 16, 768]        --                        --                        --
│    │    │    │    │    │    └─GroupNorm (gn)               [128, 768, 16, 16]        [128, 768, 16, 16]        --                        1,536                     196,608
│    │    │    │    │    └─GroupedLinear (3)                 [128, 16, 16, 768]        [128, 16, 16, 3072]       --                        150,528                   19,267,584
│    │    │    │    │    └─GELU (4)                          [128, 16, 16, 3072]       [128, 16, 16, 3072]       --                        --                        --
│    │    │    │    │    └─GroupedLinear (5)                 [128, 16, 16, 3072]       [128, 16, 16, 768]        --                        148,224                   18,972,672
│    │    │    │    │    └─Permute (6)                       [128, 16, 16, 768]        [128, 768, 16, 16]        --                        --                        --
│    │    │    │    └─StochasticDepth (stochastic_depth)     [128, 768, 16, 16]        [128, 768, 16, 16]        --                        --                        --
│    │    │    └─CNBlock (2)                                 [128, 768, 16, 16]        [128, 768, 16, 16]        --                        768                       --
│    │    │    │    └─Sequential (block)                     [128, 768, 16, 16]        [128, 768, 16, 16]        --                        --                        --
│    │    │    │    │    └─Conv2d (0)                        [128, 768, 16, 16]        [128, 768, 16, 16]        [7, 7]                    38,400                    1,258,291,200
│    │    │    │    │    └─Permute (1)                       [128, 768, 16, 16]        [128, 16, 16, 768]        --                        --                        --
│    │    │    │    │    └─PermutedGroupNorm (2)             [128, 16, 16, 768]        [128, 16, 16, 768]        --                        --                        --
│    │    │    │    │    │    └─GroupNorm (gn)               [128, 768, 16, 16]        [128, 768, 16, 16]        --                        1,536                     196,608
│    │    │    │    │    └─GroupedLinear (3)                 [128, 16, 16, 768]        [128, 16, 16, 3072]       --                        150,528                   19,267,584
│    │    │    │    │    └─GELU (4)                          [128, 16, 16, 3072]       [128, 16, 16, 3072]       --                        --                        --
│    │    │    │    │    └─GroupedLinear (5)                 [128, 16, 16, 3072]       [128, 16, 16, 768]        --                        148,224                   18,972,672
│    │    │    │    │    └─Permute (6)                       [128, 16, 16, 768]        [128, 768, 16, 16]        --                        --                        --
│    │    │    │    └─StochasticDepth (stochastic_depth)     [128, 768, 16, 16]        [128, 768, 16, 16]        --                        --                        --
│    │    └─Sequential (4)                                   [128, 768, 16, 16]        [128, 1536, 8, 8]         --                        --                        --
│    │    │    └─GroupNorm (0)                               [128, 768, 16, 16]        [128, 768, 16, 16]        --                        1,536                     196,608
│    │    │    └─Conv2d (1)                                  [128, 768, 16, 16]        [128, 1536, 8, 8]         [2, 2]                    296,448                   2,428,502,016
│    │    └─Sequential (5)                                   [128, 1536, 8, 8]         [128, 1536, 8, 8]         --                        --                        --
│    │    │    └─CNBlock (0)                                 [128, 1536, 8, 8]         [128, 1536, 8, 8]         --                        1,536                     --
│    │    │    │    └─Sequential (block)                     [128, 1536, 8, 8]         [128, 1536, 8, 8]         --                        --                        --
│    │    │    │    │    └─Conv2d (0)                        [128, 1536, 8, 8]         [128, 1536, 8, 8]         [7, 7]                    76,800                    629,145,600
│    │    │    │    │    └─Permute (1)                       [128, 1536, 8, 8]         [128, 8, 8, 1536]         --                        --                        --
│    │    │    │    │    └─PermutedGroupNorm (2)             [128, 8, 8, 1536]         [128, 8, 8, 1536]         --                        --                        --
│    │    │    │    │    │    └─GroupNorm (gn)               [128, 1536, 8, 8]         [128, 1536, 8, 8]         --                        3,072                     393,216
│    │    │    │    │    └─GroupedLinear (3)                 [128, 8, 8, 1536]         [128, 8, 8, 6144]         --                        595,968                   76,283,904
│    │    │    │    │    └─GELU (4)                          [128, 8, 8, 6144]         [128, 8, 8, 6144]         --                        --                        --
│    │    │    │    │    └─GroupedLinear (5)                 [128, 8, 8, 6144]         [128, 8, 8, 1536]         --                        591,360                   75,694,080
│    │    │    │    │    └─Permute (6)                       [128, 8, 8, 1536]         [128, 1536, 8, 8]         --                        --                        --
│    │    │    │    └─StochasticDepth (stochastic_depth)     [128, 1536, 8, 8]         [128, 1536, 8, 8]         --                        --                        --
│    │    │    └─CNBlock (1)                                 [128, 1536, 8, 8]         [128, 1536, 8, 8]         --                        1,536                     --
│    │    │    │    └─Sequential (block)                     [128, 1536, 8, 8]         [128, 1536, 8, 8]         --                        --                        --
│    │    │    │    │    └─Conv2d (0)                        [128, 1536, 8, 8]         [128, 1536, 8, 8]         [7, 7]                    76,800                    629,145,600
│    │    │    │    │    └─Permute (1)                       [128, 1536, 8, 8]         [128, 8, 8, 1536]         --                        --                        --
│    │    │    │    │    └─PermutedGroupNorm (2)             [128, 8, 8, 1536]         [128, 8, 8, 1536]         --                        --                        --
│    │    │    │    │    │    └─GroupNorm (gn)               [128, 1536, 8, 8]         [128, 1536, 8, 8]         --                        3,072                     393,216
│    │    │    │    │    └─GroupedLinear (3)                 [128, 8, 8, 1536]         [128, 8, 8, 6144]         --                        595,968                   76,283,904
│    │    │    │    │    └─GELU (4)                          [128, 8, 8, 6144]         [128, 8, 8, 6144]         --                        --                        --
│    │    │    │    │    └─GroupedLinear (5)                 [128, 8, 8, 6144]         [128, 8, 8, 1536]         --                        591,360                   75,694,080
│    │    │    │    │    └─Permute (6)                       [128, 8, 8, 1536]         [128, 1536, 8, 8]         --                        --                        --
│    │    │    │    └─StochasticDepth (stochastic_depth)     [128, 1536, 8, 8]         [128, 1536, 8, 8]         --                        --                        --
│    │    │    └─CNBlock (2)                                 [128, 1536, 8, 8]         [128, 1536, 8, 8]         --                        1,536                     --
│    │    │    │    └─Sequential (block)                     [128, 1536, 8, 8]         [128, 1536, 8, 8]         --                        --                        --
│    │    │    │    │    └─Conv2d (0)                        [128, 1536, 8, 8]         [128, 1536, 8, 8]         [7, 7]                    76,800                    629,145,600
│    │    │    │    │    └─Permute (1)                       [128, 1536, 8, 8]         [128, 8, 8, 1536]         --                        --                        --
│    │    │    │    │    └─PermutedGroupNorm (2)             [128, 8, 8, 1536]         [128, 8, 8, 1536]         --                        --                        --
│    │    │    │    │    │    └─GroupNorm (gn)               [128, 1536, 8, 8]         [128, 1536, 8, 8]         --                        3,072                     393,216
│    │    │    │    │    └─GroupedLinear (3)                 [128, 8, 8, 1536]         [128, 8, 8, 6144]         --                        595,968                   76,283,904
│    │    │    │    │    └─GELU (4)                          [128, 8, 8, 6144]         [128, 8, 8, 6144]         --                        --                        --
│    │    │    │    │    └─GroupedLinear (5)                 [128, 8, 8, 6144]         [128, 8, 8, 1536]         --                        591,360                   75,694,080
│    │    │    │    │    └─Permute (6)                       [128, 8, 8, 1536]         [128, 1536, 8, 8]         --                        --                        --
│    │    │    │    └─StochasticDepth (stochastic_depth)     [128, 1536, 8, 8]         [128, 1536, 8, 8]         --                        --                        --
│    │    │    └─CNBlock (3)                                 [128, 1536, 8, 8]         [128, 1536, 8, 8]         --                        1,536                     --
│    │    │    │    └─Sequential (block)                     [128, 1536, 8, 8]         [128, 1536, 8, 8]         --                        --                        --
│    │    │    │    │    └─Conv2d (0)                        [128, 1536, 8, 8]         [128, 1536, 8, 8]         [7, 7]                    76,800                    629,145,600
│    │    │    │    │    └─Permute (1)                       [128, 1536, 8, 8]         [128, 8, 8, 1536]         --                        --                        --
│    │    │    │    │    └─PermutedGroupNorm (2)             [128, 8, 8, 1536]         [128, 8, 8, 1536]         --                        --                        --
│    │    │    │    │    │    └─GroupNorm (gn)               [128, 1536, 8, 8]         [128, 1536, 8, 8]         --                        3,072                     393,216
│    │    │    │    │    └─GroupedLinear (3)                 [128, 8, 8, 1536]         [128, 8, 8, 6144]         --                        595,968                   76,283,904
│    │    │    │    │    └─GELU (4)                          [128, 8, 8, 6144]         [128, 8, 8, 6144]         --                        --                        --
│    │    │    │    │    └─GroupedLinear (5)                 [128, 8, 8, 6144]         [128, 8, 8, 1536]         --                        591,360                   75,694,080
│    │    │    │    │    └─Permute (6)                       [128, 8, 8, 1536]         [128, 1536, 8, 8]         --                        --                        --
│    │    │    │    └─StochasticDepth (stochastic_depth)     [128, 1536, 8, 8]         [128, 1536, 8, 8]         --                        --                        --
│    │    │    └─CNBlock (4)                                 [128, 1536, 8, 8]         [128, 1536, 8, 8]         --                        1,536                     --
│    │    │    │    └─Sequential (block)                     [128, 1536, 8, 8]         [128, 1536, 8, 8]         --                        --                        --
│    │    │    │    │    └─Conv2d (0)                        [128, 1536, 8, 8]         [128, 1536, 8, 8]         [7, 7]                    76,800                    629,145,600
│    │    │    │    │    └─Permute (1)                       [128, 1536, 8, 8]         [128, 8, 8, 1536]         --                        --                        --
│    │    │    │    │    └─PermutedGroupNorm (2)             [128, 8, 8, 1536]         [128, 8, 8, 1536]         --                        --                        --
│    │    │    │    │    │    └─GroupNorm (gn)               [128, 1536, 8, 8]         [128, 1536, 8, 8]         --                        3,072                     393,216
│    │    │    │    │    └─GroupedLinear (3)                 [128, 8, 8, 1536]         [128, 8, 8, 6144]         --                        595,968                   76,283,904
│    │    │    │    │    └─GELU (4)                          [128, 8, 8, 6144]         [128, 8, 8, 6144]         --                        --                        --
│    │    │    │    │    └─GroupedLinear (5)                 [128, 8, 8, 6144]         [128, 8, 8, 1536]         --                        591,360                   75,694,080
│    │    │    │    │    └─Permute (6)                       [128, 8, 8, 1536]         [128, 1536, 8, 8]         --                        --                        --
│    │    │    │    └─StochasticDepth (stochastic_depth)     [128, 1536, 8, 8]         [128, 1536, 8, 8]         --                        --                        --
│    │    │    └─CNBlock (5)                                 [128, 1536, 8, 8]         [128, 1536, 8, 8]         --                        1,536                     --
│    │    │    │    └─Sequential (block)                     [128, 1536, 8, 8]         [128, 1536, 8, 8]         --                        --                        --
│    │    │    │    │    └─Conv2d (0)                        [128, 1536, 8, 8]         [128, 1536, 8, 8]         [7, 7]                    76,800                    629,145,600
│    │    │    │    │    └─Permute (1)                       [128, 1536, 8, 8]         [128, 8, 8, 1536]         --                        --                        --
│    │    │    │    │    └─PermutedGroupNorm (2)             [128, 8, 8, 1536]         [128, 8, 8, 1536]         --                        --                        --
│    │    │    │    │    │    └─GroupNorm (gn)               [128, 1536, 8, 8]         [128, 1536, 8, 8]         --                        3,072                     393,216
│    │    │    │    │    └─GroupedLinear (3)                 [128, 8, 8, 1536]         [128, 8, 8, 6144]         --                        595,968                   76,283,904
│    │    │    │    │    └─GELU (4)                          [128, 8, 8, 6144]         [128, 8, 8, 6144]         --                        --                        --
│    │    │    │    │    └─GroupedLinear (5)                 [128, 8, 8, 6144]         [128, 8, 8, 1536]         --                        591,360                   75,694,080
│    │    │    │    │    └─Permute (6)                       [128, 8, 8, 1536]         [128, 1536, 8, 8]         --                        --                        --
│    │    │    │    └─StochasticDepth (stochastic_depth)     [128, 1536, 8, 8]         [128, 1536, 8, 8]         --                        --                        --
│    │    │    └─CNBlock (6)                                 [128, 1536, 8, 8]         [128, 1536, 8, 8]         --                        1,536                     --
│    │    │    │    └─Sequential (block)                     [128, 1536, 8, 8]         [128, 1536, 8, 8]         --                        --                        --
│    │    │    │    │    └─Conv2d (0)                        [128, 1536, 8, 8]         [128, 1536, 8, 8]         [7, 7]                    76,800                    629,145,600
│    │    │    │    │    └─Permute (1)                       [128, 1536, 8, 8]         [128, 8, 8, 1536]         --                        --                        --
│    │    │    │    │    └─PermutedGroupNorm (2)             [128, 8, 8, 1536]         [128, 8, 8, 1536]         --                        --                        --
│    │    │    │    │    │    └─GroupNorm (gn)               [128, 1536, 8, 8]         [128, 1536, 8, 8]         --                        3,072                     393,216
│    │    │    │    │    └─GroupedLinear (3)                 [128, 8, 8, 1536]         [128, 8, 8, 6144]         --                        595,968                   76,283,904
│    │    │    │    │    └─GELU (4)                          [128, 8, 8, 6144]         [128, 8, 8, 6144]         --                        --                        --
│    │    │    │    │    └─GroupedLinear (5)                 [128, 8, 8, 6144]         [128, 8, 8, 1536]         --                        591,360                   75,694,080
│    │    │    │    │    └─Permute (6)                       [128, 8, 8, 1536]         [128, 1536, 8, 8]         --                        --                        --
│    │    │    │    └─StochasticDepth (stochastic_depth)     [128, 1536, 8, 8]         [128, 1536, 8, 8]         --                        --                        --
│    │    │    └─CNBlock (7)                                 [128, 1536, 8, 8]         [128, 1536, 8, 8]         --                        1,536                     --
│    │    │    │    └─Sequential (block)                     [128, 1536, 8, 8]         [128, 1536, 8, 8]         --                        --                        --
│    │    │    │    │    └─Conv2d (0)                        [128, 1536, 8, 8]         [128, 1536, 8, 8]         [7, 7]                    76,800                    629,145,600
│    │    │    │    │    └─Permute (1)                       [128, 1536, 8, 8]         [128, 8, 8, 1536]         --                        --                        --
│    │    │    │    │    └─PermutedGroupNorm (2)             [128, 8, 8, 1536]         [128, 8, 8, 1536]         --                        --                        --
│    │    │    │    │    │    └─GroupNorm (gn)               [128, 1536, 8, 8]         [128, 1536, 8, 8]         --                        3,072                     393,216
│    │    │    │    │    └─GroupedLinear (3)                 [128, 8, 8, 1536]         [128, 8, 8, 6144]         --                        595,968                   76,283,904
│    │    │    │    │    └─GELU (4)                          [128, 8, 8, 6144]         [128, 8, 8, 6144]         --                        --                        --
│    │    │    │    │    └─GroupedLinear (5)                 [128, 8, 8, 6144]         [128, 8, 8, 1536]         --                        591,360                   75,694,080
│    │    │    │    │    └─Permute (6)                       [128, 8, 8, 1536]         [128, 1536, 8, 8]         --                        --                        --
│    │    │    │    └─StochasticDepth (stochastic_depth)     [128, 1536, 8, 8]         [128, 1536, 8, 8]         --                        --                        --
│    │    │    └─CNBlock (8)                                 [128, 1536, 8, 8]         [128, 1536, 8, 8]         --                        1,536                     --
│    │    │    │    └─Sequential (block)                     [128, 1536, 8, 8]         [128, 1536, 8, 8]         --                        --                        --
│    │    │    │    │    └─Conv2d (0)                        [128, 1536, 8, 8]         [128, 1536, 8, 8]         [7, 7]                    76,800                    629,145,600
│    │    │    │    │    └─Permute (1)                       [128, 1536, 8, 8]         [128, 8, 8, 1536]         --                        --                        --
│    │    │    │    │    └─PermutedGroupNorm (2)             [128, 8, 8, 1536]         [128, 8, 8, 1536]         --                        --                        --
│    │    │    │    │    │    └─GroupNorm (gn)               [128, 1536, 8, 8]         [128, 1536, 8, 8]         --                        3,072                     393,216
│    │    │    │    │    └─GroupedLinear (3)                 [128, 8, 8, 1536]         [128, 8, 8, 6144]         --                        595,968                   76,283,904
│    │    │    │    │    └─GELU (4)                          [128, 8, 8, 6144]         [128, 8, 8, 6144]         --                        --                        --
│    │    │    │    │    └─GroupedLinear (5)                 [128, 8, 8, 6144]         [128, 8, 8, 1536]         --                        591,360                   75,694,080
│    │    │    │    │    └─Permute (6)                       [128, 8, 8, 1536]         [128, 1536, 8, 8]         --                        --                        --
│    │    │    │    └─StochasticDepth (stochastic_depth)     [128, 1536, 8, 8]         [128, 1536, 8, 8]         --                        --                        --
│    │    │    └─CNBlock (9)                                 [128, 1536, 8, 8]         [128, 1536, 8, 8]         --                        1,536                     --
│    │    │    │    └─Sequential (block)                     [128, 1536, 8, 8]         [128, 1536, 8, 8]         --                        --                        --
│    │    │    │    │    └─Conv2d (0)                        [128, 1536, 8, 8]         [128, 1536, 8, 8]         [7, 7]                    76,800                    629,145,600
│    │    │    │    │    └─Permute (1)                       [128, 1536, 8, 8]         [128, 8, 8, 1536]         --                        --                        --
│    │    │    │    │    └─PermutedGroupNorm (2)             [128, 8, 8, 1536]         [128, 8, 8, 1536]         --                        --                        --
│    │    │    │    │    │    └─GroupNorm (gn)               [128, 1536, 8, 8]         [128, 1536, 8, 8]         --                        3,072                     393,216
│    │    │    │    │    └─GroupedLinear (3)                 [128, 8, 8, 1536]         [128, 8, 8, 6144]         --                        595,968                   76,283,904
│    │    │    │    │    └─GELU (4)                          [128, 8, 8, 6144]         [128, 8, 8, 6144]         --                        --                        --
│    │    │    │    │    └─GroupedLinear (5)                 [128, 8, 8, 6144]         [128, 8, 8, 1536]         --                        591,360                   75,694,080
│    │    │    │    │    └─Permute (6)                       [128, 8, 8, 1536]         [128, 1536, 8, 8]         --                        --                        --
│    │    │    │    └─StochasticDepth (stochastic_depth)     [128, 1536, 8, 8]         [128, 1536, 8, 8]         --                        --                        --
│    │    │    └─CNBlock (10)                                [128, 1536, 8, 8]         [128, 1536, 8, 8]         --                        1,536                     --
│    │    │    │    └─Sequential (block)                     [128, 1536, 8, 8]         [128, 1536, 8, 8]         --                        --                        --
│    │    │    │    │    └─Conv2d (0)                        [128, 1536, 8, 8]         [128, 1536, 8, 8]         [7, 7]                    76,800                    629,145,600
│    │    │    │    │    └─Permute (1)                       [128, 1536, 8, 8]         [128, 8, 8, 1536]         --                        --                        --
│    │    │    │    │    └─PermutedGroupNorm (2)             [128, 8, 8, 1536]         [128, 8, 8, 1536]         --                        --                        --
│    │    │    │    │    │    └─GroupNorm (gn)               [128, 1536, 8, 8]         [128, 1536, 8, 8]         --                        3,072                     393,216
│    │    │    │    │    └─GroupedLinear (3)                 [128, 8, 8, 1536]         [128, 8, 8, 6144]         --                        595,968                   76,283,904
│    │    │    │    │    └─GELU (4)                          [128, 8, 8, 6144]         [128, 8, 8, 6144]         --                        --                        --
│    │    │    │    │    └─GroupedLinear (5)                 [128, 8, 8, 6144]         [128, 8, 8, 1536]         --                        591,360                   75,694,080
│    │    │    │    │    └─Permute (6)                       [128, 8, 8, 1536]         [128, 1536, 8, 8]         --                        --                        --
│    │    │    │    └─StochasticDepth (stochastic_depth)     [128, 1536, 8, 8]         [128, 1536, 8, 8]         --                        --                        --
│    │    │    └─CNBlock (11)                                [128, 1536, 8, 8]         [128, 1536, 8, 8]         --                        1,536                     --
│    │    │    │    └─Sequential (block)                     [128, 1536, 8, 8]         [128, 1536, 8, 8]         --                        --                        --
│    │    │    │    │    └─Conv2d (0)                        [128, 1536, 8, 8]         [128, 1536, 8, 8]         [7, 7]                    76,800                    629,145,600
│    │    │    │    │    └─Permute (1)                       [128, 1536, 8, 8]         [128, 8, 8, 1536]         --                        --                        --
│    │    │    │    │    └─PermutedGroupNorm (2)             [128, 8, 8, 1536]         [128, 8, 8, 1536]         --                        --                        --
│    │    │    │    │    │    └─GroupNorm (gn)               [128, 1536, 8, 8]         [128, 1536, 8, 8]         --                        3,072                     393,216
│    │    │    │    │    └─GroupedLinear (3)                 [128, 8, 8, 1536]         [128, 8, 8, 6144]         --                        595,968                   76,283,904
│    │    │    │    │    └─GELU (4)                          [128, 8, 8, 6144]         [128, 8, 8, 6144]         --                        --                        --
│    │    │    │    │    └─GroupedLinear (5)                 [128, 8, 8, 6144]         [128, 8, 8, 1536]         --                        591,360                   75,694,080
│    │    │    │    │    └─Permute (6)                       [128, 8, 8, 1536]         [128, 1536, 8, 8]         --                        --                        --
│    │    │    │    └─StochasticDepth (stochastic_depth)     [128, 1536, 8, 8]         [128, 1536, 8, 8]         --                        --                        --
│    │    │    └─CNBlock (12)                                [128, 1536, 8, 8]         [128, 1536, 8, 8]         --                        1,536                     --
│    │    │    │    └─Sequential (block)                     [128, 1536, 8, 8]         [128, 1536, 8, 8]         --                        --                        --
│    │    │    │    │    └─Conv2d (0)                        [128, 1536, 8, 8]         [128, 1536, 8, 8]         [7, 7]                    76,800                    629,145,600
│    │    │    │    │    └─Permute (1)                       [128, 1536, 8, 8]         [128, 8, 8, 1536]         --                        --                        --
│    │    │    │    │    └─PermutedGroupNorm (2)             [128, 8, 8, 1536]         [128, 8, 8, 1536]         --                        --                        --
│    │    │    │    │    │    └─GroupNorm (gn)               [128, 1536, 8, 8]         [128, 1536, 8, 8]         --                        3,072                     393,216
│    │    │    │    │    └─GroupedLinear (3)                 [128, 8, 8, 1536]         [128, 8, 8, 6144]         --                        595,968                   76,283,904
│    │    │    │    │    └─GELU (4)                          [128, 8, 8, 6144]         [128, 8, 8, 6144]         --                        --                        --
│    │    │    │    │    └─GroupedLinear (5)                 [128, 8, 8, 6144]         [128, 8, 8, 1536]         --                        591,360                   75,694,080
│    │    │    │    │    └─Permute (6)                       [128, 8, 8, 1536]         [128, 1536, 8, 8]         --                        --                        --
│    │    │    │    └─StochasticDepth (stochastic_depth)     [128, 1536, 8, 8]         [128, 1536, 8, 8]         --                        --                        --
│    │    │    └─CNBlock (13)                                [128, 1536, 8, 8]         [128, 1536, 8, 8]         --                        1,536                     --
│    │    │    │    └─Sequential (block)                     [128, 1536, 8, 8]         [128, 1536, 8, 8]         --                        --                        --
│    │    │    │    │    └─Conv2d (0)                        [128, 1536, 8, 8]         [128, 1536, 8, 8]         [7, 7]                    76,800                    629,145,600
│    │    │    │    │    └─Permute (1)                       [128, 1536, 8, 8]         [128, 8, 8, 1536]         --                        --                        --
│    │    │    │    │    └─PermutedGroupNorm (2)             [128, 8, 8, 1536]         [128, 8, 8, 1536]         --                        --                        --
│    │    │    │    │    │    └─GroupNorm (gn)               [128, 1536, 8, 8]         [128, 1536, 8, 8]         --                        3,072                     393,216
│    │    │    │    │    └─GroupedLinear (3)                 [128, 8, 8, 1536]         [128, 8, 8, 6144]         --                        595,968                   76,283,904
│    │    │    │    │    └─GELU (4)                          [128, 8, 8, 6144]         [128, 8, 8, 6144]         --                        --                        --
│    │    │    │    │    └─GroupedLinear (5)                 [128, 8, 8, 6144]         [128, 8, 8, 1536]         --                        591,360                   75,694,080
│    │    │    │    │    └─Permute (6)                       [128, 8, 8, 1536]         [128, 1536, 8, 8]         --                        --                        --
│    │    │    │    └─StochasticDepth (stochastic_depth)     [128, 1536, 8, 8]         [128, 1536, 8, 8]         --                        --                        --
│    │    │    └─CNBlock (14)                                [128, 1536, 8, 8]         [128, 1536, 8, 8]         --                        1,536                     --
│    │    │    │    └─Sequential (block)                     [128, 1536, 8, 8]         [128, 1536, 8, 8]         --                        --                        --
│    │    │    │    │    └─Conv2d (0)                        [128, 1536, 8, 8]         [128, 1536, 8, 8]         [7, 7]                    76,800                    629,145,600
│    │    │    │    │    └─Permute (1)                       [128, 1536, 8, 8]         [128, 8, 8, 1536]         --                        --                        --
│    │    │    │    │    └─PermutedGroupNorm (2)             [128, 8, 8, 1536]         [128, 8, 8, 1536]         --                        --                        --
│    │    │    │    │    │    └─GroupNorm (gn)               [128, 1536, 8, 8]         [128, 1536, 8, 8]         --                        3,072                     393,216
│    │    │    │    │    └─GroupedLinear (3)                 [128, 8, 8, 1536]         [128, 8, 8, 6144]         --                        595,968                   76,283,904
│    │    │    │    │    └─GELU (4)                          [128, 8, 8, 6144]         [128, 8, 8, 6144]         --                        --                        --
│    │    │    │    │    └─GroupedLinear (5)                 [128, 8, 8, 6144]         [128, 8, 8, 1536]         --                        591,360                   75,694,080
│    │    │    │    │    └─Permute (6)                       [128, 8, 8, 1536]         [128, 1536, 8, 8]         --                        --                        --
│    │    │    │    └─StochasticDepth (stochastic_depth)     [128, 1536, 8, 8]         [128, 1536, 8, 8]         --                        --                        --
│    │    │    └─CNBlock (15)                                [128, 1536, 8, 8]         [128, 1536, 8, 8]         --                        1,536                     --
│    │    │    │    └─Sequential (block)                     [128, 1536, 8, 8]         [128, 1536, 8, 8]         --                        --                        --
│    │    │    │    │    └─Conv2d (0)                        [128, 1536, 8, 8]         [128, 1536, 8, 8]         [7, 7]                    76,800                    629,145,600
│    │    │    │    │    └─Permute (1)                       [128, 1536, 8, 8]         [128, 8, 8, 1536]         --                        --                        --
│    │    │    │    │    └─PermutedGroupNorm (2)             [128, 8, 8, 1536]         [128, 8, 8, 1536]         --                        --                        --
│    │    │    │    │    │    └─GroupNorm (gn)               [128, 1536, 8, 8]         [128, 1536, 8, 8]         --                        3,072                     393,216
│    │    │    │    │    └─GroupedLinear (3)                 [128, 8, 8, 1536]         [128, 8, 8, 6144]         --                        595,968                   76,283,904
│    │    │    │    │    └─GELU (4)                          [128, 8, 8, 6144]         [128, 8, 8, 6144]         --                        --                        --
│    │    │    │    │    └─GroupedLinear (5)                 [128, 8, 8, 6144]         [128, 8, 8, 1536]         --                        591,360                   75,694,080
│    │    │    │    │    └─Permute (6)                       [128, 8, 8, 1536]         [128, 1536, 8, 8]         --                        --                        --
│    │    │    │    └─StochasticDepth (stochastic_depth)     [128, 1536, 8, 8]         [128, 1536, 8, 8]         --                        --                        --
│    │    │    └─CNBlock (16)                                [128, 1536, 8, 8]         [128, 1536, 8, 8]         --                        1,536                     --
│    │    │    │    └─Sequential (block)                     [128, 1536, 8, 8]         [128, 1536, 8, 8]         --                        --                        --
│    │    │    │    │    └─Conv2d (0)                        [128, 1536, 8, 8]         [128, 1536, 8, 8]         [7, 7]                    76,800                    629,145,600
│    │    │    │    │    └─Permute (1)                       [128, 1536, 8, 8]         [128, 8, 8, 1536]         --                        --                        --
│    │    │    │    │    └─PermutedGroupNorm (2)             [128, 8, 8, 1536]         [128, 8, 8, 1536]         --                        --                        --
│    │    │    │    │    │    └─GroupNorm (gn)               [128, 1536, 8, 8]         [128, 1536, 8, 8]         --                        3,072                     393,216
│    │    │    │    │    └─GroupedLinear (3)                 [128, 8, 8, 1536]         [128, 8, 8, 6144]         --                        595,968                   76,283,904
│    │    │    │    │    └─GELU (4)                          [128, 8, 8, 6144]         [128, 8, 8, 6144]         --                        --                        --
│    │    │    │    │    └─GroupedLinear (5)                 [128, 8, 8, 6144]         [128, 8, 8, 1536]         --                        591,360                   75,694,080
│    │    │    │    │    └─Permute (6)                       [128, 8, 8, 1536]         [128, 1536, 8, 8]         --                        --                        --
│    │    │    │    └─StochasticDepth (stochastic_depth)     [128, 1536, 8, 8]         [128, 1536, 8, 8]         --                        --                        --
│    │    │    └─CNBlock (17)                                [128, 1536, 8, 8]         [128, 1536, 8, 8]         --                        1,536                     --
│    │    │    │    └─Sequential (block)                     [128, 1536, 8, 8]         [128, 1536, 8, 8]         --                        --                        --
│    │    │    │    │    └─Conv2d (0)                        [128, 1536, 8, 8]         [128, 1536, 8, 8]         [7, 7]                    76,800                    629,145,600
│    │    │    │    │    └─Permute (1)                       [128, 1536, 8, 8]         [128, 8, 8, 1536]         --                        --                        --
│    │    │    │    │    └─PermutedGroupNorm (2)             [128, 8, 8, 1536]         [128, 8, 8, 1536]         --                        --                        --
│    │    │    │    │    │    └─GroupNorm (gn)               [128, 1536, 8, 8]         [128, 1536, 8, 8]         --                        3,072                     393,216
│    │    │    │    │    └─GroupedLinear (3)                 [128, 8, 8, 1536]         [128, 8, 8, 6144]         --                        595,968                   76,283,904
│    │    │    │    │    └─GELU (4)                          [128, 8, 8, 6144]         [128, 8, 8, 6144]         --                        --                        --
│    │    │    │    │    └─GroupedLinear (5)                 [128, 8, 8, 6144]         [128, 8, 8, 1536]         --                        591,360                   75,694,080
│    │    │    │    │    └─Permute (6)                       [128, 8, 8, 1536]         [128, 1536, 8, 8]         --                        --                        --
│    │    │    │    └─StochasticDepth (stochastic_depth)     [128, 1536, 8, 8]         [128, 1536, 8, 8]         --                        --                        --
│    │    │    └─CNBlock (18)                                [128, 1536, 8, 8]         [128, 1536, 8, 8]         --                        1,536                     --
│    │    │    │    └─Sequential (block)                     [128, 1536, 8, 8]         [128, 1536, 8, 8]         --                        --                        --
│    │    │    │    │    └─Conv2d (0)                        [128, 1536, 8, 8]         [128, 1536, 8, 8]         [7, 7]                    76,800                    629,145,600
│    │    │    │    │    └─Permute (1)                       [128, 1536, 8, 8]         [128, 8, 8, 1536]         --                        --                        --
│    │    │    │    │    └─PermutedGroupNorm (2)             [128, 8, 8, 1536]         [128, 8, 8, 1536]         --                        --                        --
│    │    │    │    │    │    └─GroupNorm (gn)               [128, 1536, 8, 8]         [128, 1536, 8, 8]         --                        3,072                     393,216
│    │    │    │    │    └─GroupedLinear (3)                 [128, 8, 8, 1536]         [128, 8, 8, 6144]         --                        595,968                   76,283,904
│    │    │    │    │    └─GELU (4)                          [128, 8, 8, 6144]         [128, 8, 8, 6144]         --                        --                        --
│    │    │    │    │    └─GroupedLinear (5)                 [128, 8, 8, 6144]         [128, 8, 8, 1536]         --                        591,360                   75,694,080
│    │    │    │    │    └─Permute (6)                       [128, 8, 8, 1536]         [128, 1536, 8, 8]         --                        --                        --
│    │    │    │    └─StochasticDepth (stochastic_depth)     [128, 1536, 8, 8]         [128, 1536, 8, 8]         --                        --                        --
│    │    │    └─CNBlock (19)                                [128, 1536, 8, 8]         [128, 1536, 8, 8]         --                        1,536                     --
│    │    │    │    └─Sequential (block)                     [128, 1536, 8, 8]         [128, 1536, 8, 8]         --                        --                        --
│    │    │    │    │    └─Conv2d (0)                        [128, 1536, 8, 8]         [128, 1536, 8, 8]         [7, 7]                    76,800                    629,145,600
│    │    │    │    │    └─Permute (1)                       [128, 1536, 8, 8]         [128, 8, 8, 1536]         --                        --                        --
│    │    │    │    │    └─PermutedGroupNorm (2)             [128, 8, 8, 1536]         [128, 8, 8, 1536]         --                        --                        --
│    │    │    │    │    │    └─GroupNorm (gn)               [128, 1536, 8, 8]         [128, 1536, 8, 8]         --                        3,072                     393,216
│    │    │    │    │    └─GroupedLinear (3)                 [128, 8, 8, 1536]         [128, 8, 8, 6144]         --                        595,968                   76,283,904
│    │    │    │    │    └─GELU (4)                          [128, 8, 8, 6144]         [128, 8, 8, 6144]         --                        --                        --
│    │    │    │    │    └─GroupedLinear (5)                 [128, 8, 8, 6144]         [128, 8, 8, 1536]         --                        591,360                   75,694,080
│    │    │    │    │    └─Permute (6)                       [128, 8, 8, 1536]         [128, 1536, 8, 8]         --                        --                        --
│    │    │    │    └─StochasticDepth (stochastic_depth)     [128, 1536, 8, 8]         [128, 1536, 8, 8]         --                        --                        --
│    │    │    └─CNBlock (20)                                [128, 1536, 8, 8]         [128, 1536, 8, 8]         --                        1,536                     --
│    │    │    │    └─Sequential (block)                     [128, 1536, 8, 8]         [128, 1536, 8, 8]         --                        --                        --
│    │    │    │    │    └─Conv2d (0)                        [128, 1536, 8, 8]         [128, 1536, 8, 8]         [7, 7]                    76,800                    629,145,600
│    │    │    │    │    └─Permute (1)                       [128, 1536, 8, 8]         [128, 8, 8, 1536]         --                        --                        --
│    │    │    │    │    └─PermutedGroupNorm (2)             [128, 8, 8, 1536]         [128, 8, 8, 1536]         --                        --                        --
│    │    │    │    │    │    └─GroupNorm (gn)               [128, 1536, 8, 8]         [128, 1536, 8, 8]         --                        3,072                     393,216
│    │    │    │    │    └─GroupedLinear (3)                 [128, 8, 8, 1536]         [128, 8, 8, 6144]         --                        595,968                   76,283,904
│    │    │    │    │    └─GELU (4)                          [128, 8, 8, 6144]         [128, 8, 8, 6144]         --                        --                        --
│    │    │    │    │    └─GroupedLinear (5)                 [128, 8, 8, 6144]         [128, 8, 8, 1536]         --                        591,360                   75,694,080
│    │    │    │    │    └─Permute (6)                       [128, 8, 8, 1536]         [128, 1536, 8, 8]         --                        --                        --
│    │    │    │    └─StochasticDepth (stochastic_depth)     [128, 1536, 8, 8]         [128, 1536, 8, 8]         --                        --                        --
│    │    │    └─CNBlock (21)                                [128, 1536, 8, 8]         [128, 1536, 8, 8]         --                        1,536                     --
│    │    │    │    └─Sequential (block)                     [128, 1536, 8, 8]         [128, 1536, 8, 8]         --                        --                        --
│    │    │    │    │    └─Conv2d (0)                        [128, 1536, 8, 8]         [128, 1536, 8, 8]         [7, 7]                    76,800                    629,145,600
│    │    │    │    │    └─Permute (1)                       [128, 1536, 8, 8]         [128, 8, 8, 1536]         --                        --                        --
│    │    │    │    │    └─PermutedGroupNorm (2)             [128, 8, 8, 1536]         [128, 8, 8, 1536]         --                        --                        --
│    │    │    │    │    │    └─GroupNorm (gn)               [128, 1536, 8, 8]         [128, 1536, 8, 8]         --                        3,072                     393,216
│    │    │    │    │    └─GroupedLinear (3)                 [128, 8, 8, 1536]         [128, 8, 8, 6144]         --                        595,968                   76,283,904
│    │    │    │    │    └─GELU (4)                          [128, 8, 8, 6144]         [128, 8, 8, 6144]         --                        --                        --
│    │    │    │    │    └─GroupedLinear (5)                 [128, 8, 8, 6144]         [128, 8, 8, 1536]         --                        591,360                   75,694,080
│    │    │    │    │    └─Permute (6)                       [128, 8, 8, 1536]         [128, 1536, 8, 8]         --                        --                        --
│    │    │    │    └─StochasticDepth (stochastic_depth)     [128, 1536, 8, 8]         [128, 1536, 8, 8]         --                        --                        --
│    │    │    └─CNBlock (22)                                [128, 1536, 8, 8]         [128, 1536, 8, 8]         --                        1,536                     --
│    │    │    │    └─Sequential (block)                     [128, 1536, 8, 8]         [128, 1536, 8, 8]         --                        --                        --
│    │    │    │    │    └─Conv2d (0)                        [128, 1536, 8, 8]         [128, 1536, 8, 8]         [7, 7]                    76,800                    629,145,600
│    │    │    │    │    └─Permute (1)                       [128, 1536, 8, 8]         [128, 8, 8, 1536]         --                        --                        --
│    │    │    │    │    └─PermutedGroupNorm (2)             [128, 8, 8, 1536]         [128, 8, 8, 1536]         --                        --                        --
│    │    │    │    │    │    └─GroupNorm (gn)               [128, 1536, 8, 8]         [128, 1536, 8, 8]         --                        3,072                     393,216
│    │    │    │    │    └─GroupedLinear (3)                 [128, 8, 8, 1536]         [128, 8, 8, 6144]         --                        595,968                   76,283,904
│    │    │    │    │    └─GELU (4)                          [128, 8, 8, 6144]         [128, 8, 8, 6144]         --                        --                        --
│    │    │    │    │    └─GroupedLinear (5)                 [128, 8, 8, 6144]         [128, 8, 8, 1536]         --                        591,360                   75,694,080
│    │    │    │    │    └─Permute (6)                       [128, 8, 8, 1536]         [128, 1536, 8, 8]         --                        --                        --
│    │    │    │    └─StochasticDepth (stochastic_depth)     [128, 1536, 8, 8]         [128, 1536, 8, 8]         --                        --                        --
│    │    │    └─CNBlock (23)                                [128, 1536, 8, 8]         [128, 1536, 8, 8]         --                        1,536                     --
│    │    │    │    └─Sequential (block)                     [128, 1536, 8, 8]         [128, 1536, 8, 8]         --                        --                        --
│    │    │    │    │    └─Conv2d (0)                        [128, 1536, 8, 8]         [128, 1536, 8, 8]         [7, 7]                    76,800                    629,145,600
│    │    │    │    │    └─Permute (1)                       [128, 1536, 8, 8]         [128, 8, 8, 1536]         --                        --                        --
│    │    │    │    │    └─PermutedGroupNorm (2)             [128, 8, 8, 1536]         [128, 8, 8, 1536]         --                        --                        --
│    │    │    │    │    │    └─GroupNorm (gn)               [128, 1536, 8, 8]         [128, 1536, 8, 8]         --                        3,072                     393,216
│    │    │    │    │    └─GroupedLinear (3)                 [128, 8, 8, 1536]         [128, 8, 8, 6144]         --                        595,968                   76,283,904
│    │    │    │    │    └─GELU (4)                          [128, 8, 8, 6144]         [128, 8, 8, 6144]         --                        --                        --
│    │    │    │    │    └─GroupedLinear (5)                 [128, 8, 8, 6144]         [128, 8, 8, 1536]         --                        591,360                   75,694,080
│    │    │    │    │    └─Permute (6)                       [128, 8, 8, 1536]         [128, 1536, 8, 8]         --                        --                        --
│    │    │    │    └─StochasticDepth (stochastic_depth)     [128, 1536, 8, 8]         [128, 1536, 8, 8]         --                        --                        --
│    │    │    └─CNBlock (24)                                [128, 1536, 8, 8]         [128, 1536, 8, 8]         --                        1,536                     --
│    │    │    │    └─Sequential (block)                     [128, 1536, 8, 8]         [128, 1536, 8, 8]         --                        --                        --
│    │    │    │    │    └─Conv2d (0)                        [128, 1536, 8, 8]         [128, 1536, 8, 8]         [7, 7]                    76,800                    629,145,600
│    │    │    │    │    └─Permute (1)                       [128, 1536, 8, 8]         [128, 8, 8, 1536]         --                        --                        --
│    │    │    │    │    └─PermutedGroupNorm (2)             [128, 8, 8, 1536]         [128, 8, 8, 1536]         --                        --                        --
│    │    │    │    │    │    └─GroupNorm (gn)               [128, 1536, 8, 8]         [128, 1536, 8, 8]         --                        3,072                     393,216
│    │    │    │    │    └─GroupedLinear (3)                 [128, 8, 8, 1536]         [128, 8, 8, 6144]         --                        595,968                   76,283,904
│    │    │    │    │    └─GELU (4)                          [128, 8, 8, 6144]         [128, 8, 8, 6144]         --                        --                        --
│    │    │    │    │    └─GroupedLinear (5)                 [128, 8, 8, 6144]         [128, 8, 8, 1536]         --                        591,360                   75,694,080
│    │    │    │    │    └─Permute (6)                       [128, 8, 8, 1536]         [128, 1536, 8, 8]         --                        --                        --
│    │    │    │    └─StochasticDepth (stochastic_depth)     [128, 1536, 8, 8]         [128, 1536, 8, 8]         --                        --                        --
│    │    │    └─CNBlock (25)                                [128, 1536, 8, 8]         [128, 1536, 8, 8]         --                        1,536                     --
│    │    │    │    └─Sequential (block)                     [128, 1536, 8, 8]         [128, 1536, 8, 8]         --                        --                        --
│    │    │    │    │    └─Conv2d (0)                        [128, 1536, 8, 8]         [128, 1536, 8, 8]         [7, 7]                    76,800                    629,145,600
│    │    │    │    │    └─Permute (1)                       [128, 1536, 8, 8]         [128, 8, 8, 1536]         --                        --                        --
│    │    │    │    │    └─PermutedGroupNorm (2)             [128, 8, 8, 1536]         [128, 8, 8, 1536]         --                        --                        --
│    │    │    │    │    │    └─GroupNorm (gn)               [128, 1536, 8, 8]         [128, 1536, 8, 8]         --                        3,072                     393,216
│    │    │    │    │    └─GroupedLinear (3)                 [128, 8, 8, 1536]         [128, 8, 8, 6144]         --                        595,968                   76,283,904
│    │    │    │    │    └─GELU (4)                          [128, 8, 8, 6144]         [128, 8, 8, 6144]         --                        --                        --
│    │    │    │    │    └─GroupedLinear (5)                 [128, 8, 8, 6144]         [128, 8, 8, 1536]         --                        591,360                   75,694,080
│    │    │    │    │    └─Permute (6)                       [128, 8, 8, 1536]         [128, 1536, 8, 8]         --                        --                        --
│    │    │    │    └─StochasticDepth (stochastic_depth)     [128, 1536, 8, 8]         [128, 1536, 8, 8]         --                        --                        --
│    │    │    └─CNBlock (26)                                [128, 1536, 8, 8]         [128, 1536, 8, 8]         --                        1,536                     --
│    │    │    │    └─Sequential (block)                     [128, 1536, 8, 8]         [128, 1536, 8, 8]         --                        --                        --
│    │    │    │    │    └─Conv2d (0)                        [128, 1536, 8, 8]         [128, 1536, 8, 8]         [7, 7]                    76,800                    629,145,600
│    │    │    │    │    └─Permute (1)                       [128, 1536, 8, 8]         [128, 8, 8, 1536]         --                        --                        --
│    │    │    │    │    └─PermutedGroupNorm (2)             [128, 8, 8, 1536]         [128, 8, 8, 1536]         --                        --                        --
│    │    │    │    │    │    └─GroupNorm (gn)               [128, 1536, 8, 8]         [128, 1536, 8, 8]         --                        3,072                     393,216
│    │    │    │    │    └─GroupedLinear (3)                 [128, 8, 8, 1536]         [128, 8, 8, 6144]         --                        595,968                   76,283,904
│    │    │    │    │    └─GELU (4)                          [128, 8, 8, 6144]         [128, 8, 8, 6144]         --                        --                        --
│    │    │    │    │    └─GroupedLinear (5)                 [128, 8, 8, 6144]         [128, 8, 8, 1536]         --                        591,360                   75,694,080
│    │    │    │    │    └─Permute (6)                       [128, 8, 8, 1536]         [128, 1536, 8, 8]         --                        --                        --
│    │    │    │    └─StochasticDepth (stochastic_depth)     [128, 1536, 8, 8]         [128, 1536, 8, 8]         --                        --                        --
│    │    └─Sequential (6)                                   [128, 1536, 8, 8]         [128, 3072, 4, 4]         --                        --                        --
│    │    │    └─GroupNorm (0)                               [128, 1536, 8, 8]         [128, 1536, 8, 8]         --                        3,072                     393,216
│    │    │    └─Conv2d (1)                                  [128, 1536, 8, 8]         [128, 3072, 4, 4]         [2, 2]                    1,182,720                 2,422,210,560
│    │    └─Sequential (7)                                   [128, 3072, 4, 4]         [128, 3072, 4, 4]         --                        --                        --
│    │    │    └─CNBlock (0)                                 [128, 3072, 4, 4]         [128, 3072, 4, 4]         --                        3,072                     --
│    │    │    │    └─Sequential (block)                     [128, 3072, 4, 4]         [128, 3072, 4, 4]         --                        --                        --
│    │    │    │    │    └─Conv2d (0)                        [128, 3072, 4, 4]         [128, 3072, 4, 4]         [7, 7]                    153,600                   314,572,800
│    │    │    │    │    └─Permute (1)                       [128, 3072, 4, 4]         [128, 4, 4, 3072]         --                        --                        --
│    │    │    │    │    └─PermutedGroupNorm (2)             [128, 4, 4, 3072]         [128, 4, 4, 3072]         --                        --                        --
│    │    │    │    │    │    └─GroupNorm (gn)               [128, 3072, 4, 4]         [128, 3072, 4, 4]         --                        6,144                     786,432
│    │    │    │    │    └─GroupedLinear (3)                 [128, 4, 4, 3072]         [128, 4, 4, 12288]        --                        2,371,584                 303,562,752
│    │    │    │    │    └─GELU (4)                          [128, 4, 4, 12288]        [128, 4, 4, 12288]        --                        --                        --
│    │    │    │    │    └─GroupedLinear (5)                 [128, 4, 4, 12288]        [128, 4, 4, 3072]         --                        2,362,368                 302,383,104
│    │    │    │    │    └─Permute (6)                       [128, 4, 4, 3072]         [128, 3072, 4, 4]         --                        --                        --
│    │    │    │    └─StochasticDepth (stochastic_depth)     [128, 3072, 4, 4]         [128, 3072, 4, 4]         --                        --                        --
│    │    │    └─CNBlock (1)                                 [128, 3072, 4, 4]         [128, 3072, 4, 4]         --                        3,072                     --
│    │    │    │    └─Sequential (block)                     [128, 3072, 4, 4]         [128, 3072, 4, 4]         --                        --                        --
│    │    │    │    │    └─Conv2d (0)                        [128, 3072, 4, 4]         [128, 3072, 4, 4]         [7, 7]                    153,600                   314,572,800
│    │    │    │    │    └─Permute (1)                       [128, 3072, 4, 4]         [128, 4, 4, 3072]         --                        --                        --
│    │    │    │    │    └─PermutedGroupNorm (2)             [128, 4, 4, 3072]         [128, 4, 4, 3072]         --                        --                        --
│    │    │    │    │    │    └─GroupNorm (gn)               [128, 3072, 4, 4]         [128, 3072, 4, 4]         --                        6,144                     786,432
│    │    │    │    │    └─GroupedLinear (3)                 [128, 4, 4, 3072]         [128, 4, 4, 12288]        --                        2,371,584                 303,562,752
│    │    │    │    │    └─GELU (4)                          [128, 4, 4, 12288]        [128, 4, 4, 12288]        --                        --                        --
│    │    │    │    │    └─GroupedLinear (5)                 [128, 4, 4, 12288]        [128, 4, 4, 3072]         --                        2,362,368                 302,383,104
│    │    │    │    │    └─Permute (6)                       [128, 4, 4, 3072]         [128, 3072, 4, 4]         --                        --                        --
│    │    │    │    └─StochasticDepth (stochastic_depth)     [128, 3072, 4, 4]         [128, 3072, 4, 4]         --                        --                        --
│    │    │    └─CNBlock (2)                                 [128, 3072, 4, 4]         [128, 3072, 4, 4]         --                        3,072                     --
│    │    │    │    └─Sequential (block)                     [128, 3072, 4, 4]         [128, 3072, 4, 4]         --                        --                        --
│    │    │    │    │    └─Conv2d (0)                        [128, 3072, 4, 4]         [128, 3072, 4, 4]         [7, 7]                    153,600                   314,572,800
│    │    │    │    │    └─Permute (1)                       [128, 3072, 4, 4]         [128, 4, 4, 3072]         --                        --                        --
│    │    │    │    │    └─PermutedGroupNorm (2)             [128, 4, 4, 3072]         [128, 4, 4, 3072]         --                        --                        --
│    │    │    │    │    │    └─GroupNorm (gn)               [128, 3072, 4, 4]         [128, 3072, 4, 4]         --                        6,144                     786,432
│    │    │    │    │    └─GroupedLinear (3)                 [128, 4, 4, 3072]         [128, 4, 4, 12288]        --                        2,371,584                 303,562,752
│    │    │    │    │    └─GELU (4)                          [128, 4, 4, 12288]        [128, 4, 4, 12288]        --                        --                        --
│    │    │    │    │    └─GroupedLinear (5)                 [128, 4, 4, 12288]        [128, 4, 4, 3072]         --                        2,362,368                 302,383,104
│    │    │    │    │    └─Permute (6)                       [128, 4, 4, 3072]         [128, 3072, 4, 4]         --                        --                        --
│    │    │    │    └─StochasticDepth (stochastic_depth)     [128, 3072, 4, 4]         [128, 3072, 4, 4]         --                        --                        --
│    └─AdaptiveAvgPool2d (avgpool)                           [128, 3072, 4, 4]         [128, 3072, 1, 1]         --                        --                        --
│    └─Sequential (classifier)                               [128, 3072, 1, 1]         [128, 1600]               --                        --                        --
│    │    └─GroupNorm (0)                                    [128, 3072, 1, 1]         [128, 3072, 1, 1]         --                        6,144                     786,432
│    │    └─Flatten (1)                                      [128, 3072, 1, 1]         [128, 3072]               --                        --                        --
│    │    └─GroupedLinear (2)                                [128, 3072]               [128, 1600]               --                        308,800                   39,526,400
├─ChunkMerge (chunk_merge)                                   [128, 1600]               [128, 100]                --                        --                        --
=========================================================================================================================================================================================
Total params: 52,138,048
Trainable params: 52,138,048
Non-trainable params: 0
Total mult-adds (Units.GIGABYTES): 44.08
=========================================================================================================================================================================================
…
