=====================================================================================================================================================================
Layer (type (var_name))                  Input Shape               Output Shape              Kernel Shape              Param #                   Mult-Adds
=====================================================================================================================================================================
ResNet (ResNet)                          [1, 3, 224, 224]          [1, 10]                   --                        --                        --
├─Sequential (conv1)                     [1, 3, 224, 224]          [1, 4, 224, 224]          --                        --                        --
│    └─CopyConcat (0)                    [1, 3, 224, 224]          [1, 3, 224, 224]          --                        --                        --
│    └─Conv2d (1)                        [1, 3, 224, 224]          [1, 4, 224, 224]          [3, 3]                    108                       5,419,008
├─BatchNorm2d (bn1)                      [1, 4, 224, 224]          [1, 4, 224, 224]          --                        8                         8
├─ReLU (relu)                            [1, 4, 224, 224]          [1, 4, 224, 224]          --                        --                        --
├─Sequential (layer1)                    [1, 4, 224, 224]          [1, 4, 224, 224]          --                        --                        --
│    └─BasicBlock (0)                    [1, 4, 224, 224]          [1, 4, 224, 224]          --                        --                        --
│    │    └─Conv2d (conv1)               [1, 4, 224, 224]          [1, 4, 224, 224]          [3, 3]                    144                       7,225,344
│    │    └─BatchNorm2d (bn1)            [1, 4, 224, 224]          [1, 4, 224, 224]          --                        8                         8
│    │    └─ReLU (relu)                  [1, 4, 224, 224]          [1, 4, 224, 224]          --                        --                        --
│    │    └─Conv2d (conv2)               [1, 4, 224, 224]          [1, 4, 224, 224]          [3, 3]                    144                       7,225,344
│    │    └─BatchNorm2d (bn2)            [1, 4, 224, 224]          [1, 4, 224, 224]          --                        8                         8
│    │    └─ReLU (relu)                  [1, 4, 224, 224]          [1, 4, 224, 224]          --                        --                        --
│    └─BasicBlock (1)                    [1, 4, 224, 224]          [1, 4, 224, 224]          --                        --                        --
│    │    └─Conv2d (conv1)               [1, 4, 224, 224]          [1, 4, 224, 224]          [3, 3]                    144                       7,225,344
│    │    └─BatchNorm2d (bn1)            [1, 4, 224, 224]          [1, 4, 224, 224]          --                        8                         8
│    │    └─ReLU (relu)                  [1, 4, 224, 224]          [1, 4, 224, 224]          --                        --                        --
│    │    └─Conv2d (conv2)               [1, 4, 224, 224]          [1, 4, 224, 224]          [3, 3]                    144                       7,225,344
│    │    └─BatchNorm2d (bn2)            [1, 4, 224, 224]          [1, 4, 224, 224]          --                        8                         8
│    │    └─ReLU (relu)                  [1, 4, 224, 224]          [1, 4, 224, 224]          --                        --                        --
├─Sequential (layer2)                    [1, 4, 224, 224]          [1, 8, 112, 112]          --                        --                        --
│    └─BasicBlock (0)                    [1, 4, 224, 224]          [1, 8, 112, 112]          --                        --                        --
│    │    └─Conv2d (conv1)               [1, 4, 224, 224]          [1, 8, 112, 112]          [3, 3]                    288                       3,612,672
│    │    └─BatchNorm2d (bn1)            [1, 8, 112, 112]          [1, 8, 112, 112]          --                        16                        16
│    │    └─ReLU (relu)                  [1, 8, 112, 112]          [1, 8, 112, 112]          --                        --                        --
│    │    └─Conv2d (conv2)               [1, 8, 112, 112]          [1, 8, 112, 112]          [3, 3]                    576                       7,225,344
│    │    └─BatchNorm2d (bn2)            [1, 8, 112, 112]          [1, 8, 112, 112]          --                        16                        16
│    │    └─Sequential (downsample)      [1, 4, 224, 224]          [1, 8, 112, 112]          --                        --                        --
│    │    │    └─Conv2d (0)              [1, 4, 224, 224]          [1, 8, 112, 112]          [1, 1]                    32                        401,408
│    │    │    └─BatchNorm2d (1)         [1, 8, 112, 112]          [1, 8, 112, 112]          --                        16                        16
│    │    └─ReLU (relu)                  [1, 8, 112, 112]          [1, 8, 112, 112]          --                        --                        --
│    └─BasicBlock (1)                    [1, 8, 112, 112]          [1, 8, 112, 112]          --                        --                        --
│    │    └─Conv2d (conv1)               [1, 8, 112, 112]          [1, 8, 112, 112]          [3, 3]                    576                       7,225,344
│    │    └─BatchNorm2d (bn1)            [1, 8, 112, 112]          [1, 8, 112, 112]          --                        16                        16
│    │    └─ReLU (relu)                  [1, 8, 112, 112]          [1, 8, 112, 112]          --                        --                        --
│    │    └─Conv2d (conv2)               [1, 8, 112, 112]          [1, 8, 112, 112]          [3, 3]                    576                       7,225,344
│    │    └─BatchNorm2d (bn2)            [1, 8, 112, 112]          [1, 8, 112, 112]          --                        16                        16
│    │    └─ReLU (relu)                  [1, 8, 112, 112]          [1, 8, 112, 112]          --                        --                        --
├─Sequential (layer3)                    [1, 8, 112, 112]          [1, 16, 56, 56]           --                        --                        --
│    └─BasicBlock (0)                    [1, 8, 112, 112]          [1, 16, 56, 56]           --                        --                        --
│    │    └─Conv2d (conv1)               [1, 8, 112, 112]          [1, 16, 56, 56]           [3, 3]                    1,152                     3,612,672
│    │    └─BatchNorm2d (bn1)            [1, 16, 56, 56]           [1, 16, 56, 56]           --                        32                        32
│    │    └─ReLU (relu)                  [1, 16, 56, 56]           [1, 16, 56, 56]           --                        --                        --
│    │    └─Conv2d (conv2)               [1, 16, 56, 56]           [1, 16, 56, 56]           [3, 3]                    2,304                     7,225,344
│    │    └─BatchNorm2d (bn2)            [1, 16, 56, 56]           [1, 16, 56, 56]           --                        32                        32
│    │    └─Sequential (downsample)      [1, 8, 112, 112]          [1, 16, 56, 56]           --                        --                        --
│    │    │    └─Conv2d (0)              [1, 8, 112, 112]          [1, 16, 56, 56]           [1, 1]                    128                       401,408
│    │    │    └─BatchNorm2d (1)         [1, 16, 56, 56]           [1, 16, 56, 56]           --                        32                        32
│    │    └─ReLU (relu)                  [1, 16, 56, 56]           [1, 16, 56, 56]           --                        --                        --
│    └─BasicBlock (1)                    [1, 16, 56, 56]           [1, 16, 56, 56]           --                        --                        --
│    │    └─Conv2d (conv1)               [1, 16, 56, 56]           [1, 16, 56, 56]           [3, 3]                    2,304                     7,225,344
│    │    └─BatchNorm2d (bn1)            [1, 16, 56, 56]           [1, 16, 56, 56]           --                        32                        32
│    │    └─ReLU (relu)                  [1, 16, 56, 56]           [1, 16, 56, 56]           --                        --                        --
│    │    └─Conv2d (conv2)               [1, 16, 56, 56]           [1, 16, 56, 56]           [3, 3]                    2,304                     7,225,344
│    │    └─BatchNorm2d (bn2)            [1, 16, 56, 56]           [1, 16, 56, 56]           --                        32                        32
│    │    └─ReLU (relu)                  [1, 16, 56, 56]           [1, 16, 56, 56]           --                        --                        --
├─Sequential (layer4)                    [1, 16, 56, 56]           [1, 32, 28, 28]           --                        --                        --
│    └─BasicBlock (0)                    [1, 16, 56, 56]           [1, 32, 28, 28]           --                        --                        --
│    │    └─Conv2d (conv1)               [1, 16, 56, 56]           [1, 32, 28, 28]           [3, 3]                    4,608                     3,612,672
│    │    └─BatchNorm2d (bn1)            [1, 32, 28, 28]           [1, 32, 28, 28]           --                        64                        64
│    │    └─ReLU (relu)                  [1, 32, 28, 28]           [1, 32, 28, 28]           --                        --                        --
│    │    └─Conv2d (conv2)               [1, 32, 28, 28]           [1, 32, 28, 28]           [3, 3]                    9,216                     7,225,344
│    │    └─BatchNorm2d (bn2)            [1, 32, 28, 28]           [1, 32, 28, 28]           --                        64                        64
│    │    └─Sequential (downsample)      [1, 16, 56, 56]           [1, 32, 28, 28]           --                        --                        --
│    │    │    └─Conv2d (0)              [1, 16, 56, 56]           [1, 32, 28, 28]           [1, 1]                    512                       401,408
│    │    │    └─BatchNorm2d (1)         [1, 32, 28, 28]           [1, 32, 28, 28]           --                        64                        64
│    │    └─ReLU (relu)                  [1, 32, 28, 28]           [1, 32, 28, 28]           --                        --                        --
│    └─BasicBlock (1)                    [1, 32, 28, 28]           [1, 32, 28, 28]           --                        --                        --
│    │    └─Conv2d (conv1)               [1, 32, 28, 28]           [1, 32, 28, 28]           [3, 3]                    9,216                     7,225,344
│    │    └─BatchNorm2d (bn1)            [1, 32, 28, 28]           [1, 32, 28, 28]           --                        64                        64
│    │    └─ReLU (relu)                  [1, 32, 28, 28]           [1, 32, 28, 28]           --                        --                        --
│    │    └─Conv2d (conv2)               [1, 32, 28, 28]           [1, 32, 28, 28]           [3, 3]                    9,216                     7,225,344
│    │    └─BatchNorm2d (bn2)            [1, 32, 28, 28]           [1, 32, 28, 28]           --                        64                        64
│    │    └─ReLU (relu)                  [1, 32, 28, 28]           [1, 32, 28, 28]           --                        --                        --
├─AdaptiveAvgPool2d (avgpool)            [1, 32, 28, 28]           [1, 32, 1, 1]             --                        --                        --
├─Sequential (fc)                        [1, 32]                   [1, 10]                   --                        --                        --
│    └─View (0)                          [1, 32]                   [1, 32, 1]                --                        --                        --
│    └─Conv1d (1)                        [1, 32, 1]                [1, 10, 1]                [1]                       330                       330
│    └─View (2)                          [1, 10, 1]                [1, 10]                   --                        --                        --
│    └─SplitMerge (3)                    [1, 10]                   [1, 10]                   --                        --                        --
=====================================================================================================================================================================
Total params: 44,622
Trainable params: 44,622
Non-trainable params: 0
Total mult-adds (Units.MEGABYTES): 111.39
=====================================================================================================================================================================
…
