…
=======================================================================================================================================================
Layer (type (var_name))                                      Input Shape               Output Shape              Kernel Shape              Param #                   Mult-Adds
=========================================================================================================================================================================================
EEWrapper (EEWrapper)                                        [128, 3, 32, 32]          [128, 100]                --                        --                        --
├─RepeatData (repeater)                                      [128, 3, 32, 32]          [128, 3, 32, 32]          --                        --                        --
├─ConvNeXt (model)                                           [128, 3, 32, 32]          [128, 100]                --                        --                        --
│    └─Sequential (features)                                 [128, 3, 32, 32]          [128, 768, 4, 4]          --                        --                        --
│    │    └─Conv2dNormActivation (0)                         [128, 3, 32, 32]          [128, 96, 32, 32]         --                        --                        --
│    │    │    └─Conv2d (0)                                  [128, 3, 32, 32]          [128, 96, 32, 32]         [3, 3]                    2,688                     352,321,536
│    │    │    └─LayerNorm2d (1)                             [128, 96, 32, 32]         [128, 96, 32, 32]         --                        192                       24,576
│    │    └─Sequential (1)                                   [128, 96, 32, 32]         [128, 96, 32, 32]         --                        --                        --
│    │    │    └─CNBlock (0)                                 [128, 96, 32, 32]         [128, 96, 32, 32]         --                        96                        --
│    │    │    │    └─Sequential (block)                     [128, 96, 32, 32]         [128, 96, 32, 32]         --                        --                        --
│    │    │    │    │    └─Conv2d (0)                        [128, 96, 32, 32]         [128, 96, 32, 32]         [7, 7]                    4,800                     629,145,600
│    │    │    │    │    └─Permute (1)                       [128, 96, 32, 32]         [128, 32, 32, 96]         --                        --                        --
│    │    │    │    │    └─LayerNorm (2)                     [128, 32, 32, 96]         [128, 32, 32, 96]         --                        192                       24,576
│    │    │    │    │    └─Linear (3)                        [128, 32, 32, 96]         [128, 32, 32, 384]        --                        37,248                    4,767,744
│    │    │    │    │    └─GELU (4)                          [128, 32, 32, 384]        [128, 32, 32, 384]        --                        --                        --
│    │    │    │    │    └─Linear (5)                        [128, 32, 32, 384]        [128, 32, 32, 96]         --                        36,960                    4,730,880
│    │    │    │    │    └─Permute (6)                       [128, 32, 32, 96]         [128, 96, 32, 32]         --                        --                        --
│    │    │    │    └─StochasticDepth (stochastic_depth)     [128, 96, 32, 32]         [128, 96, 32, 32]         --                        --                        --
│    │    │    └─CNBlock (1)                                 [128, 96, 32, 32]         [128, 96, 32, 32]         --                        96                        --
│    │    │    │    └─Sequential (block)                     [128, 96, 32, 32]         [128, 96, 32, 32]         --                        --                        --
│    │    │    │    │    └─Conv2d (0)                        [128, 96, 32, 32]         [128, 96, 32, 32]         [7, 7]                    4,800                     629,145,600
│    │    │    │    │    └─Permute (1)                       [128, 96, 32, 32]         [128, 32, 32, 96]         --                        --                        --
│    │    │    │    │    └─LayerNorm (2)                     [128, 32, 32, 96]         [128, 32, 32, 96]         --                        192                       24,576
│    │    │    │    │    └─Linear (3)                        [128, 32, 32, 96]         [128, 32, 32, 384]        --                        37,248                    4,767,744
│    │    │    │    │    └─GELU (4)                          [128, 32, 32, 384]        [128, 32, 32, 384]        --                        --                        --
│    │    │    │    │    └─Linear (5)                        [128, 32, 32, 384]        [128, 32, 32, 96]         --                        36,960                    4,730,880
│    │    │    │    │    └─Permute (6)                       [128, 32, 32, 96]         [128, 96, 32, 32]         --                        --                        --
│    │    │    │    └─StochasticDepth (stochastic_depth)     [128, 96, 32, 32]         [128, 96, 32, 32]         --                        --                        --
│    │    │    └─CNBlock (2)                                 [128, 96, 32, 32]         [128, 96, 32, 32]         --                        96                        --
│    │    │    │    └─Sequential (block)                     [128, 96, 32, 32]         [128, 96, 32, 32]         --                        --                        --
│    │    │    │    │    └─Conv2d (0)                        [128, 96, 32, 32]         [128, 96, 32, 32]         [7, 7]                    4,800                     629,145,600
│    │    │    │    │    └─Permute (1)                       [128, 96, 32, 32]         [128, 32, 32, 96]         --                        --                        --
│    │    │    │    │    └─LayerNorm (2)                     [128, 32, 32, 96]         [128, 32, 32, 96]         --                        192                       24,576
│    │    │    │    │    └─Linear (3)                        [128, 32, 32, 96]         [128, 32, 32, 384]        --                        37,248                    4,767,744
│    │    │    │    │    └─GELU (4)                          [128, 32, 32, 384]        [128, 32, 32, 384]        --                        --                        --
│    │    │    │    │    └─Linear (5)                        [128, 32, 32, 384]        [128, 32, 32, 96]         --                        36,960                    4,730,880
│    │    │    │    │    └─Permute (6)                       [128, 32, 32, 96]         [128, 96, 32, 32]         --                        --                        --
│    │    │    │    └─StochasticDepth (stochastic_depth)     [128, 96, 32, 32]         [128, 96, 32, 32]         --                        --                        --
│    │    └─Sequential (2)                                   [128, 96, 32, 32]         [128, 192, 16, 16]        --                        --                        --
│    │    │    └─LayerNorm2d (0)                             [128, 96, 32, 32]         [128, 96, 32, 32]         --                        192                       24,576
│    │    │    └─Conv2d (1)                                  [128, 96, 32, 32]         [128, 192, 16, 16]        [2, 2]                    73,920                    2,422,210,560
│    │    └─Sequential (3)                                   [128, 192, 16, 16]        [128, 192, 16, 16]        --                        --                        --
│    │    │    └─CNBlock (0)                                 [128, 192, 16, 16]        [128, 192, 16, 16]        --                        192                       --
│    │    │    │    └─Sequential (block)                     [128, 192, 16, 16]        [128, 192, 16, 16]        --                        --                        --
│    │    │    │    │    └─Conv2d (0)                        [128, 192, 16, 16]        [128, 192, 16, 16]        [7, 7]                    9,600                     314,572,800
│    │    │    │    │    └─Permute (1)                       [128, 192, 16, 16]        [128, 16, 16, 192]        --                        --                        --
│    │    │    │    │    └─LayerNorm (2)                     [128, 16, 16, 192]        [128, 16, 16, 192]        --                        384                       49,152
│    │    │    │    │    └─Linear (3)                        [128, 16, 16, 192]        [128, 16, 16, 768]        --                        148,224                   18,972,672
│    │    │    │    │    └─GELU (4)                          [128, 16, 16, 768]        [128, 16, 16, 768]        --                        --                        --
│    │    │    │    │    └─Linear (5)                        [128, 16, 16, 768]        [128, 16, 16, 192]        --                        147,648                   18,898,944
│    │    │    │    │    └─Permute (6)                       [128, 16, 16, 192]        [128, 192, 16, 16]        --                        --                        --
│    │    │    │    └─StochasticDepth (stochastic_depth)     [128, 192, 16, 16]        [128, 192, 16, 16]        --                        --                        --
│    │    │    └─CNBlock (1)                                 [128, 192, 16, 16]        [128, 192, 16, 16]        --                        192                       --
│    │    │    │    └─Sequential (block)                     [128, 192, 16, 16]        [128, 192, 16, 16]        --                        --                        --
│    │    │    │    │    └─Conv2d (0)                        [128, 192, 16, 16]        [128, 192, 16, 16]        [7, 7]                    9,600                     314,572,800
│    │    │    │    │    └─Permute (1)                       [128, 192, 16, 16]        [128, 16, 16, 192]        --                        --                        --
│    │    │    │    │    └─LayerNorm (2)                     [128, 16, 16, 192]        [128, 16, 16, 192]        --                        384                       49,152
│    │    │    │    │    └─Linear (3)                        [128, 16, 16, 192]        [128, 16, 16, 768]        --                        148,224                   18,972,672
│    │    │    │    │    └─GELU (4)                          [128, 16, 16, 768]        [128, 16, 16, 768]        --                        --                        --
│    │    │    │    │    └─Linear (5)                        [128, 16, 16, 768]        [128, 16, 16, 192]        --                        147,648                   18,898,944
│    │    │    │    │    └─Permute (6)                       [128, 16, 16, 192]        [128, 192, 16, 16]        --                        --                        --
│    │    │    │    └─StochasticDepth (stochastic_depth)     [128, 192, 16, 16]        [128, 192, 16, 16]        --                        --                        --
│    │    │    └─CNBlock (2)                                 [128, 192, 16, 16]        [128, 192, 16, 16]        --                        192                       --
│    │    │    │    └─Sequential (block)                     [128, 192, 16, 16]        [128, 192, 16, 16]        --                        --                        --
│    │    │    │    │    └─Conv2d (0)                        [128, 192, 16, 16]        [128, 192, 16, 16]        [7, 7]                    9,600                     314,572,800
│    │    │    │    │    └─Permute (1)                       [128, 192, 16, 16]        [128, 16, 16, 192]        --                        --                        --
│    │    │    │    │    └─LayerNorm (2)                     [128, 16, 16, 192]        [128, 16, 16, 192]        --                        384                       49,152
│    │    │    │    │    └─Linear (3)                        [128, 16, 16, 192]        [128, 16, 16, 768]        --                        148,224                   18,972,672
│    │    │    │    │    └─GELU (4)                          [128, 16, 16, 768]        [128, 16, 16, 768]        --                        --                        --
│    │    │    │    │    └─Linear (5)                        [128, 16, 16, 768]        [128, 16, 16, 192]        --                        147,648                   18,898,944
│    │    │    │    │    └─Permute (6)                       [128, 16, 16, 192]        [128, 192, 16, 16]        --                        --                        --
│    │    │    │    └─StochasticDepth (stochastic_depth)     [128, 192, 16, 16]        [128, 192, 16, 16]        --                        --                        --
│    │    └─Sequential (4)                                   [128, 192, 16, 16]        [128, 384, 8, 8]          --                        --                        --
│    │    │    └─LayerNorm2d (0)                             [128, 192, 16, 16]        [128, 192, 16, 16]        --                        384                       49,152
│    │    │    └─Conv2d (1)                                  [128, 192, 16, 16]        [128, 384, 8, 8]          [2, 2]                    295,296                   2,419,064,832
│    │    └─Sequential (5)                                   [128, 384, 8, 8]          [128, 384, 8, 8]          --                        --                        --
│    │    │    └─CNBlock (0)                                 [128, 384, 8, 8]          [128, 384, 8, 8]          --                        384                       --
│    │    │    │    └─Sequential (block)                     [128, 384, 8, 8]          [128, 384, 8, 8]          --                        --                        --
│    │    │    │    │    └─Conv2d (0)                        [128, 384, 8, 8]          [128, 384, 8, 8]          [7, 7]                    19,200                    157,286,400
│    │    │    │    │    └─Permute (1)                       [128, 384, 8, 8]          [128, 8, 8, 384]          --                        --                        --
│    │    │    │    │    └─LayerNorm (2)                     [128, 8, 8, 384]          [128, 8, 8, 384]          --                        768                       98,304
│    │    │    │    │    └─Linear (3)                        [128, 8, 8, 384]          [128, 8, 8, 1536]         --                        591,360                   75,694,080
│    │    │    │    │    └─GELU (4)                          [128, 8, 8, 1536]         [128, 8, 8, 1536]         --                        --                        --
│    │    │    │    │    └─Linear (5)                        [128, 8, 8, 1536]         [128, 8, 8, 384]          --                        590,208                   75,546,624
│    │    │    │    │    └─Permute (6)                       [128, 8, 8, 384]          [128, 384, 8, 8]          --                        --                        --
│    │    │    │    └─StochasticDepth (stochastic_depth)     [128, 384, 8, 8]          [128, 384, 8, 8]          --                        --                        --
│    │    │    └─CNBlock (1)                                 [128, 384, 8, 8]          [128, 384, 8, 8]          --                        384                       --
│    │    │    │    └─Sequential (block)                     [128, 384, 8, 8]          [128, 384, 8, 8]          --                        --                        --
│    │    │    │    │    └─Conv2d (0)                        [128, 384, 8, 8]          [128, 384, 8, 8]          [7, 7]                    19,200                    157,286,400
│    │    │    │    │    └─Permute (1)                       [128, 384, 8, 8]          [128, 8, 8, 384]          --                        --                        --
│    │    │    │    │    └─LayerNorm (2)                     [128, 8, 8, 384]          [128, 8, 8, 384]          --                        768                       98,304
│    │    │    │    │    └─Linear (3)                        [128, 8, 8, 384]          [128, 8, 8, 1536]         --                        591,360                   75,694,080
│    │    │    │    │    └─GELU (4)                          [128, 8, 8, 1536]         [128, 8, 8, 1536]         --                        --                        --
│    │    │    │    │    └─Linear (5)                        [128, 8, 8, 1536]         [128, 8, 8, 384]          --                        590,208                   75,546,624
│    │    │    │    │    └─Permute (6)                       [128, 8, 8, 384]          [128, 384, 8, 8]          --                        --                        --
│    │    │    │    └─StochasticDepth (stochastic_depth)     [128, 384, 8, 8]          [128, 384, 8, 8]          --                        --                        --
│    │    │    └─CNBlock (2)                                 [128, 384, 8, 8]          [128, 384, 8, 8]          --                        384                       --
│    │    │    │    └─Sequential (block)                     [128, 384, 8, 8]          [128, 384, 8, 8]          --                        --                        --
│    │    │    │    │    └─Conv2d (0)                        [128, 384, 8, 8]          [128, 384, 8, 8]          [7, 7]                    19,200                    157,286,400
│    │    │    │    │    └─Permute (1)                       [128, 384, 8, 8]          [128, 8, 8, 384]          --                        --                        --
│    │    │    │    │    └─LayerNorm (2)                     [128, 8, 8, 384]          [128, 8, 8, 384]          --                        768                       98,304
│    │    │    │    │    └─Linear (3)                        [128, 8, 8, 384]          [128, 8, 8, 1536]         --                        591,360                   75,694,080
│    │    │    │    │    └─GELU (4)                          [128, 8, 8, 1536]         [128, 8, 8, 1536]         --                        --                        --
│    │    │    │    │    └─Linear (5)                        [128, 8, 8, 1536]         [128, 8, 8, 384]          --                        590,208                   75,546,624
│    │    │    │    │    └─Permute (6)                       [128, 8, 8, 384]          [128, 384, 8, 8]          --                        --                        --
│    │    │    │    └─StochasticDepth (stochastic_depth)     [128, 384, 8, 8]          [128, 384, 8, 8]          --                        --                        --
│    │    │    └─CNBlock (3)                                 [128, 384, 8, 8]          [128, 384, 8, 8]          --                        384                       --
│    │    │    │    └─Sequential (block)                     [128, 384, 8, 8]          [128, 384, 8, 8]          --                        --                        --
│    │    │    │    │    └─Conv2d (0)                        [128, 384, 8, 8]          [128, 384, 8, 8]          [7, 7]                    19,200                    157,286,400
│    │    │    │    │    └─Permute (1)                       [128, 384, 8, 8]          [128, 8, 8, 384]          --                        --                        --
│    │    │    │    │    └─LayerNorm (2)                     [128, 8, 8, 384]          [128, 8, 8, 384]          --                        768                       98,304
│    │    │    │    │    └─Linear (3)                        [128, 8, 8, 384]          [128, 8, 8, 1536]         --                        591,360                   75,694,080
│    │    │    │    │    └─GELU (4)                          [128, 8, 8, 1536]         [128, 8, 8, 1536]         --                        --                        --
│    │    │    │    │    └─Linear (5)                        [128, 8, 8, 1536]         [128, 8, 8, 384]          --                        590,208                   75,546,624
│    │    │    │    │    └─Permute (6)                       [128, 8, 8, 384]          [128, 384, 8, 8]          --                        --                        --
│    │    │    │    └─StochasticDepth (stochastic_depth)     [128, 384, 8, 8]          [128, 384, 8, 8]          --                        --                        --
│    │    │    └─CNBlock (4)                                 [128, 384, 8, 8]          [128, 384, 8, 8]          --                        384                       --
│    │    │    │    └─Sequential (block)                     [128, 384, 8, 8]          [128, 384, 8, 8]          --                        --                        --
│    │    │    │    │    └─Conv2d (0)                        [128, 384, 8, 8]          [128, 384, 8, 8]          [7, 7]                    19,200                    157,286,400
│    │    │    │    │    └─Permute (1)                       [128, 384, 8, 8]          [128, 8, 8, 384]          --                        --                        --
│    │    │    │    │    └─LayerNorm (2)                     [128, 8, 8, 384]          [128, 8, 8, 384]          --                        768                       98,304
│    │    │    │    │    └─Linear (3)                        [128, 8, 8, 384]          [128, 8, 8, 1536]         --                        591,360                   75,694,080
│    │    │    │    │    └─GELU (4)                          [128, 8, 8, 1536]         [128, 8, 8, 1536]         --                        --                        --
│    │    │    │    │    └─Linear (5)                        [128, 8, 8, 1536]         [128, 8, 8, 384]          --                        590,208                   75,546,624
│    │    │    │    │    └─Permute (6)                       [128, 8, 8, 384]          [128, 384, 8, 8]          --                        --                        --
│    │    │    │    └─StochasticDepth (stochastic_depth)     [128, 384, 8, 8]          [128, 384, 8, 8]          --                        --                        --
│    │    │    └─CNBlock (5)                                 [128, 384, 8, 8]          [128, 384, 8, 8]          --                        384                       --
│    │    │    │    └─Sequential (block)                     [128, 384, 8, 8]          [128, 384, 8, 8]          --                        --                        --
│    │    │    │    │    └─Conv2d (0)                        [128, 384, 8, 8]          [128, 384, 8, 8]          [7, 7]                    19,200                    157,286,400
│    │    │    │    │    └─Permute (1)                       [128, 384, 8, 8]          [128, 8, 8, 384]          --                        --                        --
│    │    │    │    │    └─LayerNorm (2)                     [128, 8, 8, 384]          [128, 8, 8, 384]          --                        768                       98,304
│    │    │    │    │    └─Linear (3)                        [128, 8, 8, 384]          [128, 8, 8, 1536]         --                        591,360                   75,694,080
│    │    │    │    │    └─GELU (4)                          [128, 8, 8, 1536]         [128, 8, 8, 1536]         --                        --                        --
│    │    │    │    │    └─Linear (5)                        [128, 8, 8, 1536]         [128, 8, 8, 384]          --                        590,208                   75,546,624
│    │    │    │    │    └─Permute (6)                       [128, 8, 8, 384]          [128, 384, 8, 8]          --                        --                        --
│    │    │    │    └─StochasticDepth (stochastic_depth)     [128, 384, 8, 8]          [128, 384, 8, 8]          --                        --                        --
│    │    │    └─CNBlock (6)                                 [128, 384, 8, 8]          [128, 384, 8, 8]          --                        384                       --
│    │    │    │    └─Sequential (block)                     [128, 384, 8, 8]          [128, 384, 8, 8]          --                        --                        --
│    │    │    │    │    └─Conv2d (0)                        [128, 384, 8, 8]          [128, 384, 8, 8]          [7, 7]                    19,200                    157,286,400
│    │    │    │    │    └─Permute (1)                       [128, 384, 8, 8]          [128, 8, 8, 384]          --                        --                        --
│    │    │    │    │    └─LayerNorm (2)                     [128, 8, 8, 384]          [128, 8, 8, 384]          --                        768                       98,304
│    │    │    │    │    └─Linear (3)                        [128, 8, 8, 384]          [128, 8, 8, 1536]         --                        591,360                   75,694,080
│    │    │    │    │    └─GELU (4)                          [128, 8, 8, 1536]         [128, 8, 8, 1536]         --                        --                        --
│    │    │    │    │    └─Linear (5)                        [128, 8, 8, 1536]         [128, 8, 8, 384]          --                        590,208                   75,546,624
│    │    │    │    │    └─Permute (6)                       [128, 8, 8, 384]          [128, 384, 8, 8]          --                        --                        --
│    │    │    │    └─StochasticDepth (stochastic_depth)     [128, 384, 8, 8]          [128, 384, 8, 8]          --                        --                        --
│    │    │    └─CNBlock (7)                                 [128, 384, 8, 8]          [128, 384, 8, 8]          --                        384                       --
│    │    │    │    └─Sequential (block)                     [128, 384, 8, 8]          [128, 384, 8, 8]          --                        --                        --
│    │    │    │    │    └─Conv2d (0)                        [128, 384, 8, 8]          [128, 384, 8, 8]          [7, 7]                    19,200                    157,286,400
│    │    │    │    │    └─Permute (1)                       [128, 384, 8, 8]          [128, 8, 8, 384]          --                        --                        --
│    │    │    │    │    └─LayerNorm (2)                     [128, 8, 8, 384]          [128, 8, 8, 384]          --                        768                       98,304
│    │    │    │    │    └─Linear (3)                        [128, 8, 8, 384]          [128, 8, 8, 1536]         --                        591,360                   75,694,080
│    │    │    │    │    └─GELU (4)                          [128, 8, 8, 1536]         [128, 8, 8, 1536]         --                        --                        --
│    │    │    │    │    └─Linear (5)                        [128, 8, 8, 1536]         [128, 8, 8, 384]          --                        590,208                   75,546,624
│    │    │    │    │    └─Permute (6)                       [128, 8, 8, 384]          [128, 384, 8, 8]          --                        --                        --
│    │    │    │    └─StochasticDepth (stochastic_depth)     [128, 384, 8, 8]          [128, 384, 8, 8]          --                        --                        --
│    │    │    └─CNBlock (8)                                 [128, 384, 8, 8]          [128, 384, 8, 8]          --                        384                       --
│    │    │    │    └─Sequential (block)                     [128, 384, 8, 8]          [128, 384, 8, 8]          --                        --                        --
│    │    │    │    │    └─Conv2d (0)                        [128, 384, 8, 8]          [128, 384, 8, 8]          [7, 7]                    19,200                    157,286,400
│    │    │    │    │    └─Permute (1)                       [128, 384, 8, 8]          [128, 8, 8, 384]          --                        --                        --
│    │    │    │    │    └─LayerNorm (2)                     [128, 8, 8, 384]          [128, 8, 8, 384]          --                        768                       98,304
│    │    │    │    │    └─Linear (3)                        [128, 8, 8, 384]          [128, 8, 8, 1536]         --                        591,360                   75,694,080
│    │    │    │    │    └─GELU (4)                          [128, 8, 8, 1536]         [128, 8, 8, 1536]         --                        --                        --
│    │    │    │    │    └─Linear (5)                        [128, 8, 8, 1536]         [128, 8, 8, 384]          --                        590,208                   75,546,624
│    │    │    │    │    └─Permute (6)                       [128, 8, 8, 384]          [128, 384, 8, 8]          --                        --                        --
│    │    │    │    └─StochasticDepth (stochastic_depth)     [128, 384, 8, 8]          [128, 384, 8, 8]          --                        --                        --
│    │    │    └─CNBlock (9)                                 [128, 384, 8, 8]          [128, 384, 8, 8]          --                        384                       --
│    │    │    │    └─Sequential (block)                     [128, 384, 8, 8]          [128, 384, 8, 8]          --                        --                        --
│    │    │    │    │    └─Conv2d (0)                        [128, 384, 8, 8]          [128, 384, 8, 8]          [7, 7]                    19,200                    157,286,400
│    │    │    │    │    └─Permute (1)                       [128, 384, 8, 8]          [128, 8, 8, 384]          --                        --                        --
│    │    │    │    │    └─LayerNorm (2)                     [128, 8, 8, 384]          [128, 8, 8, 384]          --                        768                       98,304
│    │    │    │    │    └─Linear (3)                        [128, 8, 8, 384]          [128, 8, 8, 1536]         --                        591,360                   75,694,080
│    │    │    │    │    └─GELU (4)                          [128, 8, 8, 1536]         [128, 8, 8, 1536]         --                        --                        --
│    │    │    │    │    └─Linear (5)                        [128, 8, 8, 1536]         [128, 8, 8, 384]          --                        590,208                   75,546,624
│    │    │    │    │    └─Permute (6)                       [128, 8, 8, 384]          [128, 384, 8, 8]          --                        --                        --
│    │    │    │    └─StochasticDepth (stochastic_depth)     [128, 384, 8, 8]          [128, 384, 8, 8]          --                        --                        --
│    │    │    └─CNBlock (10)                                [128, 384, 8, 8]          [128, 384, 8, 8]          --                        384                       --
│    │    │    │    └─Sequential (block)                     [128, 384, 8, 8]          [128, 384, 8, 8]          --                        --                        --
│    │    │    │    │    └─Conv2d (0)                        [128, 384, 8, 8]          [128, 384, 8, 8]          [7, 7]                    19,200                    157,286,400
│    │    │    │    │    └─Permute (1)                       [128, 384, 8, 8]          [128, 8, 8, 384]          --                        --                        --
│    │    │    │    │    └─LayerNorm (2)                     [128, 8, 8, 384]          [128, 8, 8, 384]          --                        768                       98,304
│    │    │    │    │    └─Linear (3)                        [128, 8, 8, 384]          [128, 8, 8, 1536]         --                        591,360                   75,694,080
│    │    │    │    │    └─GELU (4)                          [128, 8, 8, 1536]         [128, 8, 8, 1536]         --                        --                        --
│    │    │    │    │    └─Linear (5)                        [128, 8, 8, 1536]         [128, 8, 8, 384]          --                        590,208                   75,546,624
│    │    │    │    │    └─Permute (6)                       [128, 8, 8, 384]          [128, 384, 8, 8]          --                        --                        --
│    │    │    │    └─StochasticDepth (stochastic_depth)     [128, 384, 8, 8]          [128, 384, 8, 8]          --                        --                        --
│    │    │    └─CNBlock (11)                                [128, 384, 8, 8]          [128, 384, 8, 8]          --                        384                       --
│    │    │    │    └─Sequential (block)                     [128, 384, 8, 8]          [128, 384, 8, 8]          --                        --                        --
│    │    │    │    │    └─Conv2d (0)                        [128, 384, 8, 8]          [128, 384, 8, 8]          [7, 7]                    19,200                    157,286,400
│    │    │    │    │    └─Permute (1)                       [128, 384, 8, 8]          [128, 8, 8, 384]          --                        --                        --
│    │    │    │    │    └─LayerNorm (2)                     [128, 8, 8, 384]          [128, 8, 8, 384]          --                        768                       98,304
│    │    │    │    │    └─Linear (3)                        [128, 8, 8, 384]          [128, 8, 8, 1536]         --                        591,360                   75,694,080
│    │    │    │    │    └─GELU (4)                          [128, 8, 8, 1536]         [128, 8, 8, 1536]         --                        --                        --
│    │    │    │    │    └─Linear (5)                        [128, 8, 8, 1536]         [128, 8, 8, 384]          --                        590,208                   75,546,624
│    │    │    │    │    └─Permute (6)                       [128, 8, 8, 384]          [128, 384, 8, 8]          --                        --                        --
│    │    │    │    └─StochasticDepth (stochastic_depth)     [128, 384, 8, 8]          [128, 384, 8, 8]          --                        --                        --
│    │    │    └─CNBlock (12)                                [128, 384, 8, 8]          [128, 384, 8, 8]          --                        384                       --
│    │    │    │    └─Sequential (block)                     [128, 384, 8, 8]          [128, 384, 8, 8]          --                        --                        --
│    │    │    │    │    └─Conv2d (0)                        [128, 384, 8, 8]          [128, 384, 8, 8]          [7, 7]                    19,200                    157,286,400
│    │    │    │    │    └─Permute (1)                       [128, 384, 8, 8]          [128, 8, 8, 384]          --                        --                        --
│    │    │    │    │    └─LayerNorm (2)                     [128, 8, 8, 384]          [128, 8, 8, 384]          --                        768                       98,304
│    │    │    │    │    └─Linear (3)                        [128, 8, 8, 384]          [128, 8, 8, 1536]         --                        591,360                   75,694,080
│    │    │    │    │    └─GELU (4)                          [128, 8, 8, 1536]         [128, 8, 8, 1536]         --                        --                        --
│    │    │    │    │    └─Linear (5)                        [128, 8, 8, 1536]         [128, 8, 8, 384]          --                        590,208                   75,546,624
│    │    │    │    │    └─Permute (6)                       [128, 8, 8, 384]          [128, 384, 8, 8]          --                        --                        --
│    │    │    │    └─StochasticDepth (stochastic_depth)     [128, 384, 8, 8]          [128, 384, 8, 8]          --                        --                        --
│    │    │    └─CNBlock (13)                                [128, 384, 8, 8]          [128, 384, 8, 8]          --                        384                       --
│    │    │    │    └─Sequential (block)                     [128, 384, 8, 8]          [128, 384, 8, 8]          --                        --                        --
│    │    │    │    │    └─Conv2d (0)                        [128, 384, 8, 8]          [128, 384, 8, 8]          [7, 7]                    19,200                    157,286,400
│    │    │    │    │    └─Permute (1)                       [128, 384, 8, 8]          [128, 8, 8, 384]          --                        --                        --
│    │    │    │    │    └─LayerNorm (2)                     [128, 8, 8, 384]          [128, 8, 8, 384]          --                        768                       98,304
│    │    │    │    │    └─Linear (3)                        [128, 8, 8, 384]          [128, 8, 8, 1536]         --                        591,360                   75,694,080
│    │    │    │    │    └─GELU (4)                          [128, 8, 8, 1536]         [128, 8, 8, 1536]         --                        --                        --
│    │    │    │    │    └─Linear (5)                        [128, 8, 8, 1536]         [128, 8, 8, 384]          --                        590,208                   75,546,624
│    │    │    │    │    └─Permute (6)                       [128, 8, 8, 384]          [128, 384, 8, 8]          --                        --                        --
│    │    │    │    └─StochasticDepth (stochastic_depth)     [128, 384, 8, 8]          [128, 384, 8, 8]          --                        --                        --
│    │    │    └─CNBlock (14)                                [128, 384, 8, 8]          [128, 384, 8, 8]          --                        384                       --
│    │    │    │    └─Sequential (block)                     [128, 384, 8, 8]          [128, 384, 8, 8]          --                        --                        --
│    │    │    │    │    └─Conv2d (0)                        [128, 384, 8, 8]          [128, 384, 8, 8]          [7, 7]                    19,200                    157,286,400
│    │    │    │    │    └─Permute (1)                       [128, 384, 8, 8]          [128, 8, 8, 384]          --                        --                        --
│    │    │    │    │    └─LayerNorm (2)                     [128, 8, 8, 384]          [128, 8, 8, 384]          --                        768                       98,304
│    │    │    │    │    └─Linear (3)                        [128, 8, 8, 384]          [128, 8, 8, 1536]         --                        591,360                   75,694,080
│    │    │    │    │    └─GELU (4)                          [128, 8, 8, 1536]         [128, 8, 8, 1536]         --                        --                        --
│    │    │    │    │    └─Linear (5)                        [128, 8, 8, 1536]         [128, 8, 8, 384]          --                        590,208                   75,546,624
│    │    │    │    │    └─Permute (6)                       [128, 8, 8, 384]          [128, 384, 8, 8]          --                        --                        --
│    │    │    │    └─StochasticDepth (stochastic_depth)     [128, 384, 8, 8]          [128, 384, 8, 8]          --                        --                        --
│    │    │    └─CNBlock (15)                                [128, 384, 8, 8]          [128, 384, 8, 8]          --                        384                       --
│    │    │    │    └─Sequential (block)                     [128, 384, 8, 8]          [128, 384, 8, 8]          --                        --                        --
│    │    │    │    │    └─Conv2d (0)                        [128, 384, 8, 8]          [128, 384, 8, 8]          [7, 7]                    19,200                    157,286,400
│    │    │    │    │    └─Permute (1)                       [128, 384, 8, 8]          [128, 8, 8, 384]          --                        --                        --
│    │    │    │    │    └─LayerNorm (2)                     [128, 8, 8, 384]          [128, 8, 8, 384]          --                        768                       98,304
│    │    │    │    │    └─Linear (3)                        [128, 8, 8, 384]          [128, 8, 8, 1536]         --                        591,360                   75,694,080
│    │    │    │    │    └─GELU (4)                          [128, 8, 8, 1536]         [128, 8, 8, 1536]         --                        --                        --
│    │    │    │    │    └─Linear (5)                        [128, 8, 8, 1536]         [128, 8, 8, 384]          --                        590,208                   75,546,624
│    │    │    │    │    └─Permute (6)                       [128, 8, 8, 384]          [128, 384, 8, 8]          --                        --                        --
│    │    │    │    └─StochasticDepth (stochastic_depth)     [128, 384, 8, 8]          [128, 384, 8, 8]          --                        --                        --
│    │    │    └─CNBlock (16)                                [128, 384, 8, 8]          [128, 384, 8, 8]          --                        384                       --
│    │    │    │    └─Sequential (block)                     [128, 384, 8, 8]          [128, 384, 8, 8]          --                        --                        --
│    │    │    │    │    └─Conv2d (0)                        [128, 384, 8, 8]          [128, 384, 8, 8]          [7, 7]                    19,200                    157,286,400
│    │    │    │    │    └─Permute (1)                       [128, 384, 8, 8]          [128, 8, 8, 384]          --                        --                        --
│    │    │    │    │    └─LayerNorm (2)                     [128, 8, 8, 384]          [128, 8, 8, 384]          --                        768                       98,304
│    │    │    │    │    └─Linear (3)                        [128, 8, 8, 384]          [128, 8, 8, 1536]         --                        591,360                   75,694,080
│    │    │    │    │    └─GELU (4)                          [128, 8, 8, 1536]         [128, 8, 8, 1536]         --                        --                        --
│    │    │    │    │    └─Linear (5)                        [128, 8, 8, 1536]         [128, 8, 8, 384]          --                        590,208                   75,546,624
│    │    │    │    │    └─Permute (6)                       [128, 8, 8, 384]          [128, 384, 8, 8]          --                        --                        --
│    │    │    │    └─StochasticDepth (stochastic_depth)     [128, 384, 8, 8]          [128, 384, 8, 8]          --                        --                        --
│    │    │    └─CNBlock (17)                                [128, 384, 8, 8]          [128, 384, 8, 8]          --                        384                       --
│    │    │    │    └─Sequential (block)                     [128, 384, 8, 8]          [128, 384, 8, 8]          --                        --                        --
│    │    │    │    │    └─Conv2d (0)                        [128, 384, 8, 8]          [128, 384, 8, 8]          [7, 7]                    19,200                    157,286,400
│    │    │    │    │    └─Permute (1)                       [128, 384, 8, 8]          [128, 8, 8, 384]          --                        --                        --
│    │    │    │    │    └─LayerNorm (2)                     [128, 8, 8, 384]          [128, 8, 8, 384]          --                        768                       98,304
│    │    │    │    │    └─Linear (3)                        [128, 8, 8, 384]          [128, 8, 8, 1536]         --                        591,360                   75,694,080
│    │    │    │    │    └─GELU (4)                          [128, 8, 8, 1536]         [128, 8, 8, 1536]         --                        --                        --
│    │    │    │    │    └─Linear (5)                        [128, 8, 8, 1536]         [128, 8, 8, 384]          --                        590,208                   75,546,624
│    │    │    │    │    └─Permute (6)                       [128, 8, 8, 384]          [128, 384, 8, 8]          --                        --                        --
│    │    │    │    └─StochasticDepth (stochastic_depth)     [128, 384, 8, 8]          [128, 384, 8, 8]          --                        --                        --
│    │    │    └─CNBlock (18)                                [128, 384, 8, 8]          [128, 384, 8, 8]          --                        384                       --
│    │    │    │    └─Sequential (block)                     [128, 384, 8, 8]          [128, 384, 8, 8]          --                        --                        --
│    │    │    │    │    └─Conv2d (0)                        [128, 384, 8, 8]          [128, 384, 8, 8]          [7, 7]                    19,200                    157,286,400
│    │    │    │    │    └─Permute (1)                       [128, 384, 8, 8]          [128, 8, 8, 384]          --                        --                        --
│    │    │    │    │    └─LayerNorm (2)                     [128, 8, 8, 384]          [128, 8, 8, 384]          --                        768                       98,304
│    │    │    │    │    └─Linear (3)                        [128, 8, 8, 384]          [128, 8, 8, 1536]         --                        591,360                   75,694,080
│    │    │    │    │    └─GELU (4)                          [128, 8, 8, 1536]         [128, 8, 8, 1536]         --                        --                        --
│    │    │    │    │    └─Linear (5)                        [128, 8, 8, 1536]         [128, 8, 8, 384]          --                        590,208                   75,546,624
│    │    │    │    │    └─Permute (6)                       [128, 8, 8, 384]          [128, 384, 8, 8]          --                        --                        --
│    │    │    │    └─StochasticDepth (stochastic_depth)     [128, 384, 8, 8]          [128, 384, 8, 8]          --                        --                        --
│    │    │    └─CNBlock (19)                                [128, 384, 8, 8]          [128, 384, 8, 8]          --                        384                       --
│    │    │    │    └─Sequential (block)                     [128, 384, 8, 8]          [128, 384, 8, 8]          --                        --                        --
│    │    │    │    │    └─Conv2d (0)                        [128, 384, 8, 8]          [128, 384, 8, 8]          [7, 7]                    19,200                    157,286,400
│    │    │    │    │    └─Permute (1)                       [128, 384, 8, 8]          [128, 8, 8, 384]          --                        --                        --
│    │    │    │    │    └─LayerNorm (2)                     [128, 8, 8, 384]          [128, 8, 8, 384]          --                        768                       98,304
│    │    │    │    │    └─Linear (3)                        [128, 8, 8, 384]          [128, 8, 8, 1536]         --                        591,360                   75,694,080
│    │    │    │    │    └─GELU (4)                          [128, 8, 8, 1536]         [128, 8, 8, 1536]         --                        --                        --
│    │    │    │    │    └─Linear (5)                        [128, 8, 8, 1536]         [128, 8, 8, 384]          --                        590,208                   75,546,624
│    │    │    │    │    └─Permute (6)                       [128, 8, 8, 384]          [128, 384, 8, 8]          --                        --                        --
│    │    │    │    └─StochasticDepth (stochastic_depth)     [128, 384, 8, 8]          [128, 384, 8, 8]          --                        --                        --
│    │    │    └─CNBlock (20)                                [128, 384, 8, 8]          [128, 384, 8, 8]          --                        384                       --
│    │    │    │    └─Sequential (block)                     [128, 384, 8, 8]          [128, 384, 8, 8]          --                        --                        --
│    │    │    │    │    └─Conv2d (0)                        [128, 384, 8, 8]          [128, 384, 8, 8]          [7, 7]                    19,200                    157,286,400
│    │    │    │    │    └─Permute (1)                       [128, 384, 8, 8]          [128, 8, 8, 384]          --                        --                        --
│    │    │    │    │    └─LayerNorm (2)                     [128, 8, 8, 384]          [128, 8, 8, 384]          --                        768                       98,304
│    │    │    │    │    └─Linear (3)                        [128, 8, 8, 384]          [128, 8, 8, 1536]         --                        591,360                   75,694,080
│    │    │    │    │    └─GELU (4)                          [128, 8, 8, 1536]         [128, 8, 8, 1536]         --                        --                        --
│    │    │    │    │    └─Linear (5)                        [128, 8, 8, 1536]         [128, 8, 8, 384]          --                        590,208                   75,546,624
│    │    │    │    │    └─Permute (6)                       [128, 8, 8, 384]          [128, 384, 8, 8]          --                        --                        --
│    │    │    │    └─StochasticDepth (stochastic_depth)     [128, 384, 8, 8]          [128, 384, 8, 8]          --                        --                        --
│    │    │    └─CNBlock (21)                                [128, 384, 8, 8]          [128, 384, 8, 8]          --                        384                       --
│    │    │    │    └─Sequential (block)                     [128, 384, 8, 8]          [128, 384, 8, 8]          --                        --                        --
│    │    │    │    │    └─Conv2d (0)                        [128, 384, 8, 8]          [128, 384, 8, 8]          [7, 7]                    19,200                    157,286,400
│    │    │    │    │    └─Permute (1)                       [128, 384, 8, 8]          [128, 8, 8, 384]          --                        --                        --
│    │    │    │    │    └─LayerNorm (2)                     [128, 8, 8, 384]          [128, 8, 8, 384]          --                        768                       98,304
│    │    │    │    │    └─Linear (3)                        [128, 8, 8, 384]          [128, 8, 8, 1536]         --                        591,360                   75,694,080
│    │    │    │    │    └─GELU (4)                          [128, 8, 8, 1536]         [128, 8, 8, 1536]         --                        --                        --
│    │    │    │    │    └─Linear (5)                        [128, 8, 8, 1536]         [128, 8, 8, 384]          --                        590,208                   75,546,624
│    │    │    │    │    └─Permute (6)                       [128, 8, 8, 384]          [128, 384, 8, 8]          --                        --                        --
│    │    │    │    └─StochasticDepth (stochastic_depth)     [128, 384, 8, 8]          [128, 384, 8, 8]          --                        --                        --
│    │    │    └─CNBlock (22)                                [128, 384, 8, 8]          [128, 384, 8, 8]          --                        384                       --
│    │    │    │    └─Sequential (block)                     [128, 384, 8, 8]          [128, 384, 8, 8]          --                        --                        --
│    │    │    │    │    └─Conv2d (0)                        [128, 384, 8, 8]          [128, 384, 8, 8]          [7, 7]                    19,200                    157,286,400
│    │    │    │    │    └─Permute (1)                       [128, 384, 8, 8]          [128, 8, 8, 384]          --                        --                        --
│    │    │    │    │    └─LayerNorm (2)                     [128, 8, 8, 384]          [128, 8, 8, 384]          --                        768                       98,304
│    │    │    │    │    └─Linear (3)                        [128, 8, 8, 384]          [128, 8, 8, 1536]         --                        591,360                   75,694,080
│    │    │    │    │    └─GELU (4)                          [128, 8, 8, 1536]         [128, 8, 8, 1536]         --                        --                        --
│    │    │    │    │    └─Linear (5)                        [128, 8, 8, 1536]         [128, 8, 8, 384]          --                        590,208                   75,546,624
│    │    │    │    │    └─Permute (6)                       [128, 8, 8, 384]          [128, 384, 8, 8]          --                        --                        --
│    │    │    │    └─StochasticDepth (stochastic_depth)     [128, 384, 8, 8]          [128, 384, 8, 8]          --                        --                        --
│    │    │    └─CNBlock (23)                                [128, 384, 8, 8]          [128, 384, 8, 8]          --                        384                       --
│    │    │    │    └─Sequential (block)                     [128, 384, 8, 8]          [128, 384, 8, 8]          --                        --                        --
│    │    │    │    │    └─Conv2d (0)                        [128, 384, 8, 8]          [128, 384, 8, 8]          [7, 7]                    19,200                    157,286,400
│    │    │    │    │    └─Permute (1)                       [128, 384, 8, 8]          [128, 8, 8, 384]          --                        --                        --
│    │    │    │    │    └─LayerNorm (2)                     [128, 8, 8, 384]          [128, 8, 8, 384]          --                        768                       98,304
│    │    │    │    │    └─Linear (3)                        [128, 8, 8, 384]          [128, 8, 8, 1536]         --                        591,360                   75,694,080
│    │    │    │    │    └─GELU (4)                          [128, 8, 8, 1536]         [128, 8, 8, 1536]         --                        --                        --
│    │    │    │    │    └─Linear (5)                        [128, 8, 8, 1536]         [128, 8, 8, 384]          --                        590,208                   75,546,624
│    │    │    │    │    └─Permute (6)                       [128, 8, 8, 384]          [128, 384, 8, 8]          --                        --                        --
│    │    │    │    └─StochasticDepth (stochastic_depth)     [128, 384, 8, 8]          [128, 384, 8, 8]          --                        --                        --
│    │    │    └─CNBlock (24)                                [128, 384, 8, 8]          [128, 384, 8, 8]          --                        384                       --
│    │    │    │    └─Sequential (block)                     [128, 384, 8, 8]          [128, 384, 8, 8]          --                        --                        --
│    │    │    │    │    └─Conv2d (0)                        [128, 384, 8, 8]          [128, 384, 8, 8]          [7, 7]                    19,200                    157,286,400
│    │    │    │    │    └─Permute (1)                       [128, 384, 8, 8]          [128, 8, 8, 384]          --                        --                        --
│    │    │    │    │    └─LayerNorm (2)                     [128, 8, 8, 384]          [128, 8, 8, 384]          --                        768                       98,304
│    │    │    │    │    └─Linear (3)                        [128, 8, 8, 384]          [128, 8, 8, 1536]         --                        591,360                   75,694,080
│    │    │    │    │    └─GELU (4)                          [128, 8, 8, 1536]         [128, 8, 8, 1536]         --                        --                        --
│    │    │    │    │    └─Linear (5)                        [128, 8, 8, 1536]         [128, 8, 8, 384]          --                        590,208                   75,546,624
│    │    │    │    │    └─Permute (6)                       [128, 8, 8, 384]          [128, 384, 8, 8]          --                        --                        --
│    │    │    │    └─StochasticDepth (stochastic_depth)     [128, 384, 8, 8]          [128, 384, 8, 8]          --                        --                        --
│    │    │    └─CNBlock (25)                                [128, 384, 8, 8]          [128, 384, 8, 8]          --                        384                       --
│    │    │    │    └─Sequential (block)                     [128, 384, 8, 8]          [128, 384, 8, 8]          --                        --                        --
│    │    │    │    │    └─Conv2d (0)                        [128, 384, 8, 8]          [128, 384, 8, 8]          [7, 7]                    19,200                    157,286,400
│    │    │    │    │    └─Permute (1)                       [128, 384, 8, 8]          [128, 8, 8, 384]          --                        --                        --
│    │    │    │    │    └─LayerNorm (2)                     [128, 8, 8, 384]          [128, 8, 8, 384]          --                        768                       98,304
│    │    │    │    │    └─Linear (3)                        [128, 8, 8, 384]          [128, 8, 8, 1536]         --                        591,360                   75,694,080
│    │    │    │    │    └─GELU (4)                          [128, 8, 8, 1536]         [128, 8, 8, 1536]         --                        --                        --
│    │    │    │    │    └─Linear (5)                        [128, 8, 8, 1536]         [128, 8, 8, 384]          --                        590,208                   75,546,624
│    │    │    │    │    └─Permute (6)                       [128, 8, 8, 384]          [128, 384, 8, 8]          --                        --                        --
│    │    │    │    └─StochasticDepth (stochastic_depth)     [128, 384, 8, 8]          [128, 384, 8, 8]          --                        --                        --
│    │    │    └─CNBlock (26)                                [128, 384, 8, 8]          [128, 384, 8, 8]          --                        384                       --
│    │    │    │    └─Sequential (block)                     [128, 384, 8, 8]          [128, 384, 8, 8]          --                        --                        --
│    │    │    │    │    └─Conv2d (0)                        [128, 384, 8, 8]          [128, 384, 8, 8]          [7, 7]                    19,200                    157,286,400
│    │    │    │    │    └─Permute (1)                       [128, 384, 8, 8]          [128, 8, 8, 384]          --                        --                        --
│    │    │    │    │    └─LayerNorm (2)                     [128, 8, 8, 384]          [128, 8, 8, 384]          --                        768                       98,304
│    │    │    │    │    └─Linear (3)                        [128, 8, 8, 384]          [128, 8, 8, 1536]         --                        591,360                   75,694,080
│    │    │    │    │    └─GELU (4)                          [128, 8, 8, 1536]         [128, 8, 8, 1536]         --                        --                        --
│    │    │    │    │    └─Linear (5)                        [128, 8, 8, 1536]         [128, 8, 8, 384]          --                        590,208                   75,546,624
│    │    │    │    │    └─Permute (6)                       [128, 8, 8, 384]          [128, 384, 8, 8]          --                        --                        --
│    │    │    │    └─StochasticDepth (stochastic_depth)     [128, 384, 8, 8]          [128, 384, 8, 8]          --                        --                        --
│    │    └─Sequential (6)                                   [128, 384, 8, 8]          [128, 768, 4, 4]          --                        --                        --
│    │    │    └─LayerNorm2d (0)                             [128, 384, 8, 8]          [128, 384, 8, 8]          --                        768                       98,304
│    │    │    └─Conv2d (1)                                  [128, 384, 8, 8]          [128, 768, 4, 4]          [2, 2]                    1,180,416                 2,417,491,968
│    │    └─Sequential (7)                                   [128, 768, 4, 4]          [128, 768, 4, 4]          --                        --                        --
│    │    │    └─CNBlock (0)                                 [128, 768, 4, 4]          [128, 768, 4, 4]          --                        768                       --
│    │    │    │    └─Sequential (block)                     [128, 768, 4, 4]          [128, 768, 4, 4]          --                        --                        --
│    │    │    │    │    └─Conv2d (0)                        [128, 768, 4, 4]          [128, 768, 4, 4]          [7, 7]                    38,400                    78,643,200
│    │    │    │    │    └─Permute (1)                       [128, 768, 4, 4]          [128, 4, 4, 768]          --                        --                        --
│    │    │    │    │    └─LayerNorm (2)                     [128, 4, 4, 768]          [128, 4, 4, 768]          --                        1,536                     196,608
│    │    │    │    │    └─Linear (3)                        [128, 4, 4, 768]          [128, 4, 4, 3072]         --                        2,362,368                 302,383,104
│    │    │    │    │    └─GELU (4)                          [128, 4, 4, 3072]         [128, 4, 4, 3072]         --                        --                        --
│    │    │    │    │    └─Linear (5)                        [128, 4, 4, 3072]         [128, 4, 4, 768]          --                        2,360,064                 302,088,192
│    │    │    │    │    └─Permute (6)                       [128, 4, 4, 768]          [128, 768, 4, 4]          --                        --                        --
│    │    │    │    └─StochasticDepth (stochastic_depth)     [128, 768, 4, 4]          [128, 768, 4, 4]          --                        --                        --
│    │    │    └─CNBlock (1)                                 [128, 768, 4, 4]          [128, 768, 4, 4]          --                        768                       --
│    │    │    │    └─Sequential (block)                     [128, 768, 4, 4]          [128, 768, 4, 4]          --                        --                        --
│    │    │    │    │    └─Conv2d (0)                        [128, 768, 4, 4]          [128, 768, 4, 4]          [7, 7]                    38,400                    78,643,200
│    │    │    │    │    └─Permute (1)                       [128, 768, 4, 4]          [128, 4, 4, 768]          --                        --                        --
│    │    │    │    │    └─LayerNorm (2)                     [128, 4, 4, 768]          [128, 4, 4, 768]          --                        1,536                     196,608
│    │    │    │    │    └─Linear (3)                        [128, 4, 4, 768]          [128, 4, 4, 3072]         --                        2,362,368                 302,383,104
│    │    │    │    │    └─GELU (4)                          [128, 4, 4, 3072]         [128, 4, 4, 3072]         --                        --                        --
│    │    │    │    │    └─Linear (5)                        [128, 4, 4, 3072]         [128, 4, 4, 768]          --                        2,360,064                 302,088,192
│    │    │    │    │    └─Permute (6)                       [128, 4, 4, 768]          [128, 768, 4, 4]          --                        --                        --
│    │    │    │    └─StochasticDepth (stochastic_depth)     [128, 768, 4, 4]          [128, 768, 4, 4]          --                        --                        --
│    │    │    └─CNBlock (2)                                 [128, 768, 4, 4]          [128, 768, 4, 4]          --                        768                       --
│    │    │    │    └─Sequential (block)                     [128, 768, 4, 4]          [128, 768, 4, 4]          --                        --                        --
│    │    │    │    │    └─Conv2d (0)                        [128, 768, 4, 4]          [128, 768, 4, 4]          [7, 7]                    38,400                    78,643,200
│    │    │    │    │    └─Permute (1)                       [128, 768, 4, 4]          [128, 4, 4, 768]          --                        --                        --
│    │    │    │    │    └─LayerNorm (2)                     [128, 4, 4, 768]          [128, 4, 4, 768]          --                        1,536                     196,608
│    │    │    │    │    └─Linear (3)                        [128, 4, 4, 768]          [128, 4, 4, 3072]         --                        2,362,368                 302,383,104
│    │    │    │    │    └─GELU (4)                          [128, 4, 4, 3072]         [128, 4, 4, 3072]         --                        --                        --
│    │    │    │    │    └─Linear (5)                        [128, 4, 4, 3072]         [128, 4, 4, 768]          --                        2,360,064                 302,088,192
│    │    │    │    │    └─Permute (6)                       [128, 4, 4, 768]          [128, 768, 4, 4]          --                        --                        --
│    │    │    │    └─StochasticDepth (stochastic_depth)     [128, 768, 4, 4]          [128, 768, 4, 4]          --                        --                        --
│    └─AdaptiveAvgPool2d (avgpool)                           [128, 768, 4, 4]          [128, 768, 1, 1]          --                        --                        --
│    └─Sequential (classifier)                               [128, 768, 1, 1]          [128, 100]                --                        --                        --
│    │    └─LayerNorm2d (0)                                  [128, 768, 1, 1]          [128, 768, 1, 1]          --                        1,536                     196,608
│    │    └─Flatten (1)                                      [128, 768, 1, 1]          [128, 768]                --                        --                        --
│    │    └─Linear (2)                                       [128, 768]                [128, 100]                --                        76,900                    9,843,200
├─ChunkMerge (chunk_merge)                                   [128, 100]                [128, 100]                --                        --                        --
=========================================================================================================================================================================================
Total params: 49,529,572
Trainable params: 49,529,572
Non-trainable params: 0
Total mult-adds (Units.GIGABYTES): 20.98
=========================================================================================================================================================================================
…
