==========================================================================================================================================================================
Layer (type (var_name))                       Input Shape               Output Shape              Kernel Shape              Param #                   Mult-Adds
==========================================================================================================================================================================
EEWrapper (EEWrapper)                         [50, 3, 32, 32]           [50, 10]                  --                        --                        --
тФЬтФАRepeatData (repeater)                       [50, 3, 32, 32]           [50, 3, 32, 32]           --                        --                        --
тФЬтФАResNet (model)                              [50, 3, 32, 32]           [50, 10]                  --                        --                        --
тФВ    тФФтФАConv2d (conv1)                         [50, 3, 32, 32]           [50, 64, 32, 32]          [3, 3]                    1,728                     88,473,600
тФВ    тФФтФАBatchNorm2d (bn1)                      [50, 64, 32, 32]          [50, 64, 32, 32]          --                        128                       6,400
тФВ    тФФтФАReLU (relu)                            [50, 64, 32, 32]          [50, 64, 32, 32]          --                        --                        --
тФВ    тФФтФАIdentity (maxpool)                     [50, 64, 32, 32]          [50, 64, 32, 32]          --                        --                        --
тФВ    тФФтФАSequential (layer1)                    [50, 64, 32, 32]          [50, 64, 32, 32]          --                        --                        --
тФВ    тФВ    тФФтФАBasicBlock (0)                    [50, 64, 32, 32]          [50, 64, 32, 32]          --                        --                        --
тФВ    тФВ    тФВ    тФФтФАConv2d (conv1)               [50, 64, 32, 32]          [50, 64, 32, 32]          [3, 3]                    36,864                    1,887,436,800
тФВ    тФВ    тФВ    тФФтФАBatchNorm2d (bn1)            [50, 64, 32, 32]          [50, 64, 32, 32]          --                        128                       6,400
тФВ    тФВ    тФВ    тФФтФАReLU (relu)                  [50, 64, 32, 32]          [50, 64, 32, 32]          --                        --                        --
тФВ    тФВ    тФВ    тФФтФАConv2d (conv2)               [50, 64, 32, 32]          [50, 64, 32, 32]          [3, 3]                    36,864                    1,887,436,800
тФВ    тФВ    тФВ    тФФтФАBatchNorm2d (bn2)            [50, 64, 32, 32]          [50, 64, 32, 32]          --                        128                       6,400
тФВ    тФВ    тФВ    тФФтФАReLU (relu)                  [50, 64, 32, 32]          [50, 64, 32, 32]          --                        --                        --
тФВ    тФВ    тФФтФАBasicBlock (1)                    [50, 64, 32, 32]          [50, 64, 32, 32]          --                        --                        --
тФВ    тФВ    тФВ    тФФтФАConv2d (conv1)               [50, 64, 32, 32]          [50, 64, 32, 32]          [3, 3]                    36,864                    1,887,436,800
тФВ    тФВ    тФВ    тФФтФАBatchNorm2d (bn1)            [50, 64, 32, 32]          [50, 64, 32, 32]          --                        128                       6,400
тФВ    тФВ    тФВ    тФФтФАReLU (relu)                  [50, 64, 32, 32]          [50, 64, 32, 32]          --                        --                        --
тФВ    тФВ    тФВ    тФФтФАConv2d (conv2)               [50, 64, 32, 32]          [50, 64, 32, 32]          [3, 3]                    36,864                    1,887,436,800
тФВ    тФВ    тФВ    тФФтФАBatchNorm2d (bn2)            [50, 64, 32, 32]          [50, 64, 32, 32]          --                        128                       6,400
тФВ    тФВ    тФВ    тФФтФАReLU (relu)                  [50, 64, 32, 32]          [50, 64, 32, 32]          --                        --                        --
тФВ    тФФтФАSequential (layer2)                    [50, 64, 32, 32]          [50, 128, 16, 16]         --                        --                        --
тФВ    тФВ    тФФтФАBasicBlock (0)                    [50, 64, 32, 32]          [50, 128, 16, 16]         --                        --                        --
тФВ    тФВ    тФВ    тФФтФАConv2d (conv1)               [50, 64, 32, 32]          [50, 128, 16, 16]         [3, 3]                    73,728                    943,718,400
тФВ    тФВ    тФВ    тФФтФАBatchNorm2d (bn1)            [50, 128, 16, 16]         [50, 128, 16, 16]         --                        256                       12,800
тФВ    тФВ    тФВ    тФФтФАReLU (relu)                  [50, 128, 16, 16]         [50, 128, 16, 16]         --                        --                        --
тФВ    тФВ    тФВ    тФФтФАConv2d (conv2)               [50, 128, 16, 16]         [50, 128, 16, 16]         [3, 3]                    147,456                   1,887,436,800
тФВ    тФВ    тФВ    тФФтФАBatchNorm2d (bn2)            [50, 128, 16, 16]         [50, 128, 16, 16]         --                        256                       12,800
тФВ    тФВ    тФВ    тФФтФАSequential (downsample)      [50, 64, 32, 32]          [50, 128, 16, 16]         --                        --                        --
тФВ    тФВ    тФВ    тФВ    тФФтФАConv2d (0)              [50, 64, 32, 32]          [50, 128, 16, 16]         [1, 1]                    8,192                     104,857,600
тФВ    тФВ    тФВ    тФВ    тФФтФАBatchNorm2d (1)         [50, 128, 16, 16]         [50, 128, 16, 16]         --                        256                       12,800
тФВ    тФВ    тФВ    тФФтФАReLU (relu)                  [50, 128, 16, 16]         [50, 128, 16, 16]         --                        --                        --
тФВ    тФВ    тФФтФАBasicBlock (1)                    [50, 128, 16, 16]         [50, 128, 16, 16]         --                        --                        --
тФВ    тФВ    тФВ    тФФтФАConv2d (conv1)               [50, 128, 16, 16]         [50, 128, 16, 16]         [3, 3]                    147,456                   1,887,436,800
тФВ    тФВ    тФВ    тФФтФАBatchNorm2d (bn1)            [50, 128, 16, 16]         [50, 128, 16, 16]         --                        256                       12,800
тФВ    тФВ    тФВ    тФФтФАReLU (relu)                  [50, 128, 16, 16]         [50, 128, 16, 16]         --                        --                        --
тФВ    тФВ    тФВ    тФФтФАConv2d (conv2)               [50, 128, 16, 16]         [50, 128, 16, 16]         [3, 3]                    147,456                   1,887,436,800
тФВ    тФВ    тФВ    тФФтФАBatchNorm2d (bn2)            [50, 128, 16, 16]         [50, 128, 16, 16]         --                        256                       12,800
тФВ    тФВ    тФВ    тФФтФАReLU (relu)                  [50, 128, 16, 16]         [50, 128, 16, 16]         --                        --                        --
тФВ    тФФтФАSequential (layer3)                    [50, 128, 16, 16]         [50, 256, 8, 8]           --                        --                        --
тФВ    тФВ    тФФтФАBasicBlock (0)                    [50, 128, 16, 16]         [50, 256, 8, 8]           --                        --                        --
тФВ    тФВ    тФВ    тФФтФАConv2d (conv1)               [50, 128, 16, 16]         [50, 256, 8, 8]           [3, 3]                    294,912                   943,718,400
тФВ    тФВ    тФВ    тФФтФАBatchNorm2d (bn1)            [50, 256, 8, 8]           [50, 256, 8, 8]           --                        512                       25,600
тФВ    тФВ    тФВ    тФФтФАReLU (relu)                  [50, 256, 8, 8]           [50, 256, 8, 8]           --                        --                        --
тФВ    тФВ    тФВ    тФФтФАConv2d (conv2)               [50, 256, 8, 8]           [50, 256, 8, 8]           [3, 3]                    589,824                   1,887,436,800
тФВ    тФВ    тФВ    тФФтФАBatchNorm2d (bn2)            [50, 256, 8, 8]           [50, 256, 8, 8]           --                        512                       25,600
тФВ    тФВ    тФВ    тФФтФАSequential (downsample)      [50, 128, 16, 16]         [50, 256, 8, 8]           --                        --                        --
тФВ    тФВ    тФВ    тФВ    тФФтФАConv2d (0)              [50, 128, 16, 16]         [50, 256, 8, 8]           [1, 1]                    32,768                    104,857,600
тФВ    тФВ    тФВ    тФВ    тФФтФАBatchNorm2d (1)         [50, 256, 8, 8]           [50, 256, 8, 8]           --                        512                       25,600
тФВ    тФВ    тФВ    тФФтФАReLU (relu)                  [50, 256, 8, 8]           [50, 256, 8, 8]           --                        --                        --
тФВ    тФВ    тФФтФАBasicBlock (1)                    [50, 256, 8, 8]           [50, 256, 8, 8]           --                        --                        --
тФВ    тФВ    тФВ    тФФтФАConv2d (conv1)               [50, 256, 8, 8]           [50, 256, 8, 8]           [3, 3]                    589,824                   1,887,436,800
тФВ    тФВ    тФВ    тФФтФАBatchNorm2d (bn1)            [50, 256, 8, 8]           [50, 256, 8, 8]           --                        512                       25,600
тФВ    тФВ    тФВ    тФФтФАReLU (relu)                  [50, 256, 8, 8]           [50, 256, 8, 8]           --                        --                        --
тФВ    тФВ    тФВ    тФФтФАConv2d (conv2)               [50, 256, 8, 8]           [50, 256, 8, 8]           [3, 3]                    589,824                   1,887,436,800
тФВ    тФВ    тФВ    тФФтФАBatchNorm2d (bn2)            [50, 256, 8, 8]           [50, 256, 8, 8]           --                        512                       25,600
тФВ    тФВ    тФВ    тФФтФАReLU (relu)                  [50, 256, 8, 8]           [50, 256, 8, 8]           --                        --                        --
тФВ    тФФтФАSequential (layer4)                    [50, 256, 8, 8]           [50, 512, 4, 4]           --                        --                        --
тФВ    тФВ    тФФтФАBasicBlock (0)                    [50, 256, 8, 8]           [50, 512, 4, 4]           --                        --                        --
тФВ    тФВ    тФВ    тФФтФАConv2d (conv1)               [50, 256, 8, 8]           [50, 512, 4, 4]           [3, 3]                    1,179,648                 943,718,400
тФВ    тФВ    тФВ    тФФтФАBatchNorm2d (bn1)            [50, 512, 4, 4]           [50, 512, 4, 4]           --                        1,024                     51,200
тФВ    тФВ    тФВ    тФФтФАReLU (relu)                  [50, 512, 4, 4]           [50, 512, 4, 4]           --                        --                        --
тФВ    тФВ    тФВ    тФФтФАConv2d (conv2)               [50, 512, 4, 4]           [50, 512, 4, 4]           [3, 3]                    2,359,296                 1,887,436,800
тФВ    тФВ    тФВ    тФФтФАBatchNorm2d (bn2)            [50, 512, 4, 4]           [50, 512, 4, 4]           --                        1,024                     51,200
тФВ    тФВ    тФВ    тФФтФАSequential (downsample)      [50, 256, 8, 8]           [50, 512, 4, 4]           --                        --                        --
тФВ    тФВ    тФВ    тФВ    тФФтФАConv2d (0)              [50, 256, 8, 8]           [50, 512, 4, 4]           [1, 1]                    131,072                   104,857,600
тФВ    тФВ    тФВ    тФВ    тФФтФАBatchNorm2d (1)         [50, 512, 4, 4]           [50, 512, 4, 4]           --                        1,024                     51,200
тФВ    тФВ    тФВ    тФФтФАReLU (relu)                  [50, 512, 4, 4]           [50, 512, 4, 4]           --                        --                        --
тФВ    тФВ    тФФтФАBasicBlock (1)                    [50, 512, 4, 4]           [50, 512, 4, 4]           --                        --                        --
тФВ    тФВ    тФВ    тФФтФАConv2d (conv1)               [50, 512, 4, 4]           [50, 512, 4, 4]           [3, 3]                    2,359,296                 1,887,436,800
тФВ    тФВ    тФВ    тФФтФАBatchNorm2d (bn1)            [50, 512, 4, 4]           [50, 512, 4, 4]           --                        1,024                     51,200
тФВ    тФВ    тФВ    тФФтФАReLU (relu)                  [50, 512, 4, 4]           [50, 512, 4, 4]           --                        --                        --
тФВ    тФВ    тФВ    тФФтФАConv2d (conv2)               [50, 512, 4, 4]           [50, 512, 4, 4]           [3, 3]                    2,359,296                 1,887,436,800
тФВ    тФВ    тФВ    тФФтФАBatchNorm2d (bn2)            [50, 512, 4, 4]           [50, 512, 4, 4]           --                        1,024                     51,200
тФВ    тФВ    тФВ    тФФтФАReLU (relu)                  [50, 512, 4, 4]           [50, 512, 4, 4]           --                        --                        --
тФВ    тФФтФАAdaptiveAvgPool2d (avgpool)            [50, 512, 4, 4]           [50, 512, 1, 1]           --                        --                        --
тФВ    тФФтФАLinear (fc)                            [50, 512]                 [50, 10]                  --                        5,130                     256,500
тФЬтФАChunkMerge (chunk_merge)                    [50, 10]                  [50, 10]                  --                        --                        --
==========================================================================================================================================================================
Total params: 11,173,962
Trainable params: 11,173,962
Non-trainable params: 0
Total mult-adds (Units.GIGABYTES): 27.77
==========================================================================================================================================================================
…
