=====================================================================================================================================================================
Layer (type (var_name))                  Input Shape               Output Shape              Kernel Shape              Param #                   Mult-Adds
=====================================================================================================================================================================
ResNet (ResNet)                          [128, 3, 32, 32]          [128, 100]                --                        --                        --
├─RepeatData (rp_data)                   [128, 3, 32, 32]          [128, 48, 32, 32]         --                        --                        --
├─Conv2d (conv1)                         [128, 48, 32, 32]         [128, 256, 16, 16]        [7, 7]                    37,632                    1,233,125,376
├─BatchNorm2d (bn1)                      [128, 256, 16, 16]        [128, 256, 16, 16]        --                        512                       65,536
├─ReLU (relu)                            [128, 256, 16, 16]        [128, 256, 16, 16]        --                        --                        --
├─MaxPool2d (maxpool)                    [128, 256, 16, 16]        [128, 256, 8, 8]          3                         --                        --
├─Sequential (layer1)                    [128, 256, 8, 8]          [128, 256, 8, 8]          --                        --                        --
│    └─BasicBlock (0)                    [128, 256, 8, 8]          [128, 256, 8, 8]          --                        --                        --
│    │    └─Conv2d (conv1)               [128, 256, 8, 8]          [128, 256, 8, 8]          [3, 3]                    36,864                    301,989,888
│    │    └─BatchNorm2d (bn1)            [128, 256, 8, 8]          [128, 256, 8, 8]          --                        512                       65,536
│    │    └─ReLU (relu)                  [128, 256, 8, 8]          [128, 256, 8, 8]          --                        --                        --
│    │    └─Conv2d (conv2)               [128, 256, 8, 8]          [128, 256, 8, 8]          [3, 3]                    36,864                    301,989,888
│    │    └─BatchNorm2d (bn2)            [128, 256, 8, 8]          [128, 256, 8, 8]          --                        512                       65,536
│    │    └─ReLU (relu)                  [128, 256, 8, 8]          [128, 256, 8, 8]          --                        --                        --
│    └─BasicBlock (1)                    [128, 256, 8, 8]          [128, 256, 8, 8]          --                        --                        --
│    │    └─Conv2d (conv1)               [128, 256, 8, 8]          [128, 256, 8, 8]          [3, 3]                    36,864                    301,989,888
│    │    └─BatchNorm2d (bn1)            [128, 256, 8, 8]          [128, 256, 8, 8]          --                        512                       65,536
│    │    └─ReLU (relu)                  [128, 256, 8, 8]          [128, 256, 8, 8]          --                        --                        --
│    │    └─Conv2d (conv2)               [128, 256, 8, 8]          [128, 256, 8, 8]          [3, 3]                    36,864                    301,989,888
│    │    └─BatchNorm2d (bn2)            [128, 256, 8, 8]          [128, 256, 8, 8]          --                        512                       65,536
│    │    └─ReLU (relu)                  [128, 256, 8, 8]          [128, 256, 8, 8]          --                        --                        --
├─Sequential (layer2)                    [128, 256, 8, 8]          [128, 512, 4, 4]          --                        --                        --
│    └─BasicBlock (0)                    [128, 256, 8, 8]          [128, 512, 4, 4]          --                        --                        --
│    │    └─Conv2d (conv1)               [128, 256, 8, 8]          [128, 512, 4, 4]          [3, 3]                    73,728                    150,994,944
│    │    └─BatchNorm2d (bn1)            [128, 512, 4, 4]          [128, 512, 4, 4]          --                        1,024                     131,072
│    │    └─ReLU (relu)                  [128, 512, 4, 4]          [128, 512, 4, 4]          --                        --                        --
│    │    └─Conv2d (conv2)               [128, 512, 4, 4]          [128, 512, 4, 4]          [3, 3]                    147,456                   301,989,888
│    │    └─BatchNorm2d (bn2)            [128, 512, 4, 4]          [128, 512, 4, 4]          --                        1,024                     131,072
│    │    └─Sequential (downsample)      [128, 256, 8, 8]          [128, 512, 4, 4]          --                        --                        --
│    │    │    └─Conv2d (0)              [128, 256, 8, 8]          [128, 512, 4, 4]          [1, 1]                    8,192                     16,777,216
│    │    │    └─BatchNorm2d (1)         [128, 512, 4, 4]          [128, 512, 4, 4]          --                        1,024                     131,072
│    │    └─ReLU (relu)                  [128, 512, 4, 4]          [128, 512, 4, 4]          --                        --                        --
│    └─BasicBlock (1)                    [128, 512, 4, 4]          [128, 512, 4, 4]          --                        --                        --
│    │    └─Conv2d (conv1)               [128, 512, 4, 4]          [128, 512, 4, 4]          [3, 3]                    147,456                   301,989,888
│    │    └─BatchNorm2d (bn1)            [128, 512, 4, 4]          [128, 512, 4, 4]          --                        1,024                     131,072
│    │    └─ReLU (relu)                  [128, 512, 4, 4]          [128, 512, 4, 4]          --                        --                        --
│    │    └─Conv2d (conv2)               [128, 512, 4, 4]          [128, 512, 4, 4]          [3, 3]                    147,456                   301,989,888
│    │    └─BatchNorm2d (bn2)            [128, 512, 4, 4]          [128, 512, 4, 4]          --                        1,024                     131,072
│    │    └─ReLU (relu)                  [128, 512, 4, 4]          [128, 512, 4, 4]          --                        --                        --
├─Sequential (layer3)                    [128, 512, 4, 4]          [128, 1024, 2, 2]         --                        --                        --
│    └─BasicBlock (0)                    [128, 512, 4, 4]          [128, 1024, 2, 2]         --                        --                        --
│    │    └─Conv2d (conv1)               [128, 512, 4, 4]          [128, 1024, 2, 2]         [3, 3]                    294,912                   150,994,944
│    │    └─BatchNorm2d (bn1)            [128, 1024, 2, 2]         [128, 1024, 2, 2]         --                        2,048                     262,144
│    │    └─ReLU (relu)                  [128, 1024, 2, 2]         [128, 1024, 2, 2]         --                        --                        --
│    │    └─Conv2d (conv2)               [128, 1024, 2, 2]         [128, 1024, 2, 2]         [3, 3]                    589,824                   301,989,888
│    │    └─BatchNorm2d (bn2)            [128, 1024, 2, 2]         [128, 1024, 2, 2]         --                        2,048                     262,144
│    │    └─Sequential (downsample)      [128, 512, 4, 4]          [128, 1024, 2, 2]         --                        --                        --
│    │    │    └─Conv2d (0)              [128, 512, 4, 4]          [128, 1024, 2, 2]         [1, 1]                    32,768                    16,777,216
│    │    │    └─BatchNorm2d (1)         [128, 1024, 2, 2]         [128, 1024, 2, 2]         --                        2,048                     262,144
│    │    └─ReLU (relu)                  [128, 1024, 2, 2]         [128, 1024, 2, 2]         --                        --                        --
│    └─BasicBlock (1)                    [128, 1024, 2, 2]         [128, 1024, 2, 2]         --                        --                        --
│    │    └─Conv2d (conv1)               [128, 1024, 2, 2]         [128, 1024, 2, 2]         [3, 3]                    589,824                   301,989,888
│    │    └─BatchNorm2d (bn1)            [128, 1024, 2, 2]         [128, 1024, 2, 2]         --                        2,048                     262,144
│    │    └─ReLU (relu)                  [128, 1024, 2, 2]         [128, 1024, 2, 2]         --                        --                        --
│    │    └─Conv2d (conv2)               [128, 1024, 2, 2]         [128, 1024, 2, 2]         [3, 3]                    589,824                   301,989,888
│    │    └─BatchNorm2d (bn2)            [128, 1024, 2, 2]         [128, 1024, 2, 2]         --                        2,048                     262,144
│    │    └─ReLU (relu)                  [128, 1024, 2, 2]         [128, 1024, 2, 2]         --                        --                        --
├─Sequential (layer4)                    [128, 1024, 2, 2]         [128, 2048, 1, 1]         --                        --                        --
│    └─BasicBlock (0)                    [128, 1024, 2, 2]         [128, 2048, 1, 1]         --                        --                        --
│    │    └─Conv2d (conv1)               [128, 1024, 2, 2]         [128, 2048, 1, 1]         [3, 3]                    1,179,648                 150,994,944
│    │    └─BatchNorm2d (bn1)            [128, 2048, 1, 1]         [128, 2048, 1, 1]         --                        4,096                     524,288
│    │    └─ReLU (relu)                  [128, 2048, 1, 1]         [128, 2048, 1, 1]         --                        --                        --
│    │    └─Conv2d (conv2)               [128, 2048, 1, 1]         [128, 2048, 1, 1]         [3, 3]                    2,359,296                 301,989,888
│    │    └─BatchNorm2d (bn2)            [128, 2048, 1, 1]         [128, 2048, 1, 1]         --                        4,096                     524,288
│    │    └─Sequential (downsample)      [128, 1024, 2, 2]         [128, 2048, 1, 1]         --                        --                        --
│    │    │    └─Conv2d (0)              [128, 1024, 2, 2]         [128, 2048, 1, 1]         [1, 1]                    131,072                   16,777,216
│    │    │    └─BatchNorm2d (1)         [128, 2048, 1, 1]         [128, 2048, 1, 1]         --                        4,096                     524,288
│    │    └─ReLU (relu)                  [128, 2048, 1, 1]         [128, 2048, 1, 1]         --                        --                        --
│    └─BasicBlock (1)                    [128, 2048, 1, 1]         [128, 2048, 1, 1]         --                        --                        --
│    │    └─Conv2d (conv1)               [128, 2048, 1, 1]         [128, 2048, 1, 1]         [3, 3]                    2,359,296                 301,989,888
│    │    └─BatchNorm2d (bn1)            [128, 2048, 1, 1]         [128, 2048, 1, 1]         --                        4,096                     524,288
│    │    └─ReLU (relu)                  [128, 2048, 1, 1]         [128, 2048, 1, 1]         --                        --                        --
│    │    └─Conv2d (conv2)               [128, 2048, 1, 1]         [128, 2048, 1, 1]         [3, 3]                    2,359,296                 301,989,888
│    │    └─BatchNorm2d (bn2)            [128, 2048, 1, 1]         [128, 2048, 1, 1]         --                        4,096                     524,288
│    │    └─ReLU (relu)                  [128, 2048, 1, 1]         [128, 2048, 1, 1]         --                        --                        --
├─AdaptiveAvgPool2d (avgpool)            [128, 2048, 1, 1]         [128, 2048, 1, 1]         --                        --                        --
├─GroupedLinear (fc)                     [128, 2048]               [128, 1600]               --                        206,400                   26,419,200
├─ChunkMerge (chunk_merge)               [128, 1600]               [128, 100]                --                        --                        --
=====================================================================================================================================================================
Total params: 11,439,936
Trainable params: 11,439,936
Non-trainable params: 0
Total mult-adds (Units.GIGABYTES): 5.69
=====================================================================================================================================================================
…
