…
=======================================================================================================================================================
Layer (type (var_name))                                      Input Shape               Output Shape              Kernel Shape              Param #                   Mult-Adds
=========================================================================================================================================================================================
EEWrapper (EEWrapper)                                        [128, 3, 32, 32]          [128, 100]                --                        --                        --
тФЬтФАRepeatData (repeater)                                      [128, 3, 32, 32]          [128, 3, 32, 32]          --                        --                        --
тФЬтФАConvNeXt (model)                                           [128, 3, 32, 32]          [128, 100]                --                        --                        --
тФВ    тФФтФАSequential (features)                                 [128, 3, 32, 32]          [128, 768, 4, 4]          --                        --                        --
тФВ    тФВ    тФФтФАConv2dNormActivation (0)                         [128, 3, 32, 32]          [128, 96, 32, 32]         --                        --                        --
тФВ    тФВ    тФВ    тФФтФАConv2d (0)                                  [128, 3, 32, 32]          [128, 96, 32, 32]         [3, 3]                    2,688                     352,321,536
тФВ    тФВ    тФВ    тФФтФАLayerNorm2d (1)                             [128, 96, 32, 32]         [128, 96, 32, 32]         --                        192                       24,576
тФВ    тФВ    тФФтФАSequential (1)                                   [128, 96, 32, 32]         [128, 96, 32, 32]         --                        --                        --
тФВ    тФВ    тФВ    тФФтФАCNBlock (0)                                 [128, 96, 32, 32]         [128, 96, 32, 32]         --                        96                        --
тФВ    тФВ    тФВ    тФВ    тФФтФАSequential (block)                     [128, 96, 32, 32]         [128, 96, 32, 32]         --                        --                        --
тФВ    тФВ    тФВ    тФВ    тФВ    тФФтФАConv2d (0)                        [128, 96, 32, 32]         [128, 96, 32, 32]         [7, 7]                    4,800                     629,145,600
тФВ    тФВ    тФВ    тФВ    тФВ    тФФтФАPermute (1)                       [128, 96, 32, 32]         [128, 32, 32, 96]         --                        --                        --
тФВ    тФВ    тФВ    тФВ    тФВ    тФФтФАLayerNorm (2)                     [128, 32, 32, 96]         [128, 32, 32, 96]         --                        192                       24,576
тФВ    тФВ    тФВ    тФВ    тФВ    тФФтФАLinear (3)                        [128, 32, 32, 96]         [128, 32, 32, 384]        --                        37,248                    4,767,744
тФВ    тФВ    тФВ    тФВ    тФВ    тФФтФАGELU (4)                          [128, 32, 32, 384]        [128, 32, 32, 384]        --                        --                        --
тФВ    тФВ    тФВ    тФВ    тФВ    тФФтФАLinear (5)                        [128, 32, 32, 384]        [128, 32, 32, 96]         --                        36,960                    4,730,880
тФВ    тФВ    тФВ    тФВ    тФВ    тФФтФАPermute (6)                       [128, 32, 32, 96]         [128, 96, 32, 32]         --                        --                        --
тФВ    тФВ    тФВ    тФВ    тФФтФАStochasticDepth (stochastic_depth)     [128, 96, 32, 32]         [128, 96, 32, 32]         --                        --                        --
тФВ    тФВ    тФВ    тФФтФАCNBlock (1)                                 [128, 96, 32, 32]         [128, 96, 32, 32]         --                        96                        --
тФВ    тФВ    тФВ    тФВ    тФФтФАSequential (block)                     [128, 96, 32, 32]         [128, 96, 32, 32]         --                        --                        --
тФВ    тФВ    тФВ    тФВ    тФВ    тФФтФАConv2d (0)                        [128, 96, 32, 32]         [128, 96, 32, 32]         [7, 7]                    4,800                     629,145,600
тФВ    тФВ    тФВ    тФВ    тФВ    тФФтФАPermute (1)                       [128, 96, 32, 32]         [128, 32, 32, 96]         --                        --                        --
тФВ    тФВ    тФВ    тФВ    тФВ    тФФтФАLayerNorm (2)                     [128, 32, 32, 96]         [128, 32, 32, 96]         --                        192                       24,576
тФВ    тФВ    тФВ    тФВ    тФВ    тФФтФАLinear (3)                        [128, 32, 32, 96]         [128, 32, 32, 384]        --                        37,248                    4,767,744
тФВ    тФВ    тФВ    тФВ    тФВ    тФФтФАGELU (4)                          [128, 32, 32, 384]        [128, 32, 32, 384]        --                        --                        --
тФВ    тФВ    тФВ    тФВ    тФВ    тФФтФАLinear (5)                        [128, 32, 32, 384]        [128, 32, 32, 96]         --                        36,960                    4,730,880
тФВ    тФВ    тФВ    тФВ    тФВ    тФФтФАPermute (6)                       [128, 32, 32, 96]         [128, 96, 32, 32]         --                        --                        --
тФВ    тФВ    тФВ    тФВ    тФФтФАStochasticDepth (stochastic_depth)     [128, 96, 32, 32]         [128, 96, 32, 32]         --                        --                        --
тФВ    тФВ    тФВ    тФФтФАCNBlock (2)                                 [128, 96, 32, 32]         [128, 96, 32, 32]         --                        96                        --
тФВ    тФВ    тФВ    тФВ    тФФтФАSequential (block)                     [128, 96, 32, 32]         [128, 96, 32, 32]         --                        --                        --
тФВ    тФВ    тФВ    тФВ    тФВ    тФФтФАConv2d (0)                        [128, 96, 32, 32]         [128, 96, 32, 32]         [7, 7]                    4,800                     629,145,600
тФВ    тФВ    тФВ    тФВ    тФВ    тФФтФАPermute (1)                       [128, 96, 32, 32]         [128, 32, 32, 96]         --                        --                        --
тФВ    тФВ    тФВ    тФВ    тФВ    тФФтФАLayerNorm (2)                     [128, 32, 32, 96]         [128, 32, 32, 96]         --                        192                       24,576
тФВ    тФВ    тФВ    тФВ    тФВ    тФФтФАLinear (3)                        [128, 32, 32, 96]         [128, 32, 32, 384]        --                        37,248                    4,767,744
тФВ    тФВ    тФВ    тФВ    тФВ    тФФтФАGELU (4)                          [128, 32, 32, 384]        [128, 32, 32, 384]        --                        --                        --
тФВ    тФВ    тФВ    тФВ    тФВ    тФФтФАLinear (5)                        [128, 32, 32, 384]        [128, 32, 32, 96]         --                        36,960                    4,730,880
тФВ    тФВ    тФВ    тФВ    тФВ    тФФтФАPermute (6)                       [128, 32, 32, 96]         [128, 96, 32, 32]         --                        --                        --
тФВ    тФВ    тФВ    тФВ    тФФтФАStochasticDepth (stochastic_depth)     [128, 96, 32, 32]         [128, 96, 32, 32]         --                        --                        --
тФВ    тФВ    тФФтФАSequential (2)                                   [128, 96, 32, 32]         [128, 192, 16, 16]        --                        --                        --
тФВ    тФВ    тФВ    тФФтФАLayerNorm2d (0)                             [128, 96, 32, 32]         [128, 96, 32, 32]         --                        192                       24,576
тФВ    тФВ    тФВ    тФФтФАConv2d (1)                                  [128, 96, 32, 32]         [128, 192, 16, 16]        [2, 2]                    73,920                    2,422,210,560
тФВ    тФВ    тФФтФАSequential (3)                                   [128, 192, 16, 16]        [128, 192, 16, 16]        --                        --                        --
тФВ    тФВ    тФВ    тФФтФАCNBlock (0)                                 [128, 192, 16, 16]        [128, 192, 16, 16]        --                        192                       --
тФВ    тФВ    тФВ    тФВ    тФФтФАSequential (block)                     [128, 192, 16, 16]        [128, 192, 16, 16]        --                        --                        --
тФВ    тФВ    тФВ    тФВ    тФВ    тФФтФАConv2d (0)                        [128, 192, 16, 16]        [128, 192, 16, 16]        [7, 7]                    9,600                     314,572,800
тФВ    тФВ    тФВ    тФВ    тФВ    тФФтФАPermute (1)                       [128, 192, 16, 16]        [128, 16, 16, 192]        --                        --                        --
тФВ    тФВ    тФВ    тФВ    тФВ    тФФтФАLayerNorm (2)                     [128, 16, 16, 192]        [128, 16, 16, 192]        --                        384                       49,152
тФВ    тФВ    тФВ    тФВ    тФВ    тФФтФАLinear (3)                        [128, 16, 16, 192]        [128, 16, 16, 768]        --                        148,224                   18,972,672
тФВ    тФВ    тФВ    тФВ    тФВ    тФФтФАGELU (4)                          [128, 16, 16, 768]        [128, 16, 16, 768]        --                        --                        --
тФВ    тФВ    тФВ    тФВ    тФВ    тФФтФАLinear (5)                        [128, 16, 16, 768]        [128, 16, 16, 192]        --                        147,648                   18,898,944
тФВ    тФВ    тФВ    тФВ    тФВ    тФФтФАPermute (6)                       [128, 16, 16, 192]        [128, 192, 16, 16]        --                        --                        --
тФВ    тФВ    тФВ    тФВ    тФФтФАStochasticDepth (stochastic_depth)     [128, 192, 16, 16]        [128, 192, 16, 16]        --                        --                        --
тФВ    тФВ    тФВ    тФФтФАCNBlock (1)                                 [128, 192, 16, 16]        [128, 192, 16, 16]        --                        192                       --
тФВ    тФВ    тФВ    тФВ    тФФтФАSequential (block)                     [128, 192, 16, 16]        [128, 192, 16, 16]        --                        --                        --
тФВ    тФВ    тФВ    тФВ    тФВ    тФФтФАConv2d (0)                        [128, 192, 16, 16]        [128, 192, 16, 16]        [7, 7]                    9,600                     314,572,800
тФВ    тФВ    тФВ    тФВ    тФВ    тФФтФАPermute (1)                       [128, 192, 16, 16]        [128, 16, 16, 192]        --                        --                        --
тФВ    тФВ    тФВ    тФВ    тФВ    тФФтФАLayerNorm (2)                     [128, 16, 16, 192]        [128, 16, 16, 192]        --                        384                       49,152
тФВ    тФВ    тФВ    тФВ    тФВ    тФФтФАLinear (3)                        [128, 16, 16, 192]        [128, 16, 16, 768]        --                        148,224                   18,972,672
тФВ    тФВ    тФВ    тФВ    тФВ    тФФтФАGELU (4)                          [128, 16, 16, 768]        [128, 16, 16, 768]        --                        --                        --
тФВ    тФВ    тФВ    тФВ    тФВ    тФФтФАLinear (5)                        [128, 16, 16, 768]        [128, 16, 16, 192]        --                        147,648                   18,898,944
тФВ    тФВ    тФВ    тФВ    тФВ    тФФтФАPermute (6)                       [128, 16, 16, 192]        [128, 192, 16, 16]        --                        --                        --
тФВ    тФВ    тФВ    тФВ    тФФтФАStochasticDepth (stochastic_depth)     [128, 192, 16, 16]        [128, 192, 16, 16]        --                        --                        --
тФВ    тФВ    тФВ    тФФтФАCNBlock (2)                                 [128, 192, 16, 16]        [128, 192, 16, 16]        --                        192                       --
тФВ    тФВ    тФВ    тФВ    тФФтФАSequential (block)                     [128, 192, 16, 16]        [128, 192, 16, 16]        --                        --                        --
тФВ    тФВ    тФВ    тФВ    тФВ    тФФтФАConv2d (0)                        [128, 192, 16, 16]        [128, 192, 16, 16]        [7, 7]                    9,600                     314,572,800
тФВ    тФВ    тФВ    тФВ    тФВ    тФФтФАPermute (1)                       [128, 192, 16, 16]        [128, 16, 16, 192]        --                        --                        --
тФВ    тФВ    тФВ    тФВ    тФВ    тФФтФАLayerNorm (2)                     [128, 16, 16, 192]        [128, 16, 16, 192]        --                        384                       49,152
тФВ    тФВ    тФВ    тФВ    тФВ    тФФтФАLinear (3)                        [128, 16, 16, 192]        [128, 16, 16, 768]        --                        148,224                   18,972,672
тФВ    тФВ    тФВ    тФВ    тФВ    тФФтФАGELU (4)                          [128, 16, 16, 768]        [128, 16, 16, 768]        --                        --                        --
тФВ    тФВ    тФВ    тФВ    тФВ    тФФтФАLinear (5)                        [128, 16, 16, 768]        [128, 16, 16, 192]        --                        147,648                   18,898,944
тФВ    тФВ    тФВ    тФВ    тФВ    тФФтФАPermute (6)                       [128, 16, 16, 192]        [128, 192, 16, 16]        --                        --                        --
тФВ    тФВ    тФВ    тФВ    тФФтФАStochasticDepth (stochastic_depth)     [128, 192, 16, 16]        [128, 192, 16, 16]        --                        --                        --
тФВ    тФВ    тФФтФАSequential (4)                                   [128, 192, 16, 16]        [128, 384, 8, 8]          --                        --                        --
тФВ    тФВ    тФВ    тФФтФАLayerNorm2d (0)                             [128, 192, 16, 16]        [128, 192, 16, 16]        --                        384                       49,152
тФВ    тФВ    тФВ    тФФтФАConv2d (1)                                  [128, 192, 16, 16]        [128, 384, 8, 8]          [2, 2]                    295,296                   2,419,064,832
тФВ    тФВ    тФФтФАSequential (5)                                   [128, 384, 8, 8]          [128, 384, 8, 8]          --                        --                        --
тФВ    тФВ    тФВ    тФФтФАCNBlock (0)                                 [128, 384, 8, 8]          [128, 384, 8, 8]          --                        384                       --
тФВ    тФВ    тФВ    тФВ    тФФтФАSequential (block)                     [128, 384, 8, 8]          [128, 384, 8, 8]          --                        --                        --
тФВ    тФВ    тФВ    тФВ    тФВ    тФФтФАConv2d (0)                        [128, 384, 8, 8]          [128, 384, 8, 8]          [7, 7]                    19,200                    157,286,400
тФВ    тФВ    тФВ    тФВ    тФВ    тФФтФАPermute (1)                       [128, 384, 8, 8]          [128, 8, 8, 384]          --                        --                        --
тФВ    тФВ    тФВ    тФВ    тФВ    тФФтФАLayerNorm (2)                     [128, 8, 8, 384]          [128, 8, 8, 384]          --                        768                       98,304
тФВ    тФВ    тФВ    тФВ    тФВ    тФФтФАLinear (3)                        [128, 8, 8, 384]          [128, 8, 8, 1536]         --                        591,360                   75,694,080
тФВ    тФВ    тФВ    тФВ    тФВ    тФФтФАGELU (4)                          [128, 8, 8, 1536]         [128, 8, 8, 1536]         --                        --                        --
тФВ    тФВ    тФВ    тФВ    тФВ    тФФтФАLinear (5)                        [128, 8, 8, 1536]         [128, 8, 8, 384]          --                        590,208                   75,546,624
тФВ    тФВ    тФВ    тФВ    тФВ    тФФтФАPermute (6)                       [128, 8, 8, 384]          [128, 384, 8, 8]          --                        --                        --
тФВ    тФВ    тФВ    тФВ    тФФтФАStochasticDepth (stochastic_depth)     [128, 384, 8, 8]          [128, 384, 8, 8]          --                        --                        --
тФВ    тФВ    тФВ    тФФтФАCNBlock (1)                                 [128, 384, 8, 8]          [128, 384, 8, 8]          --                        384                       --
тФВ    тФВ    тФВ    тФВ    тФФтФАSequential (block)                     [128, 384, 8, 8]          [128, 384, 8, 8]          --                        --                        --
тФВ    тФВ    тФВ    тФВ    тФВ    тФФтФАConv2d (0)                        [128, 384, 8, 8]          [128, 384, 8, 8]          [7, 7]                    19,200                    157,286,400
тФВ    тФВ    тФВ    тФВ    тФВ    тФФтФАPermute (1)                       [128, 384, 8, 8]          [128, 8, 8, 384]          --                        --                        --
тФВ    тФВ    тФВ    тФВ    тФВ    тФФтФАLayerNorm (2)                     [128, 8, 8, 384]          [128, 8, 8, 384]          --                        768                       98,304
тФВ    тФВ    тФВ    тФВ    тФВ    тФФтФАLinear (3)                        [128, 8, 8, 384]          [128, 8, 8, 1536]         --                        591,360                   75,694,080
тФВ    тФВ    тФВ    тФВ    тФВ    тФФтФАGELU (4)                          [128, 8, 8, 1536]         [128, 8, 8, 1536]         --                        --                        --
тФВ    тФВ    тФВ    тФВ    тФВ    тФФтФАLinear (5)                        [128, 8, 8, 1536]         [128, 8, 8, 384]          --                        590,208                   75,546,624
тФВ    тФВ    тФВ    тФВ    тФВ    тФФтФАPermute (6)                       [128, 8, 8, 384]          [128, 384, 8, 8]          --                        --                        --
тФВ    тФВ    тФВ    тФВ    тФФтФАStochasticDepth (stochastic_depth)     [128, 384, 8, 8]          [128, 384, 8, 8]          --                        --                        --
тФВ    тФВ    тФВ    тФФтФАCNBlock (2)                                 [128, 384, 8, 8]          [128, 384, 8, 8]          --                        384                       --
тФВ    тФВ    тФВ    тФВ    тФФтФАSequential (block)                     [128, 384, 8, 8]          [128, 384, 8, 8]          --                        --                        --
тФВ    тФВ    тФВ    тФВ    тФВ    тФФтФАConv2d (0)                        [128, 384, 8, 8]          [128, 384, 8, 8]          [7, 7]                    19,200                    157,286,400
тФВ    тФВ    тФВ    тФВ    тФВ    тФФтФАPermute (1)                       [128, 384, 8, 8]          [128, 8, 8, 384]          --                        --                        --
тФВ    тФВ    тФВ    тФВ    тФВ    тФФтФАLayerNorm (2)                     [128, 8, 8, 384]          [128, 8, 8, 384]          --                        768                       98,304
тФВ    тФВ    тФВ    тФВ    тФВ    тФФтФАLinear (3)                        [128, 8, 8, 384]          [128, 8, 8, 1536]         --                        591,360                   75,694,080
тФВ    тФВ    тФВ    тФВ    тФВ    тФФтФАGELU (4)                          [128, 8, 8, 1536]         [128, 8, 8, 1536]         --                        --                        --
тФВ    тФВ    тФВ    тФВ    тФВ    тФФтФАLinear (5)                        [128, 8, 8, 1536]         [128, 8, 8, 384]          --                        590,208                   75,546,624
тФВ    тФВ    тФВ    тФВ    тФВ    тФФтФАPermute (6)                       [128, 8, 8, 384]          [128, 384, 8, 8]          --                        --                        --
тФВ    тФВ    тФВ    тФВ    тФФтФАStochasticDepth (stochastic_depth)     [128, 384, 8, 8]          [128, 384, 8, 8]          --                        --                        --
тФВ    тФВ    тФВ    тФФтФАCNBlock (3)                                 [128, 384, 8, 8]          [128, 384, 8, 8]          --                        384                       --
тФВ    тФВ    тФВ    тФВ    тФФтФАSequential (block)                     [128, 384, 8, 8]          [128, 384, 8, 8]          --                        --                        --
тФВ    тФВ    тФВ    тФВ    тФВ    тФФтФАConv2d (0)                        [128, 384, 8, 8]          [128, 384, 8, 8]          [7, 7]                    19,200                    157,286,400
тФВ    тФВ    тФВ    тФВ    тФВ    тФФтФАPermute (1)                       [128, 384, 8, 8]          [128, 8, 8, 384]          --                        --                        --
тФВ    тФВ    тФВ    тФВ    тФВ    тФФтФАLayerNorm (2)                     [128, 8, 8, 384]          [128, 8, 8, 384]          --                        768                       98,304
тФВ    тФВ    тФВ    тФВ    тФВ    тФФтФАLinear (3)                        [128, 8, 8, 384]          [128, 8, 8, 1536]         --                        591,360                   75,694,080
тФВ    тФВ    тФВ    тФВ    тФВ    тФФтФАGELU (4)                          [128, 8, 8, 1536]         [128, 8, 8, 1536]         --                        --                        --
тФВ    тФВ    тФВ    тФВ    тФВ    тФФтФАLinear (5)                        [128, 8, 8, 1536]         [128, 8, 8, 384]          --                        590,208                   75,546,624
тФВ    тФВ    тФВ    тФВ    тФВ    тФФтФАPermute (6)                       [128, 8, 8, 384]          [128, 384, 8, 8]          --                        --                        --
тФВ    тФВ    тФВ    тФВ    тФФтФАStochasticDepth (stochastic_depth)     [128, 384, 8, 8]          [128, 384, 8, 8]          --                        --                        --
тФВ    тФВ    тФВ    тФФтФАCNBlock (4)                                 [128, 384, 8, 8]          [128, 384, 8, 8]          --                        384                       --
тФВ    тФВ    тФВ    тФВ    тФФтФАSequential (block)                     [128, 384, 8, 8]          [128, 384, 8, 8]          --                        --                        --
тФВ    тФВ    тФВ    тФВ    тФВ    тФФтФАConv2d (0)                        [128, 384, 8, 8]          [128, 384, 8, 8]          [7, 7]                    19,200                    157,286,400
тФВ    тФВ    тФВ    тФВ    тФВ    тФФтФАPermute (1)                       [128, 384, 8, 8]          [128, 8, 8, 384]          --                        --                        --
тФВ    тФВ    тФВ    тФВ    тФВ    тФФтФАLayerNorm (2)                     [128, 8, 8, 384]          [128, 8, 8, 384]          --                        768                       98,304
тФВ    тФВ    тФВ    тФВ    тФВ    тФФтФАLinear (3)                        [128, 8, 8, 384]          [128, 8, 8, 1536]         --                        591,360                   75,694,080
тФВ    тФВ    тФВ    тФВ    тФВ    тФФтФАGELU (4)                          [128, 8, 8, 1536]         [128, 8, 8, 1536]         --                        --                        --
тФВ    тФВ    тФВ    тФВ    тФВ    тФФтФАLinear (5)                        [128, 8, 8, 1536]         [128, 8, 8, 384]          --                        590,208                   75,546,624
тФВ    тФВ    тФВ    тФВ    тФВ    тФФтФАPermute (6)                       [128, 8, 8, 384]          [128, 384, 8, 8]          --                        --                        --
тФВ    тФВ    тФВ    тФВ    тФФтФАStochasticDepth (stochastic_depth)     [128, 384, 8, 8]          [128, 384, 8, 8]          --                        --                        --
тФВ    тФВ    тФВ    тФФтФАCNBlock (5)                                 [128, 384, 8, 8]          [128, 384, 8, 8]          --                        384                       --
тФВ    тФВ    тФВ    тФВ    тФФтФАSequential (block)                     [128, 384, 8, 8]          [128, 384, 8, 8]          --                        --                        --
тФВ    тФВ    тФВ    тФВ    тФВ    тФФтФАConv2d (0)                        [128, 384, 8, 8]          [128, 384, 8, 8]          [7, 7]                    19,200                    157,286,400
тФВ    тФВ    тФВ    тФВ    тФВ    тФФтФАPermute (1)                       [128, 384, 8, 8]          [128, 8, 8, 384]          --                        --                        --
тФВ    тФВ    тФВ    тФВ    тФВ    тФФтФАLayerNorm (2)                     [128, 8, 8, 384]          [128, 8, 8, 384]          --                        768                       98,304
тФВ    тФВ    тФВ    тФВ    тФВ    тФФтФАLinear (3)                        [128, 8, 8, 384]          [128, 8, 8, 1536]         --                        591,360                   75,694,080
тФВ    тФВ    тФВ    тФВ    тФВ    тФФтФАGELU (4)                          [128, 8, 8, 1536]         [128, 8, 8, 1536]         --                        --                        --
тФВ    тФВ    тФВ    тФВ    тФВ    тФФтФАLinear (5)                        [128, 8, 8, 1536]         [128, 8, 8, 384]          --                        590,208                   75,546,624
тФВ    тФВ    тФВ    тФВ    тФВ    тФФтФАPermute (6)                       [128, 8, 8, 384]          [128, 384, 8, 8]          --                        --                        --
тФВ    тФВ    тФВ    тФВ    тФФтФАStochasticDepth (stochastic_depth)     [128, 384, 8, 8]          [128, 384, 8, 8]          --                        --                        --
тФВ    тФВ    тФВ    тФФтФАCNBlock (6)                                 [128, 384, 8, 8]          [128, 384, 8, 8]          --                        384                       --
тФВ    тФВ    тФВ    тФВ    тФФтФАSequential (block)                     [128, 384, 8, 8]          [128, 384, 8, 8]          --                        --                        --
тФВ    тФВ    тФВ    тФВ    тФВ    тФФтФАConv2d (0)                        [128, 384, 8, 8]          [128, 384, 8, 8]          [7, 7]                    19,200                    157,286,400
тФВ    тФВ    тФВ    тФВ    тФВ    тФФтФАPermute (1)                       [128, 384, 8, 8]          [128, 8, 8, 384]          --                        --                        --
тФВ    тФВ    тФВ    тФВ    тФВ    тФФтФАLayerNorm (2)                     [128, 8, 8, 384]          [128, 8, 8, 384]          --                        768                       98,304
тФВ    тФВ    тФВ    тФВ    тФВ    тФФтФАLinear (3)                        [128, 8, 8, 384]          [128, 8, 8, 1536]         --                        591,360                   75,694,080
тФВ    тФВ    тФВ    тФВ    тФВ    тФФтФАGELU (4)                          [128, 8, 8, 1536]         [128, 8, 8, 1536]         --                        --                        --
тФВ    тФВ    тФВ    тФВ    тФВ    тФФтФАLinear (5)                        [128, 8, 8, 1536]         [128, 8, 8, 384]          --                        590,208                   75,546,624
тФВ    тФВ    тФВ    тФВ    тФВ    тФФтФАPermute (6)                       [128, 8, 8, 384]          [128, 384, 8, 8]          --                        --                        --
тФВ    тФВ    тФВ    тФВ    тФФтФАStochasticDepth (stochastic_depth)     [128, 384, 8, 8]          [128, 384, 8, 8]          --                        --                        --
тФВ    тФВ    тФВ    тФФтФАCNBlock (7)                                 [128, 384, 8, 8]          [128, 384, 8, 8]          --                        384                       --
тФВ    тФВ    тФВ    тФВ    тФФтФАSequential (block)                     [128, 384, 8, 8]          [128, 384, 8, 8]          --                        --                        --
тФВ    тФВ    тФВ    тФВ    тФВ    тФФтФАConv2d (0)                        [128, 384, 8, 8]          [128, 384, 8, 8]          [7, 7]                    19,200                    157,286,400
тФВ    тФВ    тФВ    тФВ    тФВ    тФФтФАPermute (1)                       [128, 384, 8, 8]          [128, 8, 8, 384]          --                        --                        --
тФВ    тФВ    тФВ    тФВ    тФВ    тФФтФАLayerNorm (2)                     [128, 8, 8, 384]          [128, 8, 8, 384]          --                        768                       98,304
тФВ    тФВ    тФВ    тФВ    тФВ    тФФтФАLinear (3)                        [128, 8, 8, 384]          [128, 8, 8, 1536]         --                        591,360                   75,694,080
тФВ    тФВ    тФВ    тФВ    тФВ    тФФтФАGELU (4)                          [128, 8, 8, 1536]         [128, 8, 8, 1536]         --                        --                        --
тФВ    тФВ    тФВ    тФВ    тФВ    тФФтФАLinear (5)                        [128, 8, 8, 1536]         [128, 8, 8, 384]          --                        590,208                   75,546,624
тФВ    тФВ    тФВ    тФВ    тФВ    тФФтФАPermute (6)                       [128, 8, 8, 384]          [128, 384, 8, 8]          --                        --                        --
тФВ    тФВ    тФВ    тФВ    тФФтФАStochasticDepth (stochastic_depth)     [128, 384, 8, 8]          [128, 384, 8, 8]          --                        --                        --
тФВ    тФВ    тФВ    тФФтФАCNBlock (8)                                 [128, 384, 8, 8]          [128, 384, 8, 8]          --                        384                       --
тФВ    тФВ    тФВ    тФВ    тФФтФАSequential (block)                     [128, 384, 8, 8]          [128, 384, 8, 8]          --                        --                        --
тФВ    тФВ    тФВ    тФВ    тФВ    тФФтФАConv2d (0)                        [128, 384, 8, 8]          [128, 384, 8, 8]          [7, 7]                    19,200                    157,286,400
тФВ    тФВ    тФВ    тФВ    тФВ    тФФтФАPermute (1)                       [128, 384, 8, 8]          [128, 8, 8, 384]          --                        --                        --
тФВ    тФВ    тФВ    тФВ    тФВ    тФФтФАLayerNorm (2)                     [128, 8, 8, 384]          [128, 8, 8, 384]          --                        768                       98,304
тФВ    тФВ    тФВ    тФВ    тФВ    тФФтФАLinear (3)                        [128, 8, 8, 384]          [128, 8, 8, 1536]         --                        591,360                   75,694,080
тФВ    тФВ    тФВ    тФВ    тФВ    тФФтФАGELU (4)                          [128, 8, 8, 1536]         [128, 8, 8, 1536]         --                        --                        --
тФВ    тФВ    тФВ    тФВ    тФВ    тФФтФАLinear (5)                        [128, 8, 8, 1536]         [128, 8, 8, 384]          --                        590,208                   75,546,624
тФВ    тФВ    тФВ    тФВ    тФВ    тФФтФАPermute (6)                       [128, 8, 8, 384]          [128, 384, 8, 8]          --                        --                        --
тФВ    тФВ    тФВ    тФВ    тФФтФАStochasticDepth (stochastic_depth)     [128, 384, 8, 8]          [128, 384, 8, 8]          --                        --                        --
тФВ    тФВ    тФФтФАSequential (6)                                   [128, 384, 8, 8]          [128, 768, 4, 4]          --                        --                        --
тФВ    тФВ    тФВ    тФФтФАLayerNorm2d (0)                             [128, 384, 8, 8]          [128, 384, 8, 8]          --                        768                       98,304
тФВ    тФВ    тФВ    тФФтФАConv2d (1)                                  [128, 384, 8, 8]          [128, 768, 4, 4]          [2, 2]                    1,180,416                 2,417,491,968
тФВ    тФВ    тФФтФАSequential (7)                                   [128, 768, 4, 4]          [128, 768, 4, 4]          --                        --                        --
тФВ    тФВ    тФВ    тФФтФАCNBlock (0)                                 [128, 768, 4, 4]          [128, 768, 4, 4]          --                        768                       --
тФВ    тФВ    тФВ    тФВ    тФФтФАSequential (block)                     [128, 768, 4, 4]          [128, 768, 4, 4]          --                        --                        --
тФВ    тФВ    тФВ    тФВ    тФВ    тФФтФАConv2d (0)                        [128, 768, 4, 4]          [128, 768, 4, 4]          [7, 7]                    38,400                    78,643,200
тФВ    тФВ    тФВ    тФВ    тФВ    тФФтФАPermute (1)                       [128, 768, 4, 4]          [128, 4, 4, 768]          --                        --                        --
тФВ    тФВ    тФВ    тФВ    тФВ    тФФтФАLayerNorm (2)                     [128, 4, 4, 768]          [128, 4, 4, 768]          --                        1,536                     196,608
тФВ    тФВ    тФВ    тФВ    тФВ    тФФтФАLinear (3)                        [128, 4, 4, 768]          [128, 4, 4, 3072]         --                        2,362,368                 302,383,104
тФВ    тФВ    тФВ    тФВ    тФВ    тФФтФАGELU (4)                          [128, 4, 4, 3072]         [128, 4, 4, 3072]         --                        --                        --
тФВ    тФВ    тФВ    тФВ    тФВ    тФФтФАLinear (5)                        [128, 4, 4, 3072]         [128, 4, 4, 768]          --                        2,360,064                 302,088,192
тФВ    тФВ    тФВ    тФВ    тФВ    тФФтФАPermute (6)                       [128, 4, 4, 768]          [128, 768, 4, 4]          --                        --                        --
тФВ    тФВ    тФВ    тФВ    тФФтФАStochasticDepth (stochastic_depth)     [128, 768, 4, 4]          [128, 768, 4, 4]          --                        --                        --
тФВ    тФВ    тФВ    тФФтФАCNBlock (1)                                 [128, 768, 4, 4]          [128, 768, 4, 4]          --                        768                       --
тФВ    тФВ    тФВ    тФВ    тФФтФАSequential (block)                     [128, 768, 4, 4]          [128, 768, 4, 4]          --                        --                        --
тФВ    тФВ    тФВ    тФВ    тФВ    тФФтФАConv2d (0)                        [128, 768, 4, 4]          [128, 768, 4, 4]          [7, 7]                    38,400                    78,643,200
тФВ    тФВ    тФВ    тФВ    тФВ    тФФтФАPermute (1)                       [128, 768, 4, 4]          [128, 4, 4, 768]          --                        --                        --
тФВ    тФВ    тФВ    тФВ    тФВ    тФФтФАLayerNorm (2)                     [128, 4, 4, 768]          [128, 4, 4, 768]          --                        1,536                     196,608
тФВ    тФВ    тФВ    тФВ    тФВ    тФФтФАLinear (3)                        [128, 4, 4, 768]          [128, 4, 4, 3072]         --                        2,362,368                 302,383,104
тФВ    тФВ    тФВ    тФВ    тФВ    тФФтФАGELU (4)                          [128, 4, 4, 3072]         [128, 4, 4, 3072]         --                        --                        --
тФВ    тФВ    тФВ    тФВ    тФВ    тФФтФАLinear (5)                        [128, 4, 4, 3072]         [128, 4, 4, 768]          --                        2,360,064                 302,088,192
тФВ    тФВ    тФВ    тФВ    тФВ    тФФтФАPermute (6)                       [128, 4, 4, 768]          [128, 768, 4, 4]          --                        --                        --
тФВ    тФВ    тФВ    тФВ    тФФтФАStochasticDepth (stochastic_depth)     [128, 768, 4, 4]          [128, 768, 4, 4]          --                        --                        --
тФВ    тФВ    тФВ    тФФтФАCNBlock (2)                                 [128, 768, 4, 4]          [128, 768, 4, 4]          --                        768                       --
тФВ    тФВ    тФВ    тФВ    тФФтФАSequential (block)                     [128, 768, 4, 4]          [128, 768, 4, 4]          --                        --                        --
тФВ    тФВ    тФВ    тФВ    тФВ    тФФтФАConv2d (0)                        [128, 768, 4, 4]          [128, 768, 4, 4]          [7, 7]                    38,400                    78,643,200
тФВ    тФВ    тФВ    тФВ    тФВ    тФФтФАPermute (1)                       [128, 768, 4, 4]          [128, 4, 4, 768]          --                        --                        --
тФВ    тФВ    тФВ    тФВ    тФВ    тФФтФАLayerNorm (2)                     [128, 4, 4, 768]          [128, 4, 4, 768]          --                        1,536                     196,608
тФВ    тФВ    тФВ    тФВ    тФВ    тФФтФАLinear (3)                        [128, 4, 4, 768]          [128, 4, 4, 3072]         --                        2,362,368                 302,383,104
тФВ    тФВ    тФВ    тФВ    тФВ    тФФтФАGELU (4)                          [128, 4, 4, 3072]         [128, 4, 4, 3072]         --                        --                        --
тФВ    тФВ    тФВ    тФВ    тФВ    тФФтФАLinear (5)                        [128, 4, 4, 3072]         [128, 4, 4, 768]          --                        2,360,064                 302,088,192
тФВ    тФВ    тФВ    тФВ    тФВ    тФФтФАPermute (6)                       [128, 4, 4, 768]          [128, 768, 4, 4]          --                        --                        --
тФВ    тФВ    тФВ    тФВ    тФФтФАStochasticDepth (stochastic_depth)     [128, 768, 4, 4]          [128, 768, 4, 4]          --                        --                        --
тФВ    тФФтФАAdaptiveAvgPool2d (avgpool)                           [128, 768, 4, 4]          [128, 768, 1, 1]          --                        --                        --
тФВ    тФФтФАSequential (classifier)                               [128, 768, 1, 1]          [128, 100]                --                        --                        --
тФВ    тФВ    тФФтФАLayerNorm2d (0)                                  [128, 768, 1, 1]          [128, 768, 1, 1]          --                        1,536                     196,608
тФВ    тФВ    тФФтФАFlatten (1)                                      [128, 768, 1, 1]          [128, 768]                --                        --                        --
тФВ    тФВ    тФФтФАLinear (2)                                       [128, 768]                [128, 100]                --                        76,900                    9,843,200
тФЬтФАChunkMerge (chunk_merge)                                   [128, 100]                [128, 100]                --                        --                        --
=========================================================================================================================================================================================
Total params: 27,895,012
Trainable params: 27,895,012
Non-trainable params: 0
Total mult-adds (Units.GIGABYTES): 15.42
=========================================================================================================================================================================================
…
