…
=======================================================================================================================================================
Layer (type (var_name))                                      Input Shape               Output Shape              Kernel Shape              Param #                   Mult-Adds
=========================================================================================================================================================================================
EEWrapper (EEWrapper)                                        [128, 3, 32, 32]          [128, 100]                --                        --                        --
тФЬтФАRepeatData (repeater)                                      [128, 3, 32, 32]          [128, 48, 32, 32]         --                        --                        --
тФЬтФАConvNeXt (model)                                           [128, 48, 32, 32]         [128, 1600]               --                        --                        --
тФВ    тФФтФАSequential (features)                                 [128, 48, 32, 32]         [128, 3072, 4, 4]         --                        --                        --
тФВ    тФВ    тФФтФАConv2dNormActivation (0)                         [128, 48, 32, 32]         [128, 384, 32, 32]        --                        --                        --
тФВ    тФВ    тФВ    тФФтФАConv2d (0)                                  [128, 48, 32, 32]         [128, 384, 32, 32]        [3, 3]                    10,752                    1,409,286,144
тФВ    тФВ    тФВ    тФФтФАGroupedLayerNorm2d (1)                      [128, 384, 32, 32]        [128, 384, 32, 32]        --                        --                        --
тФВ    тФВ    тФВ    тФВ    тФФтФАGroupedLayerNorm (layer)               [128, 32, 32, 384]        [128, 32, 32, 384]        --                        --                        --
тФВ    тФВ    тФВ    тФВ    тФВ    тФФтФАGroupNorm (gn)                    [131072, 384]             [131072, 384]             --                        768                       100,663,296
тФВ    тФВ    тФФтФАSequential (1)                                   [128, 384, 32, 32]        [128, 384, 32, 32]        --                        --                        --
тФВ    тФВ    тФВ    тФФтФАCNBlock (0)                                 [128, 384, 32, 32]        [128, 384, 32, 32]        --                        384                       --
тФВ    тФВ    тФВ    тФВ    тФФтФАSequential (block)                     [128, 384, 32, 32]        [128, 384, 32, 32]        --                        --                        --
тФВ    тФВ    тФВ    тФВ    тФВ    тФФтФАConv2d (0)                        [128, 384, 32, 32]        [128, 384, 32, 32]        [7, 7]                    19,200                    2,516,582,400
тФВ    тФВ    тФВ    тФВ    тФВ    тФФтФАPermute (1)                       [128, 384, 32, 32]        [128, 32, 32, 384]        --                        --                        --
тФВ    тФВ    тФВ    тФВ    тФВ    тФФтФАGroupedLayerNorm (2)              [128, 32, 32, 384]        [128, 32, 32, 384]        --                        --                        --
тФВ    тФВ    тФВ    тФВ    тФВ    тФВ    тФФтФАGroupNorm (gn)               [131072, 384]             [131072, 384]             --                        768                       100,663,296
тФВ    тФВ    тФВ    тФВ    тФВ    тФФтФАGroupedLinear (3)                 [128, 32, 32, 384]        [128, 32, 32, 1536]       --                        38,400                    4,915,200
тФВ    тФВ    тФВ    тФВ    тФВ    тФФтФАGELU (4)                          [128, 32, 32, 1536]       [128, 32, 32, 1536]       --                        --                        --
тФВ    тФВ    тФВ    тФВ    тФВ    тФФтФАGroupedLinear (5)                 [128, 32, 32, 1536]       [128, 32, 32, 384]        --                        37,248                    4,767,744
тФВ    тФВ    тФВ    тФВ    тФВ    тФФтФАPermute (6)                       [128, 32, 32, 384]        [128, 384, 32, 32]        --                        --                        --
тФВ    тФВ    тФВ    тФВ    тФФтФАStochasticDepth (stochastic_depth)     [128, 384, 32, 32]        [128, 384, 32, 32]        --                        --                        --
тФВ    тФВ    тФВ    тФФтФАCNBlock (1)                                 [128, 384, 32, 32]        [128, 384, 32, 32]        --                        384                       --
тФВ    тФВ    тФВ    тФВ    тФФтФАSequential (block)                     [128, 384, 32, 32]        [128, 384, 32, 32]        --                        --                        --
тФВ    тФВ    тФВ    тФВ    тФВ    тФФтФАConv2d (0)                        [128, 384, 32, 32]        [128, 384, 32, 32]        [7, 7]                    19,200                    2,516,582,400
тФВ    тФВ    тФВ    тФВ    тФВ    тФФтФАPermute (1)                       [128, 384, 32, 32]        [128, 32, 32, 384]        --                        --                        --
тФВ    тФВ    тФВ    тФВ    тФВ    тФФтФАGroupedLayerNorm (2)              [128, 32, 32, 384]        [128, 32, 32, 384]        --                        --                        --
тФВ    тФВ    тФВ    тФВ    тФВ    тФВ    тФФтФАGroupNorm (gn)               [131072, 384]             [131072, 384]             --                        768                       100,663,296
тФВ    тФВ    тФВ    тФВ    тФВ    тФФтФАGroupedLinear (3)                 [128, 32, 32, 384]        [128, 32, 32, 1536]       --                        38,400                    4,915,200
тФВ    тФВ    тФВ    тФВ    тФВ    тФФтФАGELU (4)                          [128, 32, 32, 1536]       [128, 32, 32, 1536]       --                        --                        --
тФВ    тФВ    тФВ    тФВ    тФВ    тФФтФАGroupedLinear (5)                 [128, 32, 32, 1536]       [128, 32, 32, 384]        --                        37,248                    4,767,744
тФВ    тФВ    тФВ    тФВ    тФВ    тФФтФАPermute (6)                       [128, 32, 32, 384]        [128, 384, 32, 32]        --                        --                        --
тФВ    тФВ    тФВ    тФВ    тФФтФАStochasticDepth (stochastic_depth)     [128, 384, 32, 32]        [128, 384, 32, 32]        --                        --                        --
тФВ    тФВ    тФВ    тФФтФАCNBlock (2)                                 [128, 384, 32, 32]        [128, 384, 32, 32]        --                        384                       --
тФВ    тФВ    тФВ    тФВ    тФФтФАSequential (block)                     [128, 384, 32, 32]        [128, 384, 32, 32]        --                        --                        --
тФВ    тФВ    тФВ    тФВ    тФВ    тФФтФАConv2d (0)                        [128, 384, 32, 32]        [128, 384, 32, 32]        [7, 7]                    19,200                    2,516,582,400
тФВ    тФВ    тФВ    тФВ    тФВ    тФФтФАPermute (1)                       [128, 384, 32, 32]        [128, 32, 32, 384]        --                        --                        --
тФВ    тФВ    тФВ    тФВ    тФВ    тФФтФАGroupedLayerNorm (2)              [128, 32, 32, 384]        [128, 32, 32, 384]        --                        --                        --
тФВ    тФВ    тФВ    тФВ    тФВ    тФВ    тФФтФАGroupNorm (gn)               [131072, 384]             [131072, 384]             --                        768                       100,663,296
тФВ    тФВ    тФВ    тФВ    тФВ    тФФтФАGroupedLinear (3)                 [128, 32, 32, 384]        [128, 32, 32, 1536]       --                        38,400                    4,915,200
тФВ    тФВ    тФВ    тФВ    тФВ    тФФтФАGELU (4)                          [128, 32, 32, 1536]       [128, 32, 32, 1536]       --                        --                        --
тФВ    тФВ    тФВ    тФВ    тФВ    тФФтФАGroupedLinear (5)                 [128, 32, 32, 1536]       [128, 32, 32, 384]        --                        37,248                    4,767,744
тФВ    тФВ    тФВ    тФВ    тФВ    тФФтФАPermute (6)                       [128, 32, 32, 384]        [128, 384, 32, 32]        --                        --                        --
тФВ    тФВ    тФВ    тФВ    тФФтФАStochasticDepth (stochastic_depth)     [128, 384, 32, 32]        [128, 384, 32, 32]        --                        --                        --
тФВ    тФВ    тФФтФАSequential (2)                                   [128, 384, 32, 32]        [128, 768, 16, 16]        --                        --                        --
тФВ    тФВ    тФВ    тФФтФАGroupedLayerNorm2d (0)                      [128, 384, 32, 32]        [128, 384, 32, 32]        --                        --                        --
тФВ    тФВ    тФВ    тФВ    тФФтФАGroupedLayerNorm (layer)               [128, 32, 32, 384]        [128, 32, 32, 384]        --                        --                        --
тФВ    тФВ    тФВ    тФВ    тФВ    тФФтФАGroupNorm (gn)                    [131072, 384]             [131072, 384]             --                        768                       100,663,296
тФВ    тФВ    тФВ    тФФтФАConv2d (1)                                  [128, 384, 32, 32]        [128, 768, 16, 16]        [2, 2]                    74,496                    2,441,084,928
тФВ    тФВ    тФФтФАSequential (3)                                   [128, 768, 16, 16]        [128, 768, 16, 16]        --                        --                        --
тФВ    тФВ    тФВ    тФФтФАCNBlock (0)                                 [128, 768, 16, 16]        [128, 768, 16, 16]        --                        768                       --
тФВ    тФВ    тФВ    тФВ    тФФтФАSequential (block)                     [128, 768, 16, 16]        [128, 768, 16, 16]        --                        --                        --
тФВ    тФВ    тФВ    тФВ    тФВ    тФФтФАConv2d (0)                        [128, 768, 16, 16]        [128, 768, 16, 16]        [7, 7]                    38,400                    1,258,291,200
тФВ    тФВ    тФВ    тФВ    тФВ    тФФтФАPermute (1)                       [128, 768, 16, 16]        [128, 16, 16, 768]        --                        --                        --
тФВ    тФВ    тФВ    тФВ    тФВ    тФФтФАGroupedLayerNorm (2)              [128, 16, 16, 768]        [128, 16, 16, 768]        --                        --                        --
тФВ    тФВ    тФВ    тФВ    тФВ    тФВ    тФФтФАGroupNorm (gn)               [32768, 768]              [32768, 768]              --                        1,536                     50,331,648
тФВ    тФВ    тФВ    тФВ    тФВ    тФФтФАGroupedLinear (3)                 [128, 16, 16, 768]        [128, 16, 16, 3072]       --                        150,528                   19,267,584
тФВ    тФВ    тФВ    тФВ    тФВ    тФФтФАGELU (4)                          [128, 16, 16, 3072]       [128, 16, 16, 3072]       --                        --                        --
тФВ    тФВ    тФВ    тФВ    тФВ    тФФтФАGroupedLinear (5)                 [128, 16, 16, 3072]       [128, 16, 16, 768]        --                        148,224                   18,972,672
тФВ    тФВ    тФВ    тФВ    тФВ    тФФтФАPermute (6)                       [128, 16, 16, 768]        [128, 768, 16, 16]        --                        --                        --
тФВ    тФВ    тФВ    тФВ    тФФтФАStochasticDepth (stochastic_depth)     [128, 768, 16, 16]        [128, 768, 16, 16]        --                        --                        --
тФВ    тФВ    тФВ    тФФтФАCNBlock (1)                                 [128, 768, 16, 16]        [128, 768, 16, 16]        --                        768                       --
тФВ    тФВ    тФВ    тФВ    тФФтФАSequential (block)                     [128, 768, 16, 16]        [128, 768, 16, 16]        --                        --                        --
тФВ    тФВ    тФВ    тФВ    тФВ    тФФтФАConv2d (0)                        [128, 768, 16, 16]        [128, 768, 16, 16]        [7, 7]                    38,400                    1,258,291,200
тФВ    тФВ    тФВ    тФВ    тФВ    тФФтФАPermute (1)                       [128, 768, 16, 16]        [128, 16, 16, 768]        --                        --                        --
тФВ    тФВ    тФВ    тФВ    тФВ    тФФтФАGroupedLayerNorm (2)              [128, 16, 16, 768]        [128, 16, 16, 768]        --                        --                        --
тФВ    тФВ    тФВ    тФВ    тФВ    тФВ    тФФтФАGroupNorm (gn)               [32768, 768]              [32768, 768]              --                        1,536                     50,331,648
тФВ    тФВ    тФВ    тФВ    тФВ    тФФтФАGroupedLinear (3)                 [128, 16, 16, 768]        [128, 16, 16, 3072]       --                        150,528                   19,267,584
тФВ    тФВ    тФВ    тФВ    тФВ    тФФтФАGELU (4)                          [128, 16, 16, 3072]       [128, 16, 16, 3072]       --                        --                        --
тФВ    тФВ    тФВ    тФВ    тФВ    тФФтФАGroupedLinear (5)                 [128, 16, 16, 3072]       [128, 16, 16, 768]        --                        148,224                   18,972,672
тФВ    тФВ    тФВ    тФВ    тФВ    тФФтФАPermute (6)                       [128, 16, 16, 768]        [128, 768, 16, 16]        --                        --                        --
тФВ    тФВ    тФВ    тФВ    тФФтФАStochasticDepth (stochastic_depth)     [128, 768, 16, 16]        [128, 768, 16, 16]        --                        --                        --
тФВ    тФВ    тФВ    тФФтФАCNBlock (2)                                 [128, 768, 16, 16]        [128, 768, 16, 16]        --                        768                       --
тФВ    тФВ    тФВ    тФВ    тФФтФАSequential (block)                     [128, 768, 16, 16]        [128, 768, 16, 16]        --                        --                        --
тФВ    тФВ    тФВ    тФВ    тФВ    тФФтФАConv2d (0)                        [128, 768, 16, 16]        [128, 768, 16, 16]        [7, 7]                    38,400                    1,258,291,200
тФВ    тФВ    тФВ    тФВ    тФВ    тФФтФАPermute (1)                       [128, 768, 16, 16]        [128, 16, 16, 768]        --                        --                        --
тФВ    тФВ    тФВ    тФВ    тФВ    тФФтФАGroupedLayerNorm (2)              [128, 16, 16, 768]        [128, 16, 16, 768]        --                        --                        --
тФВ    тФВ    тФВ    тФВ    тФВ    тФВ    тФФтФАGroupNorm (gn)               [32768, 768]              [32768, 768]              --                        1,536                     50,331,648
тФВ    тФВ    тФВ    тФВ    тФВ    тФФтФАGroupedLinear (3)                 [128, 16, 16, 768]        [128, 16, 16, 3072]       --                        150,528                   19,267,584
тФВ    тФВ    тФВ    тФВ    тФВ    тФФтФАGELU (4)                          [128, 16, 16, 3072]       [128, 16, 16, 3072]       --                        --                        --
тФВ    тФВ    тФВ    тФВ    тФВ    тФФтФАGroupedLinear (5)                 [128, 16, 16, 3072]       [128, 16, 16, 768]        --                        148,224                   18,972,672
тФВ    тФВ    тФВ    тФВ    тФВ    тФФтФАPermute (6)                       [128, 16, 16, 768]        [128, 768, 16, 16]        --                        --                        --
тФВ    тФВ    тФВ    тФВ    тФФтФАStochasticDepth (stochastic_depth)     [128, 768, 16, 16]        [128, 768, 16, 16]        --                        --                        --
тФВ    тФВ    тФФтФАSequential (4)                                   [128, 768, 16, 16]        [128, 1536, 8, 8]         --                        --                        --
тФВ    тФВ    тФВ    тФФтФАGroupedLayerNorm2d (0)                      [128, 768, 16, 16]        [128, 768, 16, 16]        --                        --                        --
тФВ    тФВ    тФВ    тФВ    тФФтФАGroupedLayerNorm (layer)               [128, 16, 16, 768]        [128, 16, 16, 768]        --                        --                        --
тФВ    тФВ    тФВ    тФВ    тФВ    тФФтФАGroupNorm (gn)                    [32768, 768]              [32768, 768]              --                        1,536                     50,331,648
тФВ    тФВ    тФВ    тФФтФАConv2d (1)                                  [128, 768, 16, 16]        [128, 1536, 8, 8]         [2, 2]                    296,448                   2,428,502,016
тФВ    тФВ    тФФтФАSequential (5)                                   [128, 1536, 8, 8]         [128, 1536, 8, 8]         --                        --                        --
тФВ    тФВ    тФВ    тФФтФАCNBlock (0)                                 [128, 1536, 8, 8]         [128, 1536, 8, 8]         --                        1,536                     --
тФВ    тФВ    тФВ    тФВ    тФФтФАSequential (block)                     [128, 1536, 8, 8]         [128, 1536, 8, 8]         --                        --                        --
тФВ    тФВ    тФВ    тФВ    тФВ    тФФтФАConv2d (0)                        [128, 1536, 8, 8]         [128, 1536, 8, 8]         [7, 7]                    76,800                    629,145,600
тФВ    тФВ    тФВ    тФВ    тФВ    тФФтФАPermute (1)                       [128, 1536, 8, 8]         [128, 8, 8, 1536]         --                        --                        --
тФВ    тФВ    тФВ    тФВ    тФВ    тФФтФАGroupedLayerNorm (2)              [128, 8, 8, 1536]         [128, 8, 8, 1536]         --                        --                        --
тФВ    тФВ    тФВ    тФВ    тФВ    тФВ    тФФтФАGroupNorm (gn)               [8192, 1536]              [8192, 1536]              --                        3,072                     25,165,824
тФВ    тФВ    тФВ    тФВ    тФВ    тФФтФАGroupedLinear (3)                 [128, 8, 8, 1536]         [128, 8, 8, 6144]         --                        595,968                   76,283,904
тФВ    тФВ    тФВ    тФВ    тФВ    тФФтФАGELU (4)                          [128, 8, 8, 6144]         [128, 8, 8, 6144]         --                        --                        --
тФВ    тФВ    тФВ    тФВ    тФВ    тФФтФАGroupedLinear (5)                 [128, 8, 8, 6144]         [128, 8, 8, 1536]         --                        591,360                   75,694,080
тФВ    тФВ    тФВ    тФВ    тФВ    тФФтФАPermute (6)                       [128, 8, 8, 1536]         [128, 1536, 8, 8]         --                        --                        --
тФВ    тФВ    тФВ    тФВ    тФФтФАStochasticDepth (stochastic_depth)     [128, 1536, 8, 8]         [128, 1536, 8, 8]         --                        --                        --
тФВ    тФВ    тФВ    тФФтФАCNBlock (1)                                 [128, 1536, 8, 8]         [128, 1536, 8, 8]         --                        1,536                     --
тФВ    тФВ    тФВ    тФВ    тФФтФАSequential (block)                     [128, 1536, 8, 8]         [128, 1536, 8, 8]         --                        --                        --
тФВ    тФВ    тФВ    тФВ    тФВ    тФФтФАConv2d (0)                        [128, 1536, 8, 8]         [128, 1536, 8, 8]         [7, 7]                    76,800                    629,145,600
тФВ    тФВ    тФВ    тФВ    тФВ    тФФтФАPermute (1)                       [128, 1536, 8, 8]         [128, 8, 8, 1536]         --                        --                        --
тФВ    тФВ    тФВ    тФВ    тФВ    тФФтФАGroupedLayerNorm (2)              [128, 8, 8, 1536]         [128, 8, 8, 1536]         --                        --                        --
тФВ    тФВ    тФВ    тФВ    тФВ    тФВ    тФФтФАGroupNorm (gn)               [8192, 1536]              [8192, 1536]              --                        3,072                     25,165,824
тФВ    тФВ    тФВ    тФВ    тФВ    тФФтФАGroupedLinear (3)                 [128, 8, 8, 1536]         [128, 8, 8, 6144]         --                        595,968                   76,283,904
тФВ    тФВ    тФВ    тФВ    тФВ    тФФтФАGELU (4)                          [128, 8, 8, 6144]         [128, 8, 8, 6144]         --                        --                        --
тФВ    тФВ    тФВ    тФВ    тФВ    тФФтФАGroupedLinear (5)                 [128, 8, 8, 6144]         [128, 8, 8, 1536]         --                        591,360                   75,694,080
тФВ    тФВ    тФВ    тФВ    тФВ    тФФтФАPermute (6)                       [128, 8, 8, 1536]         [128, 1536, 8, 8]         --                        --                        --
тФВ    тФВ    тФВ    тФВ    тФФтФАStochasticDepth (stochastic_depth)     [128, 1536, 8, 8]         [128, 1536, 8, 8]         --                        --                        --
тФВ    тФВ    тФВ    тФФтФАCNBlock (2)                                 [128, 1536, 8, 8]         [128, 1536, 8, 8]         --                        1,536                     --
тФВ    тФВ    тФВ    тФВ    тФФтФАSequential (block)                     [128, 1536, 8, 8]         [128, 1536, 8, 8]         --                        --                        --
тФВ    тФВ    тФВ    тФВ    тФВ    тФФтФАConv2d (0)                        [128, 1536, 8, 8]         [128, 1536, 8, 8]         [7, 7]                    76,800                    629,145,600
тФВ    тФВ    тФВ    тФВ    тФВ    тФФтФАPermute (1)                       [128, 1536, 8, 8]         [128, 8, 8, 1536]         --                        --                        --
тФВ    тФВ    тФВ    тФВ    тФВ    тФФтФАGroupedLayerNorm (2)              [128, 8, 8, 1536]         [128, 8, 8, 1536]         --                        --                        --
тФВ    тФВ    тФВ    тФВ    тФВ    тФВ    тФФтФАGroupNorm (gn)               [8192, 1536]              [8192, 1536]              --                        3,072                     25,165,824
тФВ    тФВ    тФВ    тФВ    тФВ    тФФтФАGroupedLinear (3)                 [128, 8, 8, 1536]         [128, 8, 8, 6144]         --                        595,968                   76,283,904
тФВ    тФВ    тФВ    тФВ    тФВ    тФФтФАGELU (4)                          [128, 8, 8, 6144]         [128, 8, 8, 6144]         --                        --                        --
тФВ    тФВ    тФВ    тФВ    тФВ    тФФтФАGroupedLinear (5)                 [128, 8, 8, 6144]         [128, 8, 8, 1536]         --                        591,360                   75,694,080
тФВ    тФВ    тФВ    тФВ    тФВ    тФФтФАPermute (6)                       [128, 8, 8, 1536]         [128, 1536, 8, 8]         --                        --                        --
тФВ    тФВ    тФВ    тФВ    тФФтФАStochasticDepth (stochastic_depth)     [128, 1536, 8, 8]         [128, 1536, 8, 8]         --                        --                        --
тФВ    тФВ    тФВ    тФФтФАCNBlock (3)                                 [128, 1536, 8, 8]         [128, 1536, 8, 8]         --                        1,536                     --
тФВ    тФВ    тФВ    тФВ    тФФтФАSequential (block)                     [128, 1536, 8, 8]         [128, 1536, 8, 8]         --                        --                        --
тФВ    тФВ    тФВ    тФВ    тФВ    тФФтФАConv2d (0)                        [128, 1536, 8, 8]         [128, 1536, 8, 8]         [7, 7]                    76,800                    629,145,600
тФВ    тФВ    тФВ    тФВ    тФВ    тФФтФАPermute (1)                       [128, 1536, 8, 8]         [128, 8, 8, 1536]         --                        --                        --
тФВ    тФВ    тФВ    тФВ    тФВ    тФФтФАGroupedLayerNorm (2)              [128, 8, 8, 1536]         [128, 8, 8, 1536]         --                        --                        --
тФВ    тФВ    тФВ    тФВ    тФВ    тФВ    тФФтФАGroupNorm (gn)               [8192, 1536]              [8192, 1536]              --                        3,072                     25,165,824
тФВ    тФВ    тФВ    тФВ    тФВ    тФФтФАGroupedLinear (3)                 [128, 8, 8, 1536]         [128, 8, 8, 6144]         --                        595,968                   76,283,904
тФВ    тФВ    тФВ    тФВ    тФВ    тФФтФАGELU (4)                          [128, 8, 8, 6144]         [128, 8, 8, 6144]         --                        --                        --
тФВ    тФВ    тФВ    тФВ    тФВ    тФФтФАGroupedLinear (5)                 [128, 8, 8, 6144]         [128, 8, 8, 1536]         --                        591,360                   75,694,080
тФВ    тФВ    тФВ    тФВ    тФВ    тФФтФАPermute (6)                       [128, 8, 8, 1536]         [128, 1536, 8, 8]         --                        --                        --
тФВ    тФВ    тФВ    тФВ    тФФтФАStochasticDepth (stochastic_depth)     [128, 1536, 8, 8]         [128, 1536, 8, 8]         --                        --                        --
тФВ    тФВ    тФВ    тФФтФАCNBlock (4)                                 [128, 1536, 8, 8]         [128, 1536, 8, 8]         --                        1,536                     --
тФВ    тФВ    тФВ    тФВ    тФФтФАSequential (block)                     [128, 1536, 8, 8]         [128, 1536, 8, 8]         --                        --                        --
тФВ    тФВ    тФВ    тФВ    тФВ    тФФтФАConv2d (0)                        [128, 1536, 8, 8]         [128, 1536, 8, 8]         [7, 7]                    76,800                    629,145,600
тФВ    тФВ    тФВ    тФВ    тФВ    тФФтФАPermute (1)                       [128, 1536, 8, 8]         [128, 8, 8, 1536]         --                        --                        --
тФВ    тФВ    тФВ    тФВ    тФВ    тФФтФАGroupedLayerNorm (2)              [128, 8, 8, 1536]         [128, 8, 8, 1536]         --                        --                        --
тФВ    тФВ    тФВ    тФВ    тФВ    тФВ    тФФтФАGroupNorm (gn)               [8192, 1536]              [8192, 1536]              --                        3,072                     25,165,824
тФВ    тФВ    тФВ    тФВ    тФВ    тФФтФАGroupedLinear (3)                 [128, 8, 8, 1536]         [128, 8, 8, 6144]         --                        595,968                   76,283,904
тФВ    тФВ    тФВ    тФВ    тФВ    тФФтФАGELU (4)                          [128, 8, 8, 6144]         [128, 8, 8, 6144]         --                        --                        --
тФВ    тФВ    тФВ    тФВ    тФВ    тФФтФАGroupedLinear (5)                 [128, 8, 8, 6144]         [128, 8, 8, 1536]         --                        591,360                   75,694,080
тФВ    тФВ    тФВ    тФВ    тФВ    тФФтФАPermute (6)                       [128, 8, 8, 1536]         [128, 1536, 8, 8]         --                        --                        --
тФВ    тФВ    тФВ    тФВ    тФФтФАStochasticDepth (stochastic_depth)     [128, 1536, 8, 8]         [128, 1536, 8, 8]         --                        --                        --
тФВ    тФВ    тФВ    тФФтФАCNBlock (5)                                 [128, 1536, 8, 8]         [128, 1536, 8, 8]         --                        1,536                     --
тФВ    тФВ    тФВ    тФВ    тФФтФАSequential (block)                     [128, 1536, 8, 8]         [128, 1536, 8, 8]         --                        --                        --
тФВ    тФВ    тФВ    тФВ    тФВ    тФФтФАConv2d (0)                        [128, 1536, 8, 8]         [128, 1536, 8, 8]         [7, 7]                    76,800                    629,145,600
тФВ    тФВ    тФВ    тФВ    тФВ    тФФтФАPermute (1)                       [128, 1536, 8, 8]         [128, 8, 8, 1536]         --                        --                        --
тФВ    тФВ    тФВ    тФВ    тФВ    тФФтФАGroupedLayerNorm (2)              [128, 8, 8, 1536]         [128, 8, 8, 1536]         --                        --                        --
тФВ    тФВ    тФВ    тФВ    тФВ    тФВ    тФФтФАGroupNorm (gn)               [8192, 1536]              [8192, 1536]              --                        3,072                     25,165,824
тФВ    тФВ    тФВ    тФВ    тФВ    тФФтФАGroupedLinear (3)                 [128, 8, 8, 1536]         [128, 8, 8, 6144]         --                        595,968                   76,283,904
тФВ    тФВ    тФВ    тФВ    тФВ    тФФтФАGELU (4)                          [128, 8, 8, 6144]         [128, 8, 8, 6144]         --                        --                        --
тФВ    тФВ    тФВ    тФВ    тФВ    тФФтФАGroupedLinear (5)                 [128, 8, 8, 6144]         [128, 8, 8, 1536]         --                        591,360                   75,694,080
тФВ    тФВ    тФВ    тФВ    тФВ    тФФтФАPermute (6)                       [128, 8, 8, 1536]         [128, 1536, 8, 8]         --                        --                        --
тФВ    тФВ    тФВ    тФВ    тФФтФАStochasticDepth (stochastic_depth)     [128, 1536, 8, 8]         [128, 1536, 8, 8]         --                        --                        --
тФВ    тФВ    тФВ    тФФтФАCNBlock (6)                                 [128, 1536, 8, 8]         [128, 1536, 8, 8]         --                        1,536                     --
тФВ    тФВ    тФВ    тФВ    тФФтФАSequential (block)                     [128, 1536, 8, 8]         [128, 1536, 8, 8]         --                        --                        --
тФВ    тФВ    тФВ    тФВ    тФВ    тФФтФАConv2d (0)                        [128, 1536, 8, 8]         [128, 1536, 8, 8]         [7, 7]                    76,800                    629,145,600
тФВ    тФВ    тФВ    тФВ    тФВ    тФФтФАPermute (1)                       [128, 1536, 8, 8]         [128, 8, 8, 1536]         --                        --                        --
тФВ    тФВ    тФВ    тФВ    тФВ    тФФтФАGroupedLayerNorm (2)              [128, 8, 8, 1536]         [128, 8, 8, 1536]         --                        --                        --
тФВ    тФВ    тФВ    тФВ    тФВ    тФВ    тФФтФАGroupNorm (gn)               [8192, 1536]              [8192, 1536]              --                        3,072                     25,165,824
тФВ    тФВ    тФВ    тФВ    тФВ    тФФтФАGroupedLinear (3)                 [128, 8, 8, 1536]         [128, 8, 8, 6144]         --                        595,968                   76,283,904
тФВ    тФВ    тФВ    тФВ    тФВ    тФФтФАGELU (4)                          [128, 8, 8, 6144]         [128, 8, 8, 6144]         --                        --                        --
тФВ    тФВ    тФВ    тФВ    тФВ    тФФтФАGroupedLinear (5)                 [128, 8, 8, 6144]         [128, 8, 8, 1536]         --                        591,360                   75,694,080
тФВ    тФВ    тФВ    тФВ    тФВ    тФФтФАPermute (6)                       [128, 8, 8, 1536]         [128, 1536, 8, 8]         --                        --                        --
тФВ    тФВ    тФВ    тФВ    тФФтФАStochasticDepth (stochastic_depth)     [128, 1536, 8, 8]         [128, 1536, 8, 8]         --                        --                        --
тФВ    тФВ    тФВ    тФФтФАCNBlock (7)                                 [128, 1536, 8, 8]         [128, 1536, 8, 8]         --                        1,536                     --
тФВ    тФВ    тФВ    тФВ    тФФтФАSequential (block)                     [128, 1536, 8, 8]         [128, 1536, 8, 8]         --                        --                        --
тФВ    тФВ    тФВ    тФВ    тФВ    тФФтФАConv2d (0)                        [128, 1536, 8, 8]         [128, 1536, 8, 8]         [7, 7]                    76,800                    629,145,600
тФВ    тФВ    тФВ    тФВ    тФВ    тФФтФАPermute (1)                       [128, 1536, 8, 8]         [128, 8, 8, 1536]         --                        --                        --
тФВ    тФВ    тФВ    тФВ    тФВ    тФФтФАGroupedLayerNorm (2)              [128, 8, 8, 1536]         [128, 8, 8, 1536]         --                        --                        --
тФВ    тФВ    тФВ    тФВ    тФВ    тФВ    тФФтФАGroupNorm (gn)               [8192, 1536]              [8192, 1536]              --                        3,072                     25,165,824
тФВ    тФВ    тФВ    тФВ    тФВ    тФФтФАGroupedLinear (3)                 [128, 8, 8, 1536]         [128, 8, 8, 6144]         --                        595,968                   76,283,904
тФВ    тФВ    тФВ    тФВ    тФВ    тФФтФАGELU (4)                          [128, 8, 8, 6144]         [128, 8, 8, 6144]         --                        --                        --
тФВ    тФВ    тФВ    тФВ    тФВ    тФФтФАGroupedLinear (5)                 [128, 8, 8, 6144]         [128, 8, 8, 1536]         --                        591,360                   75,694,080
тФВ    тФВ    тФВ    тФВ    тФВ    тФФтФАPermute (6)                       [128, 8, 8, 1536]         [128, 1536, 8, 8]         --                        --                        --
тФВ    тФВ    тФВ    тФВ    тФФтФАStochasticDepth (stochastic_depth)     [128, 1536, 8, 8]         [128, 1536, 8, 8]         --                        --                        --
тФВ    тФВ    тФВ    тФФтФАCNBlock (8)                                 [128, 1536, 8, 8]         [128, 1536, 8, 8]         --                        1,536                     --
тФВ    тФВ    тФВ    тФВ    тФФтФАSequential (block)                     [128, 1536, 8, 8]         [128, 1536, 8, 8]         --                        --                        --
тФВ    тФВ    тФВ    тФВ    тФВ    тФФтФАConv2d (0)                        [128, 1536, 8, 8]         [128, 1536, 8, 8]         [7, 7]                    76,800                    629,145,600
тФВ    тФВ    тФВ    тФВ    тФВ    тФФтФАPermute (1)                       [128, 1536, 8, 8]         [128, 8, 8, 1536]         --                        --                        --
тФВ    тФВ    тФВ    тФВ    тФВ    тФФтФАGroupedLayerNorm (2)              [128, 8, 8, 1536]         [128, 8, 8, 1536]         --                        --                        --
тФВ    тФВ    тФВ    тФВ    тФВ    тФВ    тФФтФАGroupNorm (gn)               [8192, 1536]              [8192, 1536]              --                        3,072                     25,165,824
тФВ    тФВ    тФВ    тФВ    тФВ    тФФтФАGroupedLinear (3)                 [128, 8, 8, 1536]         [128, 8, 8, 6144]         --                        595,968                   76,283,904
тФВ    тФВ    тФВ    тФВ    тФВ    тФФтФАGELU (4)                          [128, 8, 8, 6144]         [128, 8, 8, 6144]         --                        --                        --
тФВ    тФВ    тФВ    тФВ    тФВ    тФФтФАGroupedLinear (5)                 [128, 8, 8, 6144]         [128, 8, 8, 1536]         --                        591,360                   75,694,080
тФВ    тФВ    тФВ    тФВ    тФВ    тФФтФАPermute (6)                       [128, 8, 8, 1536]         [128, 1536, 8, 8]         --                        --                        --
тФВ    тФВ    тФВ    тФВ    тФФтФАStochasticDepth (stochastic_depth)     [128, 1536, 8, 8]         [128, 1536, 8, 8]         --                        --                        --
тФВ    тФВ    тФФтФАSequential (6)                                   [128, 1536, 8, 8]         [128, 3072, 4, 4]         --                        --                        --
тФВ    тФВ    тФВ    тФФтФАGroupedLayerNorm2d (0)                      [128, 1536, 8, 8]         [128, 1536, 8, 8]         --                        --                        --
тФВ    тФВ    тФВ    тФВ    тФФтФАGroupedLayerNorm (layer)               [128, 8, 8, 1536]         [128, 8, 8, 1536]         --                        --                        --
тФВ    тФВ    тФВ    тФВ    тФВ    тФФтФАGroupNorm (gn)                    [8192, 1536]              [8192, 1536]              --                        3,072                     25,165,824
тФВ    тФВ    тФВ    тФФтФАConv2d (1)                                  [128, 1536, 8, 8]         [128, 3072, 4, 4]         [2, 2]                    1,182,720                 2,422,210,560
тФВ    тФВ    тФФтФАSequential (7)                                   [128, 3072, 4, 4]         [128, 3072, 4, 4]         --                        --                        --
тФВ    тФВ    тФВ    тФФтФАCNBlock (0)                                 [128, 3072, 4, 4]         [128, 3072, 4, 4]         --                        3,072                     --
тФВ    тФВ    тФВ    тФВ    тФФтФАSequential (block)                     [128, 3072, 4, 4]         [128, 3072, 4, 4]         --                        --                        --
тФВ    тФВ    тФВ    тФВ    тФВ    тФФтФАConv2d (0)                        [128, 3072, 4, 4]         [128, 3072, 4, 4]         [7, 7]                    153,600                   314,572,800
тФВ    тФВ    тФВ    тФВ    тФВ    тФФтФАPermute (1)                       [128, 3072, 4, 4]         [128, 4, 4, 3072]         --                        --                        --
тФВ    тФВ    тФВ    тФВ    тФВ    тФФтФАGroupedLayerNorm (2)              [128, 4, 4, 3072]         [128, 4, 4, 3072]         --                        --                        --
тФВ    тФВ    тФВ    тФВ    тФВ    тФВ    тФФтФАGroupNorm (gn)               [2048, 3072]              [2048, 3072]              --                        6,144                     12,582,912
тФВ    тФВ    тФВ    тФВ    тФВ    тФФтФАGroupedLinear (3)                 [128, 4, 4, 3072]         [128, 4, 4, 12288]        --                        2,371,584                 303,562,752
тФВ    тФВ    тФВ    тФВ    тФВ    тФФтФАGELU (4)                          [128, 4, 4, 12288]        [128, 4, 4, 12288]        --                        --                        --
тФВ    тФВ    тФВ    тФВ    тФВ    тФФтФАGroupedLinear (5)                 [128, 4, 4, 12288]        [128, 4, 4, 3072]         --                        2,362,368                 302,383,104
тФВ    тФВ    тФВ    тФВ    тФВ    тФФтФАPermute (6)                       [128, 4, 4, 3072]         [128, 3072, 4, 4]         --                        --                        --
тФВ    тФВ    тФВ    тФВ    тФФтФАStochasticDepth (stochastic_depth)     [128, 3072, 4, 4]         [128, 3072, 4, 4]         --                        --                        --
тФВ    тФВ    тФВ    тФФтФАCNBlock (1)                                 [128, 3072, 4, 4]         [128, 3072, 4, 4]         --                        3,072                     --
тФВ    тФВ    тФВ    тФВ    тФФтФАSequential (block)                     [128, 3072, 4, 4]         [128, 3072, 4, 4]         --                        --                        --
тФВ    тФВ    тФВ    тФВ    тФВ    тФФтФАConv2d (0)                        [128, 3072, 4, 4]         [128, 3072, 4, 4]         [7, 7]                    153,600                   314,572,800
тФВ    тФВ    тФВ    тФВ    тФВ    тФФтФАPermute (1)                       [128, 3072, 4, 4]         [128, 4, 4, 3072]         --                        --                        --
тФВ    тФВ    тФВ    тФВ    тФВ    тФФтФАGroupedLayerNorm (2)              [128, 4, 4, 3072]         [128, 4, 4, 3072]         --                        --                        --
тФВ    тФВ    тФВ    тФВ    тФВ    тФВ    тФФтФАGroupNorm (gn)               [2048, 3072]              [2048, 3072]              --                        6,144                     12,582,912
тФВ    тФВ    тФВ    тФВ    тФВ    тФФтФАGroupedLinear (3)                 [128, 4, 4, 3072]         [128, 4, 4, 12288]        --                        2,371,584                 303,562,752
тФВ    тФВ    тФВ    тФВ    тФВ    тФФтФАGELU (4)                          [128, 4, 4, 12288]        [128, 4, 4, 12288]        --                        --                        --
тФВ    тФВ    тФВ    тФВ    тФВ    тФФтФАGroupedLinear (5)                 [128, 4, 4, 12288]        [128, 4, 4, 3072]         --                        2,362,368                 302,383,104
тФВ    тФВ    тФВ    тФВ    тФВ    тФФтФАPermute (6)                       [128, 4, 4, 3072]         [128, 3072, 4, 4]         --                        --                        --
тФВ    тФВ    тФВ    тФВ    тФФтФАStochasticDepth (stochastic_depth)     [128, 3072, 4, 4]         [128, 3072, 4, 4]         --                        --                        --
тФВ    тФВ    тФВ    тФФтФАCNBlock (2)                                 [128, 3072, 4, 4]         [128, 3072, 4, 4]         --                        3,072                     --
тФВ    тФВ    тФВ    тФВ    тФФтФАSequential (block)                     [128, 3072, 4, 4]         [128, 3072, 4, 4]         --                        --                        --
тФВ    тФВ    тФВ    тФВ    тФВ    тФФтФАConv2d (0)                        [128, 3072, 4, 4]         [128, 3072, 4, 4]         [7, 7]                    153,600                   314,572,800
тФВ    тФВ    тФВ    тФВ    тФВ    тФФтФАPermute (1)                       [128, 3072, 4, 4]         [128, 4, 4, 3072]         --                        --                        --
тФВ    тФВ    тФВ    тФВ    тФВ    тФФтФАGroupedLayerNorm (2)              [128, 4, 4, 3072]         [128, 4, 4, 3072]         --                        --                        --
тФВ    тФВ    тФВ    тФВ    тФВ    тФВ    тФФтФАGroupNorm (gn)               [2048, 3072]              [2048, 3072]              --                        6,144                     12,582,912
тФВ    тФВ    тФВ    тФВ    тФВ    тФФтФАGroupedLinear (3)                 [128, 4, 4, 3072]         [128, 4, 4, 12288]        --                        2,371,584                 303,562,752
тФВ    тФВ    тФВ    тФВ    тФВ    тФФтФАGELU (4)                          [128, 4, 4, 12288]        [128, 4, 4, 12288]        --                        --                        --
тФВ    тФВ    тФВ    тФВ    тФВ    тФФтФАGroupedLinear (5)                 [128, 4, 4, 12288]        [128, 4, 4, 3072]         --                        2,362,368                 302,383,104
тФВ    тФВ    тФВ    тФВ    тФВ    тФФтФАPermute (6)                       [128, 4, 4, 3072]         [128, 3072, 4, 4]         --                        --                        --
тФВ    тФВ    тФВ    тФВ    тФФтФАStochasticDepth (stochastic_depth)     [128, 3072, 4, 4]         [128, 3072, 4, 4]         --                        --                        --
тФВ    тФФтФАAdaptiveAvgPool2d (avgpool)                           [128, 3072, 4, 4]         [128, 3072, 1, 1]         --                        --                        --
тФВ    тФФтФАSequential (classifier)                               [128, 3072, 1, 1]         [128, 1600]               --                        --                        --
тФВ    тФВ    тФФтФАGroupedLayerNorm2d (0)                           [128, 3072, 1, 1]         [128, 3072, 1, 1]         --                        --                        --
тФВ    тФВ    тФВ    тФФтФАGroupedLayerNorm (layer)                    [128, 1, 1, 3072]         [128, 1, 1, 3072]         --                        --                        --
тФВ    тФВ    тФВ    тФВ    тФФтФАGroupNorm (gn)                         [128, 3072]               [128, 3072]               --                        6,144                     786,432
тФВ    тФВ    тФФтФАFlatten (1)                                      [128, 3072, 1, 1]         [128, 3072]               --                        --                        --
тФВ    тФВ    тФФтФАGroupedLinear (2)                                [128, 3072]               [128, 1600]               --                        308,800                   39,526,400
тФЬтФАChunkMerge (chunk_merge)                                   [128, 1600]               [128, 100]                --                        --                        --
=========================================================================================================================================================================================
Total params: 29,300,800
Trainable params: 29,300,800
Non-trainable params: 0
Total mult-adds (Units.GIGABYTES): 31.00
=========================================================================================================================================================================================
…
