…
=======================================================================================================================================================
Layer (type (var_name))                                      Input Shape               Output Shape              Kernel Shape              Param #                   Mult-Adds
=========================================================================================================================================================================================
EEWrapper (EEWrapper)                                        [128, 3, 32, 32]          [128, 100]                --                        --                        --
├─RepeatData (repeater)                                      [128, 3, 32, 32]          [128, 3072, 32, 32]       --                        --                        --
├─ConvNeXt (model)                                           [128, 3072, 32, 32]       [128, 102400]             --                        --                        --
│    └─Sequential (features)                                 [128, 3072, 32, 32]       [128, 24576, 4, 4]        --                        --                        --
│    │    └─Conv2dNormActivation (0)                         [128, 3072, 32, 32]       [128, 3072, 32, 32]       --                        --                        --
│    │    │    └─Conv2d (0)                                  [128, 3072, 32, 32]       [128, 3072, 32, 32]       [3, 3]                    86,016                    11,274,289,152
│    │    │    └─GroupNorm (1)                               [128, 3072, 32, 32]       [128, 3072, 32, 32]       --                        6,144                     786,432
│    │    └─Sequential (1)                                   [128, 3072, 32, 32]       [128, 3072, 32, 32]       --                        --                        --
│    │    │    └─CNBlock (0)                                 [128, 3072, 32, 32]       [128, 3072, 32, 32]       --                        3,072                     --
│    │    │    │    └─Sequential (block)                     [128, 3072, 32, 32]       [128, 3072, 32, 32]       --                        --                        --
│    │    │    │    │    └─Conv2d (0)                        [128, 3072, 32, 32]       [128, 3072, 32, 32]       [7, 7]                    153,600                   20,132,659,200
│    │    │    │    │    └─Permute (1)                       [128, 3072, 32, 32]       [128, 32, 32, 3072]       --                        --                        --
│    │    │    │    │    └─PermutedGroupNorm (2)             [128, 32, 32, 3072]       [128, 32, 32, 3072]       --                        --                        --
│    │    │    │    │    │    └─GroupNorm (gn)               [128, 3072, 32, 32]       [128, 3072, 32, 32]       --                        6,144                     786,432
│    │    │    │    │    └─GroupedLinear (3)                 [128, 32, 32, 3072]       [128, 32, 32, 12288]      --                        49,152                    6,291,456
│    │    │    │    │    └─GELU (4)                          [128, 32, 32, 12288]      [128, 32, 32, 12288]      --                        --                        --
│    │    │    │    │    └─GroupedLinear (5)                 [128, 32, 32, 12288]      [128, 32, 32, 3072]       --                        39,936                    5,111,808
│    │    │    │    │    └─Permute (6)                       [128, 32, 32, 3072]       [128, 3072, 32, 32]       --                        --                        --
│    │    │    │    └─StochasticDepth (stochastic_depth)     [128, 3072, 32, 32]       [128, 3072, 32, 32]       --                        --                        --
│    │    │    └─CNBlock (1)                                 [128, 3072, 32, 32]       [128, 3072, 32, 32]       --                        3,072                     --
│    │    │    │    └─Sequential (block)                     [128, 3072, 32, 32]       [128, 3072, 32, 32]       --                        --                        --
│    │    │    │    │    └─Conv2d (0)                        [128, 3072, 32, 32]       [128, 3072, 32, 32]       [7, 7]                    153,600                   20,132,659,200
│    │    │    │    │    └─Permute (1)                       [128, 3072, 32, 32]       [128, 32, 32, 3072]       --                        --                        --
│    │    │    │    │    └─PermutedGroupNorm (2)             [128, 32, 32, 3072]       [128, 32, 32, 3072]       --                        --                        --
│    │    │    │    │    │    └─GroupNorm (gn)               [128, 3072, 32, 32]       [128, 3072, 32, 32]       --                        6,144                     786,432
│    │    │    │    │    └─GroupedLinear (3)                 [128, 32, 32, 3072]       [128, 32, 32, 12288]      --                        49,152                    6,291,456
│    │    │    │    │    └─GELU (4)                          [128, 32, 32, 12288]      [128, 32, 32, 12288]      --                        --                        --
│    │    │    │    │    └─GroupedLinear (5)                 [128, 32, 32, 12288]      [128, 32, 32, 3072]       --                        39,936                    5,111,808
│    │    │    │    │    └─Permute (6)                       [128, 32, 32, 3072]       [128, 3072, 32, 32]       --                        --                        --
│    │    │    │    └─StochasticDepth (stochastic_depth)     [128, 3072, 32, 32]       [128, 3072, 32, 32]       --                        --                        --
│    │    │    └─CNBlock (2)                                 [128, 3072, 32, 32]       [128, 3072, 32, 32]       --                        3,072                     --
│    │    │    │    └─Sequential (block)                     [128, 3072, 32, 32]       [128, 3072, 32, 32]       --                        --                        --
│    │    │    │    │    └─Conv2d (0)                        [128, 3072, 32, 32]       [128, 3072, 32, 32]       [7, 7]                    153,600                   20,132,659,200
│    │    │    │    │    └─Permute (1)                       [128, 3072, 32, 32]       [128, 32, 32, 3072]       --                        --                        --
│    │    │    │    │    └─PermutedGroupNorm (2)             [128, 32, 32, 3072]       [128, 32, 32, 3072]       --                        --                        --
│    │    │    │    │    │    └─GroupNorm (gn)               [128, 3072, 32, 32]       [128, 3072, 32, 32]       --                        6,144                     786,432
│    │    │    │    │    └─GroupedLinear (3)                 [128, 32, 32, 3072]       [128, 32, 32, 12288]      --                        49,152                    6,291,456
│    │    │    │    │    └─GELU (4)                          [128, 32, 32, 12288]      [128, 32, 32, 12288]      --                        --                        --
│    │    │    │    │    └─GroupedLinear (5)                 [128, 32, 32, 12288]      [128, 32, 32, 3072]       --                        39,936                    5,111,808
│    │    │    │    │    └─Permute (6)                       [128, 32, 32, 3072]       [128, 3072, 32, 32]       --                        --                        --
│    │    │    │    └─StochasticDepth (stochastic_depth)     [128, 3072, 32, 32]       [128, 3072, 32, 32]       --                        --                        --
│    │    └─Sequential (2)                                   [128, 3072, 32, 32]       [128, 6144, 16, 16]       --                        --                        --
│    │    │    └─GroupNorm (0)                               [128, 3072, 32, 32]       [128, 3072, 32, 32]       --                        6,144                     786,432
│    │    │    └─Conv2d (1)                                  [128, 3072, 32, 32]       [128, 6144, 16, 16]       [2, 2]                    79,872                    2,617,245,696
│    │    └─Sequential (3)                                   [128, 6144, 16, 16]       [128, 6144, 16, 16]       --                        --                        --
│    │    │    └─CNBlock (0)                                 [128, 6144, 16, 16]       [128, 6144, 16, 16]       --                        6,144                     --
│    │    │    │    └─Sequential (block)                     [128, 6144, 16, 16]       [128, 6144, 16, 16]       --                        --                        --
│    │    │    │    │    └─Conv2d (0)                        [128, 6144, 16, 16]       [128, 6144, 16, 16]       [7, 7]                    307,200                   10,066,329,600
│    │    │    │    │    └─Permute (1)                       [128, 6144, 16, 16]       [128, 16, 16, 6144]       --                        --                        --
│    │    │    │    │    └─PermutedGroupNorm (2)             [128, 16, 16, 6144]       [128, 16, 16, 6144]       --                        --                        --
│    │    │    │    │    │    └─GroupNorm (gn)               [128, 6144, 16, 16]       [128, 6144, 16, 16]       --                        12,288                    1,572,864
│    │    │    │    │    └─GroupedLinear (3)                 [128, 16, 16, 6144]       [128, 16, 16, 24576]      --                        172,032                   22,020,096
│    │    │    │    │    └─GELU (4)                          [128, 16, 16, 24576]      [128, 16, 16, 24576]      --                        --                        --
│    │    │    │    │    └─GroupedLinear (5)                 [128, 16, 16, 24576]      [128, 16, 16, 6144]       --                        153,600                   19,660,800
│    │    │    │    │    └─Permute (6)                       [128, 16, 16, 6144]       [128, 6144, 16, 16]       --                        --                        --
│    │    │    │    └─StochasticDepth (stochastic_depth)     [128, 6144, 16, 16]       [128, 6144, 16, 16]       --                        --                        --
│    │    │    └─CNBlock (1)                                 [128, 6144, 16, 16]       [128, 6144, 16, 16]       --                        6,144                     --
│    │    │    │    └─Sequential (block)                     [128, 6144, 16, 16]       [128, 6144, 16, 16]       --                        --                        --
│    │    │    │    │    └─Conv2d (0)                        [128, 6144, 16, 16]       [128, 6144, 16, 16]       [7, 7]                    307,200                   10,066,329,600
│    │    │    │    │    └─Permute (1)                       [128, 6144, 16, 16]       [128, 16, 16, 6144]       --                        --                        --
│    │    │    │    │    └─PermutedGroupNorm (2)             [128, 16, 16, 6144]       [128, 16, 16, 6144]       --                        --                        --
│    │    │    │    │    │    └─GroupNorm (gn)               [128, 6144, 16, 16]       [128, 6144, 16, 16]       --                        12,288                    1,572,864
│    │    │    │    │    └─GroupedLinear (3)                 [128, 16, 16, 6144]       [128, 16, 16, 24576]      --                        172,032                   22,020,096
│    │    │    │    │    └─GELU (4)                          [128, 16, 16, 24576]      [128, 16, 16, 24576]      --                        --                        --
│    │    │    │    │    └─GroupedLinear (5)                 [128, 16, 16, 24576]      [128, 16, 16, 6144]       --                        153,600                   19,660,800
│    │    │    │    │    └─Permute (6)                       [128, 16, 16, 6144]       [128, 6144, 16, 16]       --                        --                        --
│    │    │    │    └─StochasticDepth (stochastic_depth)     [128, 6144, 16, 16]       [128, 6144, 16, 16]       --                        --                        --
│    │    │    └─CNBlock (2)                                 [128, 6144, 16, 16]       [128, 6144, 16, 16]       --                        6,144                     --
│    │    │    │    └─Sequential (block)                     [128, 6144, 16, 16]       [128, 6144, 16, 16]       --                        --                        --
│    │    │    │    │    └─Conv2d (0)                        [128, 6144, 16, 16]       [128, 6144, 16, 16]       [7, 7]                    307,200                   10,066,329,600
│    │    │    │    │    └─Permute (1)                       [128, 6144, 16, 16]       [128, 16, 16, 6144]       --                        --                        --
│    │    │    │    │    └─PermutedGroupNorm (2)             [128, 16, 16, 6144]       [128, 16, 16, 6144]       --                        --                        --
│    │    │    │    │    │    └─GroupNorm (gn)               [128, 6144, 16, 16]       [128, 6144, 16, 16]       --                        12,288                    1,572,864
│    │    │    │    │    └─GroupedLinear (3)                 [128, 16, 16, 6144]       [128, 16, 16, 24576]      --                        172,032                   22,020,096
│    │    │    │    │    └─GELU (4)                          [128, 16, 16, 24576]      [128, 16, 16, 24576]      --                        --                        --
│    │    │    │    │    └─GroupedLinear (5)                 [128, 16, 16, 24576]      [128, 16, 16, 6144]       --                        153,600                   19,660,800
│    │    │    │    │    └─Permute (6)                       [128, 16, 16, 6144]       [128, 6144, 16, 16]       --                        --                        --
│    │    │    │    └─StochasticDepth (stochastic_depth)     [128, 6144, 16, 16]       [128, 6144, 16, 16]       --                        --                        --
│    │    └─Sequential (4)                                   [128, 6144, 16, 16]       [128, 12288, 8, 8]        --                        --                        --
│    │    │    └─GroupNorm (0)                               [128, 6144, 16, 16]       [128, 6144, 16, 16]       --                        12,288                    1,572,864
│    │    │    └─Conv2d (1)                                  [128, 6144, 16, 16]       [128, 12288, 8, 8]        [2, 2]                    307,200                   2,516,582,400
│    │    └─Sequential (5)                                   [128, 12288, 8, 8]        [128, 12288, 8, 8]        --                        --                        --
│    │    │    └─CNBlock (0)                                 [128, 12288, 8, 8]        [128, 12288, 8, 8]        --                        12,288                    --
│    │    │    │    └─Sequential (block)                     [128, 12288, 8, 8]        [128, 12288, 8, 8]        --                        --                        --
│    │    │    │    │    └─Conv2d (0)                        [128, 12288, 8, 8]        [128, 12288, 8, 8]        [7, 7]                    614,400                   5,033,164,800
│    │    │    │    │    └─Permute (1)                       [128, 12288, 8, 8]        [128, 8, 8, 12288]        --                        --                        --
│    │    │    │    │    └─PermutedGroupNorm (2)             [128, 8, 8, 12288]        [128, 8, 8, 12288]        --                        --                        --
│    │    │    │    │    │    └─GroupNorm (gn)               [128, 12288, 8, 8]        [128, 12288, 8, 8]        --                        24,576                    3,145,728
│    │    │    │    │    └─GroupedLinear (3)                 [128, 8, 8, 12288]        [128, 8, 8, 49152]        --                        638,976                   81,788,928
│    │    │    │    │    └─GELU (4)                          [128, 8, 8, 49152]        [128, 8, 8, 49152]        --                        --                        --
│    │    │    │    │    └─GroupedLinear (5)                 [128, 8, 8, 49152]        [128, 8, 8, 12288]        --                        602,112                   77,070,336
│    │    │    │    │    └─Permute (6)                       [128, 8, 8, 12288]        [128, 12288, 8, 8]        --                        --                        --
│    │    │    │    └─StochasticDepth (stochastic_depth)     [128, 12288, 8, 8]        [128, 12288, 8, 8]        --                        --                        --
│    │    │    └─CNBlock (1)                                 [128, 12288, 8, 8]        [128, 12288, 8, 8]        --                        12,288                    --
│    │    │    │    └─Sequential (block)                     [128, 12288, 8, 8]        [128, 12288, 8, 8]        --                        --                        --
│    │    │    │    │    └─Conv2d (0)                        [128, 12288, 8, 8]        [128, 12288, 8, 8]        [7, 7]                    614,400                   5,033,164,800
│    │    │    │    │    └─Permute (1)                       [128, 12288, 8, 8]        [128, 8, 8, 12288]        --                        --                        --
│    │    │    │    │    └─PermutedGroupNorm (2)             [128, 8, 8, 12288]        [128, 8, 8, 12288]        --                        --                        --
│    │    │    │    │    │    └─GroupNorm (gn)               [128, 12288, 8, 8]        [128, 12288, 8, 8]        --                        24,576                    3,145,728
│    │    │    │    │    └─GroupedLinear (3)                 [128, 8, 8, 12288]        [128, 8, 8, 49152]        --                        638,976                   81,788,928
│    │    │    │    │    └─GELU (4)                          [128, 8, 8, 49152]        [128, 8, 8, 49152]        --                        --                        --
│    │    │    │    │    └─GroupedLinear (5)                 [128, 8, 8, 49152]        [128, 8, 8, 12288]        --                        602,112                   77,070,336
│    │    │    │    │    └─Permute (6)                       [128, 8, 8, 12288]        [128, 12288, 8, 8]        --                        --                        --
│    │    │    │    └─StochasticDepth (stochastic_depth)     [128, 12288, 8, 8]        [128, 12288, 8, 8]        --                        --                        --
│    │    │    └─CNBlock (2)                                 [128, 12288, 8, 8]        [128, 12288, 8, 8]        --                        12,288                    --
│    │    │    │    └─Sequential (block)                     [128, 12288, 8, 8]        [128, 12288, 8, 8]        --                        --                        --
│    │    │    │    │    └─Conv2d (0)                        [128, 12288, 8, 8]        [128, 12288, 8, 8]        [7, 7]                    614,400                   5,033,164,800
│    │    │    │    │    └─Permute (1)                       [128, 12288, 8, 8]        [128, 8, 8, 12288]        --                        --                        --
│    │    │    │    │    └─PermutedGroupNorm (2)             [128, 8, 8, 12288]        [128, 8, 8, 12288]        --                        --                        --
│    │    │    │    │    │    └─GroupNorm (gn)               [128, 12288, 8, 8]        [128, 12288, 8, 8]        --                        24,576                    3,145,728
│    │    │    │    │    └─GroupedLinear (3)                 [128, 8, 8, 12288]        [128, 8, 8, 49152]        --                        638,976                   81,788,928
│    │    │    │    │    └─GELU (4)                          [128, 8, 8, 49152]        [128, 8, 8, 49152]        --                        --                        --
│    │    │    │    │    └─GroupedLinear (5)                 [128, 8, 8, 49152]        [128, 8, 8, 12288]        --                        602,112                   77,070,336
│    │    │    │    │    └─Permute (6)                       [128, 8, 8, 12288]        [128, 12288, 8, 8]        --                        --                        --
│    │    │    │    └─StochasticDepth (stochastic_depth)     [128, 12288, 8, 8]        [128, 12288, 8, 8]        --                        --                        --
│    │    │    └─CNBlock (3)                                 [128, 12288, 8, 8]        [128, 12288, 8, 8]        --                        12,288                    --
│    │    │    │    └─Sequential (block)                     [128, 12288, 8, 8]        [128, 12288, 8, 8]        --                        --                        --
│    │    │    │    │    └─Conv2d (0)                        [128, 12288, 8, 8]        [128, 12288, 8, 8]        [7, 7]                    614,400                   5,033,164,800
│    │    │    │    │    └─Permute (1)                       [128, 12288, 8, 8]        [128, 8, 8, 12288]        --                        --                        --
│    │    │    │    │    └─PermutedGroupNorm (2)             [128, 8, 8, 12288]        [128, 8, 8, 12288]        --                        --                        --
│    │    │    │    │    │    └─GroupNorm (gn)               [128, 12288, 8, 8]        [128, 12288, 8, 8]        --                        24,576                    3,145,728
│    │    │    │    │    └─GroupedLinear (3)                 [128, 8, 8, 12288]        [128, 8, 8, 49152]        --                        638,976                   81,788,928
│    │    │    │    │    └─GELU (4)                          [128, 8, 8, 49152]        [128, 8, 8, 49152]        --                        --                        --
│    │    │    │    │    └─GroupedLinear (5)                 [128, 8, 8, 49152]        [128, 8, 8, 12288]        --                        602,112                   77,070,336
│    │    │    │    │    └─Permute (6)                       [128, 8, 8, 12288]        [128, 12288, 8, 8]        --                        --                        --
│    │    │    │    └─StochasticDepth (stochastic_depth)     [128, 12288, 8, 8]        [128, 12288, 8, 8]        --                        --                        --
│    │    │    └─CNBlock (4)                                 [128, 12288, 8, 8]        [128, 12288, 8, 8]        --                        12,288                    --
│    │    │    │    └─Sequential (block)                     [128, 12288, 8, 8]        [128, 12288, 8, 8]        --                        --                        --
│    │    │    │    │    └─Conv2d (0)                        [128, 12288, 8, 8]        [128, 12288, 8, 8]        [7, 7]                    614,400                   5,033,164,800
│    │    │    │    │    └─Permute (1)                       [128, 12288, 8, 8]        [128, 8, 8, 12288]        --                        --                        --
│    │    │    │    │    └─PermutedGroupNorm (2)             [128, 8, 8, 12288]        [128, 8, 8, 12288]        --                        --                        --
│    │    │    │    │    │    └─GroupNorm (gn)               [128, 12288, 8, 8]        [128, 12288, 8, 8]        --                        24,576                    3,145,728
│    │    │    │    │    └─GroupedLinear (3)                 [128, 8, 8, 12288]        [128, 8, 8, 49152]        --                        638,976                   81,788,928
│    │    │    │    │    └─GELU (4)                          [128, 8, 8, 49152]        [128, 8, 8, 49152]        --                        --                        --
│    │    │    │    │    └─GroupedLinear (5)                 [128, 8, 8, 49152]        [128, 8, 8, 12288]        --                        602,112                   77,070,336
│    │    │    │    │    └─Permute (6)                       [128, 8, 8, 12288]        [128, 12288, 8, 8]        --                        --                        --
│    │    │    │    └─StochasticDepth (stochastic_depth)     [128, 12288, 8, 8]        [128, 12288, 8, 8]        --                        --                        --
│    │    │    └─CNBlock (5)                                 [128, 12288, 8, 8]        [128, 12288, 8, 8]        --                        12,288                    --
│    │    │    │    └─Sequential (block)                     [128, 12288, 8, 8]        [128, 12288, 8, 8]        --                        --                        --
│    │    │    │    │    └─Conv2d (0)                        [128, 12288, 8, 8]        [128, 12288, 8, 8]        [7, 7]                    614,400                   5,033,164,800
│    │    │    │    │    └─Permute (1)                       [128, 12288, 8, 8]        [128, 8, 8, 12288]        --                        --                        --
│    │    │    │    │    └─PermutedGroupNorm (2)             [128, 8, 8, 12288]        [128, 8, 8, 12288]        --                        --                        --
│    │    │    │    │    │    └─GroupNorm (gn)               [128, 12288, 8, 8]        [128, 12288, 8, 8]        --                        24,576                    3,145,728
│    │    │    │    │    └─GroupedLinear (3)                 [128, 8, 8, 12288]        [128, 8, 8, 49152]        --                        638,976                   81,788,928
│    │    │    │    │    └─GELU (4)                          [128, 8, 8, 49152]        [128, 8, 8, 49152]        --                        --                        --
│    │    │    │    │    └─GroupedLinear (5)                 [128, 8, 8, 49152]        [128, 8, 8, 12288]        --                        602,112                   77,070,336
│    │    │    │    │    └─Permute (6)                       [128, 8, 8, 12288]        [128, 12288, 8, 8]        --                        --                        --
│    │    │    │    └─StochasticDepth (stochastic_depth)     [128, 12288, 8, 8]        [128, 12288, 8, 8]        --                        --                        --
│    │    │    └─CNBlock (6)                                 [128, 12288, 8, 8]        [128, 12288, 8, 8]        --                        12,288                    --
│    │    │    │    └─Sequential (block)                     [128, 12288, 8, 8]        [128, 12288, 8, 8]        --                        --                        --
│    │    │    │    │    └─Conv2d (0)                        [128, 12288, 8, 8]        [128, 12288, 8, 8]        [7, 7]                    614,400                   5,033,164,800
│    │    │    │    │    └─Permute (1)                       [128, 12288, 8, 8]        [128, 8, 8, 12288]        --                        --                        --
│    │    │    │    │    └─PermutedGroupNorm (2)             [128, 8, 8, 12288]        [128, 8, 8, 12288]        --                        --                        --
│    │    │    │    │    │    └─GroupNorm (gn)               [128, 12288, 8, 8]        [128, 12288, 8, 8]        --                        24,576                    3,145,728
│    │    │    │    │    └─GroupedLinear (3)                 [128, 8, 8, 12288]        [128, 8, 8, 49152]        --                        638,976                   81,788,928
│    │    │    │    │    └─GELU (4)                          [128, 8, 8, 49152]        [128, 8, 8, 49152]        --                        --                        --
│    │    │    │    │    └─GroupedLinear (5)                 [128, 8, 8, 49152]        [128, 8, 8, 12288]        --                        602,112                   77,070,336
│    │    │    │    │    └─Permute (6)                       [128, 8, 8, 12288]        [128, 12288, 8, 8]        --                        --                        --
│    │    │    │    └─StochasticDepth (stochastic_depth)     [128, 12288, 8, 8]        [128, 12288, 8, 8]        --                        --                        --
│    │    │    └─CNBlock (7)                                 [128, 12288, 8, 8]        [128, 12288, 8, 8]        --                        12,288                    --
│    │    │    │    └─Sequential (block)                     [128, 12288, 8, 8]        [128, 12288, 8, 8]        --                        --                        --
│    │    │    │    │    └─Conv2d (0)                        [128, 12288, 8, 8]        [128, 12288, 8, 8]        [7, 7]                    614,400                   5,033,164,800
│    │    │    │    │    └─Permute (1)                       [128, 12288, 8, 8]        [128, 8, 8, 12288]        --                        --                        --
│    │    │    │    │    └─PermutedGroupNorm (2)             [128, 8, 8, 12288]        [128, 8, 8, 12288]        --                        --                        --
│    │    │    │    │    │    └─GroupNorm (gn)               [128, 12288, 8, 8]        [128, 12288, 8, 8]        --                        24,576                    3,145,728
│    │    │    │    │    └─GroupedLinear (3)                 [128, 8, 8, 12288]        [128, 8, 8, 49152]        --                        638,976                   81,788,928
│    │    │    │    │    └─GELU (4)                          [128, 8, 8, 49152]        [128, 8, 8, 49152]        --                        --                        --
│    │    │    │    │    └─GroupedLinear (5)                 [128, 8, 8, 49152]        [128, 8, 8, 12288]        --                        602,112                   77,070,336
│    │    │    │    │    └─Permute (6)                       [128, 8, 8, 12288]        [128, 12288, 8, 8]        --                        --                        --
│    │    │    │    └─StochasticDepth (stochastic_depth)     [128, 12288, 8, 8]        [128, 12288, 8, 8]        --                        --                        --
│    │    │    └─CNBlock (8)                                 [128, 12288, 8, 8]        [128, 12288, 8, 8]        --                        12,288                    --
│    │    │    │    └─Sequential (block)                     [128, 12288, 8, 8]        [128, 12288, 8, 8]        --                        --                        --
│    │    │    │    │    └─Conv2d (0)                        [128, 12288, 8, 8]        [128, 12288, 8, 8]        [7, 7]                    614,400                   5,033,164,800
│    │    │    │    │    └─Permute (1)                       [128, 12288, 8, 8]        [128, 8, 8, 12288]        --                        --                        --
│    │    │    │    │    └─PermutedGroupNorm (2)             [128, 8, 8, 12288]        [128, 8, 8, 12288]        --                        --                        --
│    │    │    │    │    │    └─GroupNorm (gn)               [128, 12288, 8, 8]        [128, 12288, 8, 8]        --                        24,576                    3,145,728
│    │    │    │    │    └─GroupedLinear (3)                 [128, 8, 8, 12288]        [128, 8, 8, 49152]        --                        638,976                   81,788,928
│    │    │    │    │    └─GELU (4)                          [128, 8, 8, 49152]        [128, 8, 8, 49152]        --                        --                        --
│    │    │    │    │    └─GroupedLinear (5)                 [128, 8, 8, 49152]        [128, 8, 8, 12288]        --                        602,112                   77,070,336
│    │    │    │    │    └─Permute (6)                       [128, 8, 8, 12288]        [128, 12288, 8, 8]        --                        --                        --
│    │    │    │    └─StochasticDepth (stochastic_depth)     [128, 12288, 8, 8]        [128, 12288, 8, 8]        --                        --                        --
│    │    └─Sequential (6)                                   [128, 12288, 8, 8]        [128, 24576, 4, 4]        --                        --                        --
│    │    │    └─GroupNorm (0)                               [128, 12288, 8, 8]        [128, 12288, 8, 8]        --                        24,576                    3,145,728
│    │    │    └─Conv2d (1)                                  [128, 12288, 8, 8]        [128, 24576, 4, 4]        [2, 2]                    1,204,224                 2,466,250,752
│    │    └─Sequential (7)                                   [128, 24576, 4, 4]        [128, 24576, 4, 4]        --                        --                        --
│    │    │    └─CNBlock (0)                                 [128, 24576, 4, 4]        [128, 24576, 4, 4]        --                        24,576                    --
│    │    │    │    └─Sequential (block)                     [128, 24576, 4, 4]        [128, 24576, 4, 4]        --                        --                        --
│    │    │    │    │    └─Conv2d (0)                        [128, 24576, 4, 4]        [128, 24576, 4, 4]        [7, 7]                    1,228,800                 2,516,582,400
│    │    │    │    │    └─Permute (1)                       [128, 24576, 4, 4]        [128, 4, 4, 24576]        --                        --                        --
│    │    │    │    │    └─PermutedGroupNorm (2)             [128, 4, 4, 24576]        [128, 4, 4, 24576]        --                        --                        --
│    │    │    │    │    │    └─GroupNorm (gn)               [128, 24576, 4, 4]        [128, 24576, 4, 4]        --                        49,152                    6,291,456
│    │    │    │    │    └─GroupedLinear (3)                 [128, 4, 4, 24576]        [128, 4, 4, 98304]        --                        2,457,600                 314,572,800
│    │    │    │    │    └─GELU (4)                          [128, 4, 4, 98304]        [128, 4, 4, 98304]        --                        --                        --
│    │    │    │    │    └─GroupedLinear (5)                 [128, 4, 4, 98304]        [128, 4, 4, 24576]        --                        2,383,872                 305,135,616
│    │    │    │    │    └─Permute (6)                       [128, 4, 4, 24576]        [128, 24576, 4, 4]        --                        --                        --
│    │    │    │    └─StochasticDepth (stochastic_depth)     [128, 24576, 4, 4]        [128, 24576, 4, 4]        --                        --                        --
│    │    │    └─CNBlock (1)                                 [128, 24576, 4, 4]        [128, 24576, 4, 4]        --                        24,576                    --
│    │    │    │    └─Sequential (block)                     [128, 24576, 4, 4]        [128, 24576, 4, 4]        --                        --                        --
│    │    │    │    │    └─Conv2d (0)                        [128, 24576, 4, 4]        [128, 24576, 4, 4]        [7, 7]                    1,228,800                 2,516,582,400
│    │    │    │    │    └─Permute (1)                       [128, 24576, 4, 4]        [128, 4, 4, 24576]        --                        --                        --
│    │    │    │    │    └─PermutedGroupNorm (2)             [128, 4, 4, 24576]        [128, 4, 4, 24576]        --                        --                        --
│    │    │    │    │    │    └─GroupNorm (gn)               [128, 24576, 4, 4]        [128, 24576, 4, 4]        --                        49,152                    6,291,456
│    │    │    │    │    └─GroupedLinear (3)                 [128, 4, 4, 24576]        [128, 4, 4, 98304]        --                        2,457,600                 314,572,800
│    │    │    │    │    └─GELU (4)                          [128, 4, 4, 98304]        [128, 4, 4, 98304]        --                        --                        --
│    │    │    │    │    └─GroupedLinear (5)                 [128, 4, 4, 98304]        [128, 4, 4, 24576]        --                        2,383,872                 305,135,616
│    │    │    │    │    └─Permute (6)                       [128, 4, 4, 24576]        [128, 24576, 4, 4]        --                        --                        --
│    │    │    │    └─StochasticDepth (stochastic_depth)     [128, 24576, 4, 4]        [128, 24576, 4, 4]        --                        --                        --
│    │    │    └─CNBlock (2)                                 [128, 24576, 4, 4]        [128, 24576, 4, 4]        --                        24,576                    --
│    │    │    │    └─Sequential (block)                     [128, 24576, 4, 4]        [128, 24576, 4, 4]        --                        --                        --
│    │    │    │    │    └─Conv2d (0)                        [128, 24576, 4, 4]        [128, 24576, 4, 4]        [7, 7]                    1,228,800                 2,516,582,400
│    │    │    │    │    └─Permute (1)                       [128, 24576, 4, 4]        [128, 4, 4, 24576]        --                        --                        --
│    │    │    │    │    └─PermutedGroupNorm (2)             [128, 4, 4, 24576]        [128, 4, 4, 24576]        --                        --                        --
│    │    │    │    │    │    └─GroupNorm (gn)               [128, 24576, 4, 4]        [128, 24576, 4, 4]        --                        49,152                    6,291,456
│    │    │    │    │    └─GroupedLinear (3)                 [128, 4, 4, 24576]        [128, 4, 4, 98304]        --                        2,457,600                 314,572,800
│    │    │    │    │    └─GELU (4)                          [128, 4, 4, 98304]        [128, 4, 4, 98304]        --                        --                        --
│    │    │    │    │    └─GroupedLinear (5)                 [128, 4, 4, 98304]        [128, 4, 4, 24576]        --                        2,383,872                 305,135,616
│    │    │    │    │    └─Permute (6)                       [128, 4, 4, 24576]        [128, 24576, 4, 4]        --                        --                        --
│    │    │    │    └─StochasticDepth (stochastic_depth)     [128, 24576, 4, 4]        [128, 24576, 4, 4]        --                        --                        --
│    └─AdaptiveAvgPool2d (avgpool)                           [128, 24576, 4, 4]        [128, 24576, 1, 1]        --                        --                        --
│    └─Sequential (classifier)                               [128, 24576, 1, 1]        [128, 102400]             --                        --                        --
│    │    └─GroupNorm (0)                                    [128, 24576, 1, 1]        [128, 24576, 1, 1]        --                        49,152                    6,291,456
│    │    └─Flatten (1)                                      [128, 24576, 1, 1]        [128, 24576]              --                        --                        --
│    │    └─GroupedLinear (2)                                [128, 24576]              [128, 102400]             --                        2,560,000                 327,680,000
├─ChunkMerge (chunk_merge)                                   [128, 102400]             [128, 100]                --                        --                        --
=========================================================================================================================================================================================
Total params: 42,508,288
Trainable params: 42,508,288
Non-trainable params: 0
Total mult-adds (Units.GIGABYTES): 166.16
=========================================================================================================================================================================================
…
