…
=======================================================================================================================================================
Layer (type (var_name))                                      Input Shape               Output Shape              Kernel Shape              Param #                   Mult-Adds
=========================================================================================================================================================================================
EEWrapper (EEWrapper)                                        [128, 3, 32, 32]          [128, 100]                --                        --                        --
тФЬтФАRepeatData (repeater)                                      [128, 3, 32, 32]          [128, 12, 32, 32]         --                        --                        --
тФЬтФАConvNeXt (model)                                           [128, 12, 32, 32]         [128, 400]                --                        --                        --
тФВ    тФФтФАSequential (features)                                 [128, 12, 32, 32]         [128, 1536, 4, 4]         --                        --                        --
тФВ    тФВ    тФФтФАConv2dNormActivation (0)                         [128, 12, 32, 32]         [128, 192, 32, 32]        --                        --                        --
тФВ    тФВ    тФВ    тФФтФАConv2d (0)                                  [128, 12, 32, 32]         [128, 192, 32, 32]        [3, 3]                    5,376                     704,643,072
тФВ    тФВ    тФВ    тФФтФАGroupedLayerNorm2d (1)                      [128, 192, 32, 32]        [128, 192, 32, 32]        --                        --                        --
тФВ    тФВ    тФВ    тФВ    тФФтФАGroupedLayerNorm (layer)               [128, 32, 32, 192]        [128, 32, 32, 192]        --                        --                        --
тФВ    тФВ    тФВ    тФВ    тФВ    тФФтФАGroupNorm (gn)                    [131072, 192]             [131072, 192]             --                        384                       50,331,648
тФВ    тФВ    тФФтФАSequential (1)                                   [128, 192, 32, 32]        [128, 192, 32, 32]        --                        --                        --
тФВ    тФВ    тФВ    тФФтФАCNBlock (0)                                 [128, 192, 32, 32]        [128, 192, 32, 32]        --                        192                       --
тФВ    тФВ    тФВ    тФВ    тФФтФАSequential (block)                     [128, 192, 32, 32]        [128, 192, 32, 32]        --                        --                        --
тФВ    тФВ    тФВ    тФВ    тФВ    тФФтФАConv2d (0)                        [128, 192, 32, 32]        [128, 192, 32, 32]        [7, 7]                    9,600                     1,258,291,200
тФВ    тФВ    тФВ    тФВ    тФВ    тФФтФАPermute (1)                       [128, 192, 32, 32]        [128, 32, 32, 192]        --                        --                        --
тФВ    тФВ    тФВ    тФВ    тФВ    тФФтФАGroupedLayerNorm (2)              [128, 32, 32, 192]        [128, 32, 32, 192]        --                        --                        --
тФВ    тФВ    тФВ    тФВ    тФВ    тФВ    тФФтФАGroupNorm (gn)               [131072, 192]             [131072, 192]             --                        384                       50,331,648
тФВ    тФВ    тФВ    тФВ    тФВ    тФФтФАGroupedLinear (3)                 [128, 32, 32, 192]        [128, 32, 32, 768]        --                        37,632                    4,816,896
тФВ    тФВ    тФВ    тФВ    тФВ    тФФтФАGELU (4)                          [128, 32, 32, 768]        [128, 32, 32, 768]        --                        --                        --
тФВ    тФВ    тФВ    тФВ    тФВ    тФФтФАGroupedLinear (5)                 [128, 32, 32, 768]        [128, 32, 32, 192]        --                        37,056                    4,743,168
тФВ    тФВ    тФВ    тФВ    тФВ    тФФтФАPermute (6)                       [128, 32, 32, 192]        [128, 192, 32, 32]        --                        --                        --
тФВ    тФВ    тФВ    тФВ    тФФтФАStochasticDepth (stochastic_depth)     [128, 192, 32, 32]        [128, 192, 32, 32]        --                        --                        --
тФВ    тФВ    тФВ    тФФтФАCNBlock (1)                                 [128, 192, 32, 32]        [128, 192, 32, 32]        --                        192                       --
тФВ    тФВ    тФВ    тФВ    тФФтФАSequential (block)                     [128, 192, 32, 32]        [128, 192, 32, 32]        --                        --                        --
тФВ    тФВ    тФВ    тФВ    тФВ    тФФтФАConv2d (0)                        [128, 192, 32, 32]        [128, 192, 32, 32]        [7, 7]                    9,600                     1,258,291,200
тФВ    тФВ    тФВ    тФВ    тФВ    тФФтФАPermute (1)                       [128, 192, 32, 32]        [128, 32, 32, 192]        --                        --                        --
тФВ    тФВ    тФВ    тФВ    тФВ    тФФтФАGroupedLayerNorm (2)              [128, 32, 32, 192]        [128, 32, 32, 192]        --                        --                        --
тФВ    тФВ    тФВ    тФВ    тФВ    тФВ    тФФтФАGroupNorm (gn)               [131072, 192]             [131072, 192]             --                        384                       50,331,648
тФВ    тФВ    тФВ    тФВ    тФВ    тФФтФАGroupedLinear (3)                 [128, 32, 32, 192]        [128, 32, 32, 768]        --                        37,632                    4,816,896
тФВ    тФВ    тФВ    тФВ    тФВ    тФФтФАGELU (4)                          [128, 32, 32, 768]        [128, 32, 32, 768]        --                        --                        --
тФВ    тФВ    тФВ    тФВ    тФВ    тФФтФАGroupedLinear (5)                 [128, 32, 32, 768]        [128, 32, 32, 192]        --                        37,056                    4,743,168
тФВ    тФВ    тФВ    тФВ    тФВ    тФФтФАPermute (6)                       [128, 32, 32, 192]        [128, 192, 32, 32]        --                        --                        --
тФВ    тФВ    тФВ    тФВ    тФФтФАStochasticDepth (stochastic_depth)     [128, 192, 32, 32]        [128, 192, 32, 32]        --                        --                        --
тФВ    тФВ    тФВ    тФФтФАCNBlock (2)                                 [128, 192, 32, 32]        [128, 192, 32, 32]        --                        192                       --
тФВ    тФВ    тФВ    тФВ    тФФтФАSequential (block)                     [128, 192, 32, 32]        [128, 192, 32, 32]        --                        --                        --
тФВ    тФВ    тФВ    тФВ    тФВ    тФФтФАConv2d (0)                        [128, 192, 32, 32]        [128, 192, 32, 32]        [7, 7]                    9,600                     1,258,291,200
тФВ    тФВ    тФВ    тФВ    тФВ    тФФтФАPermute (1)                       [128, 192, 32, 32]        [128, 32, 32, 192]        --                        --                        --
тФВ    тФВ    тФВ    тФВ    тФВ    тФФтФАGroupedLayerNorm (2)              [128, 32, 32, 192]        [128, 32, 32, 192]        --                        --                        --
тФВ    тФВ    тФВ    тФВ    тФВ    тФВ    тФФтФАGroupNorm (gn)               [131072, 192]             [131072, 192]             --                        384                       50,331,648
тФВ    тФВ    тФВ    тФВ    тФВ    тФФтФАGroupedLinear (3)                 [128, 32, 32, 192]        [128, 32, 32, 768]        --                        37,632                    4,816,896
тФВ    тФВ    тФВ    тФВ    тФВ    тФФтФАGELU (4)                          [128, 32, 32, 768]        [128, 32, 32, 768]        --                        --                        --
тФВ    тФВ    тФВ    тФВ    тФВ    тФФтФАGroupedLinear (5)                 [128, 32, 32, 768]        [128, 32, 32, 192]        --                        37,056                    4,743,168
тФВ    тФВ    тФВ    тФВ    тФВ    тФФтФАPermute (6)                       [128, 32, 32, 192]        [128, 192, 32, 32]        --                        --                        --
тФВ    тФВ    тФВ    тФВ    тФФтФАStochasticDepth (stochastic_depth)     [128, 192, 32, 32]        [128, 192, 32, 32]        --                        --                        --
тФВ    тФВ    тФФтФАSequential (2)                                   [128, 192, 32, 32]        [128, 384, 16, 16]        --                        --                        --
тФВ    тФВ    тФВ    тФФтФАGroupedLayerNorm2d (0)                      [128, 192, 32, 32]        [128, 192, 32, 32]        --                        --                        --
тФВ    тФВ    тФВ    тФВ    тФФтФАGroupedLayerNorm (layer)               [128, 32, 32, 192]        [128, 32, 32, 192]        --                        --                        --
тФВ    тФВ    тФВ    тФВ    тФВ    тФФтФАGroupNorm (gn)                    [131072, 192]             [131072, 192]             --                        384                       50,331,648
тФВ    тФВ    тФВ    тФФтФАConv2d (1)                                  [128, 192, 32, 32]        [128, 384, 16, 16]        [2, 2]                    74,112                    2,428,502,016
тФВ    тФВ    тФФтФАSequential (3)                                   [128, 384, 16, 16]        [128, 384, 16, 16]        --                        --                        --
тФВ    тФВ    тФВ    тФФтФАCNBlock (0)                                 [128, 384, 16, 16]        [128, 384, 16, 16]        --                        384                       --
тФВ    тФВ    тФВ    тФВ    тФФтФАSequential (block)                     [128, 384, 16, 16]        [128, 384, 16, 16]        --                        --                        --
тФВ    тФВ    тФВ    тФВ    тФВ    тФФтФАConv2d (0)                        [128, 384, 16, 16]        [128, 384, 16, 16]        [7, 7]                    19,200                    629,145,600
тФВ    тФВ    тФВ    тФВ    тФВ    тФФтФАPermute (1)                       [128, 384, 16, 16]        [128, 16, 16, 384]        --                        --                        --
тФВ    тФВ    тФВ    тФВ    тФВ    тФФтФАGroupedLayerNorm (2)              [128, 16, 16, 384]        [128, 16, 16, 384]        --                        --                        --
тФВ    тФВ    тФВ    тФВ    тФВ    тФВ    тФФтФАGroupNorm (gn)               [32768, 384]              [32768, 384]              --                        768                       25,165,824
тФВ    тФВ    тФВ    тФВ    тФВ    тФФтФАGroupedLinear (3)                 [128, 16, 16, 384]        [128, 16, 16, 1536]       --                        148,992                   19,070,976
тФВ    тФВ    тФВ    тФВ    тФВ    тФФтФАGELU (4)                          [128, 16, 16, 1536]       [128, 16, 16, 1536]       --                        --                        --
тФВ    тФВ    тФВ    тФВ    тФВ    тФФтФАGroupedLinear (5)                 [128, 16, 16, 1536]       [128, 16, 16, 384]        --                        147,840                   18,923,520
тФВ    тФВ    тФВ    тФВ    тФВ    тФФтФАPermute (6)                       [128, 16, 16, 384]        [128, 384, 16, 16]        --                        --                        --
тФВ    тФВ    тФВ    тФВ    тФФтФАStochasticDepth (stochastic_depth)     [128, 384, 16, 16]        [128, 384, 16, 16]        --                        --                        --
тФВ    тФВ    тФВ    тФФтФАCNBlock (1)                                 [128, 384, 16, 16]        [128, 384, 16, 16]        --                        384                       --
тФВ    тФВ    тФВ    тФВ    тФФтФАSequential (block)                     [128, 384, 16, 16]        [128, 384, 16, 16]        --                        --                        --
тФВ    тФВ    тФВ    тФВ    тФВ    тФФтФАConv2d (0)                        [128, 384, 16, 16]        [128, 384, 16, 16]        [7, 7]                    19,200                    629,145,600
тФВ    тФВ    тФВ    тФВ    тФВ    тФФтФАPermute (1)                       [128, 384, 16, 16]        [128, 16, 16, 384]        --                        --                        --
тФВ    тФВ    тФВ    тФВ    тФВ    тФФтФАGroupedLayerNorm (2)              [128, 16, 16, 384]        [128, 16, 16, 384]        --                        --                        --
тФВ    тФВ    тФВ    тФВ    тФВ    тФВ    тФФтФАGroupNorm (gn)               [32768, 384]              [32768, 384]              --                        768                       25,165,824
тФВ    тФВ    тФВ    тФВ    тФВ    тФФтФАGroupedLinear (3)                 [128, 16, 16, 384]        [128, 16, 16, 1536]       --                        148,992                   19,070,976
тФВ    тФВ    тФВ    тФВ    тФВ    тФФтФАGELU (4)                          [128, 16, 16, 1536]       [128, 16, 16, 1536]       --                        --                        --
тФВ    тФВ    тФВ    тФВ    тФВ    тФФтФАGroupedLinear (5)                 [128, 16, 16, 1536]       [128, 16, 16, 384]        --                        147,840                   18,923,520
тФВ    тФВ    тФВ    тФВ    тФВ    тФФтФАPermute (6)                       [128, 16, 16, 384]        [128, 384, 16, 16]        --                        --                        --
тФВ    тФВ    тФВ    тФВ    тФФтФАStochasticDepth (stochastic_depth)     [128, 384, 16, 16]        [128, 384, 16, 16]        --                        --                        --
тФВ    тФВ    тФВ    тФФтФАCNBlock (2)                                 [128, 384, 16, 16]        [128, 384, 16, 16]        --                        384                       --
тФВ    тФВ    тФВ    тФВ    тФФтФАSequential (block)                     [128, 384, 16, 16]        [128, 384, 16, 16]        --                        --                        --
тФВ    тФВ    тФВ    тФВ    тФВ    тФФтФАConv2d (0)                        [128, 384, 16, 16]        [128, 384, 16, 16]        [7, 7]                    19,200                    629,145,600
тФВ    тФВ    тФВ    тФВ    тФВ    тФФтФАPermute (1)                       [128, 384, 16, 16]        [128, 16, 16, 384]        --                        --                        --
тФВ    тФВ    тФВ    тФВ    тФВ    тФФтФАGroupedLayerNorm (2)              [128, 16, 16, 384]        [128, 16, 16, 384]        --                        --                        --
тФВ    тФВ    тФВ    тФВ    тФВ    тФВ    тФФтФАGroupNorm (gn)               [32768, 384]              [32768, 384]              --                        768                       25,165,824
тФВ    тФВ    тФВ    тФВ    тФВ    тФФтФАGroupedLinear (3)                 [128, 16, 16, 384]        [128, 16, 16, 1536]       --                        148,992                   19,070,976
тФВ    тФВ    тФВ    тФВ    тФВ    тФФтФАGELU (4)                          [128, 16, 16, 1536]       [128, 16, 16, 1536]       --                        --                        --
тФВ    тФВ    тФВ    тФВ    тФВ    тФФтФАGroupedLinear (5)                 [128, 16, 16, 1536]       [128, 16, 16, 384]        --                        147,840                   18,923,520
тФВ    тФВ    тФВ    тФВ    тФВ    тФФтФАPermute (6)                       [128, 16, 16, 384]        [128, 384, 16, 16]        --                        --                        --
тФВ    тФВ    тФВ    тФВ    тФФтФАStochasticDepth (stochastic_depth)     [128, 384, 16, 16]        [128, 384, 16, 16]        --                        --                        --
тФВ    тФВ    тФФтФАSequential (4)                                   [128, 384, 16, 16]        [128, 768, 8, 8]          --                        --                        --
тФВ    тФВ    тФВ    тФФтФАGroupedLayerNorm2d (0)                      [128, 384, 16, 16]        [128, 384, 16, 16]        --                        --                        --
тФВ    тФВ    тФВ    тФВ    тФФтФАGroupedLayerNorm (layer)               [128, 16, 16, 384]        [128, 16, 16, 384]        --                        --                        --
тФВ    тФВ    тФВ    тФВ    тФВ    тФФтФАGroupNorm (gn)                    [32768, 384]              [32768, 384]              --                        768                       25,165,824
тФВ    тФВ    тФВ    тФФтФАConv2d (1)                                  [128, 384, 16, 16]        [128, 768, 8, 8]          [2, 2]                    295,680                   2,422,210,560
тФВ    тФВ    тФФтФАSequential (5)                                   [128, 768, 8, 8]          [128, 768, 8, 8]          --                        --                        --
тФВ    тФВ    тФВ    тФФтФАCNBlock (0)                                 [128, 768, 8, 8]          [128, 768, 8, 8]          --                        768                       --
тФВ    тФВ    тФВ    тФВ    тФФтФАSequential (block)                     [128, 768, 8, 8]          [128, 768, 8, 8]          --                        --                        --
тФВ    тФВ    тФВ    тФВ    тФВ    тФФтФАConv2d (0)                        [128, 768, 8, 8]          [128, 768, 8, 8]          [7, 7]                    38,400                    314,572,800
тФВ    тФВ    тФВ    тФВ    тФВ    тФФтФАPermute (1)                       [128, 768, 8, 8]          [128, 8, 8, 768]          --                        --                        --
тФВ    тФВ    тФВ    тФВ    тФВ    тФФтФАGroupedLayerNorm (2)              [128, 8, 8, 768]          [128, 8, 8, 768]          --                        --                        --
тФВ    тФВ    тФВ    тФВ    тФВ    тФВ    тФФтФАGroupNorm (gn)               [8192, 768]               [8192, 768]               --                        1,536                     12,582,912
тФВ    тФВ    тФВ    тФВ    тФВ    тФФтФАGroupedLinear (3)                 [128, 8, 8, 768]          [128, 8, 8, 3072]         --                        592,896                   75,890,688
тФВ    тФВ    тФВ    тФВ    тФВ    тФФтФАGELU (4)                          [128, 8, 8, 3072]         [128, 8, 8, 3072]         --                        --                        --
тФВ    тФВ    тФВ    тФВ    тФВ    тФФтФАGroupedLinear (5)                 [128, 8, 8, 3072]         [128, 8, 8, 768]          --                        590,592                   75,595,776
тФВ    тФВ    тФВ    тФВ    тФВ    тФФтФАPermute (6)                       [128, 8, 8, 768]          [128, 768, 8, 8]          --                        --                        --
тФВ    тФВ    тФВ    тФВ    тФФтФАStochasticDepth (stochastic_depth)     [128, 768, 8, 8]          [128, 768, 8, 8]          --                        --                        --
тФВ    тФВ    тФВ    тФФтФАCNBlock (1)                                 [128, 768, 8, 8]          [128, 768, 8, 8]          --                        768                       --
тФВ    тФВ    тФВ    тФВ    тФФтФАSequential (block)                     [128, 768, 8, 8]          [128, 768, 8, 8]          --                        --                        --
тФВ    тФВ    тФВ    тФВ    тФВ    тФФтФАConv2d (0)                        [128, 768, 8, 8]          [128, 768, 8, 8]          [7, 7]                    38,400                    314,572,800
тФВ    тФВ    тФВ    тФВ    тФВ    тФФтФАPermute (1)                       [128, 768, 8, 8]          [128, 8, 8, 768]          --                        --                        --
тФВ    тФВ    тФВ    тФВ    тФВ    тФФтФАGroupedLayerNorm (2)              [128, 8, 8, 768]          [128, 8, 8, 768]          --                        --                        --
тФВ    тФВ    тФВ    тФВ    тФВ    тФВ    тФФтФАGroupNorm (gn)               [8192, 768]               [8192, 768]               --                        1,536                     12,582,912
тФВ    тФВ    тФВ    тФВ    тФВ    тФФтФАGroupedLinear (3)                 [128, 8, 8, 768]          [128, 8, 8, 3072]         --                        592,896                   75,890,688
тФВ    тФВ    тФВ    тФВ    тФВ    тФФтФАGELU (4)                          [128, 8, 8, 3072]         [128, 8, 8, 3072]         --                        --                        --
тФВ    тФВ    тФВ    тФВ    тФВ    тФФтФАGroupedLinear (5)                 [128, 8, 8, 3072]         [128, 8, 8, 768]          --                        590,592                   75,595,776
тФВ    тФВ    тФВ    тФВ    тФВ    тФФтФАPermute (6)                       [128, 8, 8, 768]          [128, 768, 8, 8]          --                        --                        --
тФВ    тФВ    тФВ    тФВ    тФФтФАStochasticDepth (stochastic_depth)     [128, 768, 8, 8]          [128, 768, 8, 8]          --                        --                        --
тФВ    тФВ    тФВ    тФФтФАCNBlock (2)                                 [128, 768, 8, 8]          [128, 768, 8, 8]          --                        768                       --
тФВ    тФВ    тФВ    тФВ    тФФтФАSequential (block)                     [128, 768, 8, 8]          [128, 768, 8, 8]          --                        --                        --
тФВ    тФВ    тФВ    тФВ    тФВ    тФФтФАConv2d (0)                        [128, 768, 8, 8]          [128, 768, 8, 8]          [7, 7]                    38,400                    314,572,800
тФВ    тФВ    тФВ    тФВ    тФВ    тФФтФАPermute (1)                       [128, 768, 8, 8]          [128, 8, 8, 768]          --                        --                        --
тФВ    тФВ    тФВ    тФВ    тФВ    тФФтФАGroupedLayerNorm (2)              [128, 8, 8, 768]          [128, 8, 8, 768]          --                        --                        --
тФВ    тФВ    тФВ    тФВ    тФВ    тФВ    тФФтФАGroupNorm (gn)               [8192, 768]               [8192, 768]               --                        1,536                     12,582,912
тФВ    тФВ    тФВ    тФВ    тФВ    тФФтФАGroupedLinear (3)                 [128, 8, 8, 768]          [128, 8, 8, 3072]         --                        592,896                   75,890,688
тФВ    тФВ    тФВ    тФВ    тФВ    тФФтФАGELU (4)                          [128, 8, 8, 3072]         [128, 8, 8, 3072]         --                        --                        --
тФВ    тФВ    тФВ    тФВ    тФВ    тФФтФАGroupedLinear (5)                 [128, 8, 8, 3072]         [128, 8, 8, 768]          --                        590,592                   75,595,776
тФВ    тФВ    тФВ    тФВ    тФВ    тФФтФАPermute (6)                       [128, 8, 8, 768]          [128, 768, 8, 8]          --                        --                        --
тФВ    тФВ    тФВ    тФВ    тФФтФАStochasticDepth (stochastic_depth)     [128, 768, 8, 8]          [128, 768, 8, 8]          --                        --                        --
тФВ    тФВ    тФВ    тФФтФАCNBlock (3)                                 [128, 768, 8, 8]          [128, 768, 8, 8]          --                        768                       --
тФВ    тФВ    тФВ    тФВ    тФФтФАSequential (block)                     [128, 768, 8, 8]          [128, 768, 8, 8]          --                        --                        --
тФВ    тФВ    тФВ    тФВ    тФВ    тФФтФАConv2d (0)                        [128, 768, 8, 8]          [128, 768, 8, 8]          [7, 7]                    38,400                    314,572,800
тФВ    тФВ    тФВ    тФВ    тФВ    тФФтФАPermute (1)                       [128, 768, 8, 8]          [128, 8, 8, 768]          --                        --                        --
тФВ    тФВ    тФВ    тФВ    тФВ    тФФтФАGroupedLayerNorm (2)              [128, 8, 8, 768]          [128, 8, 8, 768]          --                        --                        --
тФВ    тФВ    тФВ    тФВ    тФВ    тФВ    тФФтФАGroupNorm (gn)               [8192, 768]               [8192, 768]               --                        1,536                     12,582,912
тФВ    тФВ    тФВ    тФВ    тФВ    тФФтФАGroupedLinear (3)                 [128, 8, 8, 768]          [128, 8, 8, 3072]         --                        592,896                   75,890,688
тФВ    тФВ    тФВ    тФВ    тФВ    тФФтФАGELU (4)                          [128, 8, 8, 3072]         [128, 8, 8, 3072]         --                        --                        --
тФВ    тФВ    тФВ    тФВ    тФВ    тФФтФАGroupedLinear (5)                 [128, 8, 8, 3072]         [128, 8, 8, 768]          --                        590,592                   75,595,776
тФВ    тФВ    тФВ    тФВ    тФВ    тФФтФАPermute (6)                       [128, 8, 8, 768]          [128, 768, 8, 8]          --                        --                        --
тФВ    тФВ    тФВ    тФВ    тФФтФАStochasticDepth (stochastic_depth)     [128, 768, 8, 8]          [128, 768, 8, 8]          --                        --                        --
тФВ    тФВ    тФВ    тФФтФАCNBlock (4)                                 [128, 768, 8, 8]          [128, 768, 8, 8]          --                        768                       --
тФВ    тФВ    тФВ    тФВ    тФФтФАSequential (block)                     [128, 768, 8, 8]          [128, 768, 8, 8]          --                        --                        --
тФВ    тФВ    тФВ    тФВ    тФВ    тФФтФАConv2d (0)                        [128, 768, 8, 8]          [128, 768, 8, 8]          [7, 7]                    38,400                    314,572,800
тФВ    тФВ    тФВ    тФВ    тФВ    тФФтФАPermute (1)                       [128, 768, 8, 8]          [128, 8, 8, 768]          --                        --                        --
тФВ    тФВ    тФВ    тФВ    тФВ    тФФтФАGroupedLayerNorm (2)              [128, 8, 8, 768]          [128, 8, 8, 768]          --                        --                        --
тФВ    тФВ    тФВ    тФВ    тФВ    тФВ    тФФтФАGroupNorm (gn)               [8192, 768]               [8192, 768]               --                        1,536                     12,582,912
тФВ    тФВ    тФВ    тФВ    тФВ    тФФтФАGroupedLinear (3)                 [128, 8, 8, 768]          [128, 8, 8, 3072]         --                        592,896                   75,890,688
тФВ    тФВ    тФВ    тФВ    тФВ    тФФтФАGELU (4)                          [128, 8, 8, 3072]         [128, 8, 8, 3072]         --                        --                        --
тФВ    тФВ    тФВ    тФВ    тФВ    тФФтФАGroupedLinear (5)                 [128, 8, 8, 3072]         [128, 8, 8, 768]          --                        590,592                   75,595,776
тФВ    тФВ    тФВ    тФВ    тФВ    тФФтФАPermute (6)                       [128, 8, 8, 768]          [128, 768, 8, 8]          --                        --                        --
тФВ    тФВ    тФВ    тФВ    тФФтФАStochasticDepth (stochastic_depth)     [128, 768, 8, 8]          [128, 768, 8, 8]          --                        --                        --
тФВ    тФВ    тФВ    тФФтФАCNBlock (5)                                 [128, 768, 8, 8]          [128, 768, 8, 8]          --                        768                       --
тФВ    тФВ    тФВ    тФВ    тФФтФАSequential (block)                     [128, 768, 8, 8]          [128, 768, 8, 8]          --                        --                        --
тФВ    тФВ    тФВ    тФВ    тФВ    тФФтФАConv2d (0)                        [128, 768, 8, 8]          [128, 768, 8, 8]          [7, 7]                    38,400                    314,572,800
тФВ    тФВ    тФВ    тФВ    тФВ    тФФтФАPermute (1)                       [128, 768, 8, 8]          [128, 8, 8, 768]          --                        --                        --
тФВ    тФВ    тФВ    тФВ    тФВ    тФФтФАGroupedLayerNorm (2)              [128, 8, 8, 768]          [128, 8, 8, 768]          --                        --                        --
тФВ    тФВ    тФВ    тФВ    тФВ    тФВ    тФФтФАGroupNorm (gn)               [8192, 768]               [8192, 768]               --                        1,536                     12,582,912
тФВ    тФВ    тФВ    тФВ    тФВ    тФФтФАGroupedLinear (3)                 [128, 8, 8, 768]          [128, 8, 8, 3072]         --                        592,896                   75,890,688
тФВ    тФВ    тФВ    тФВ    тФВ    тФФтФАGELU (4)                          [128, 8, 8, 3072]         [128, 8, 8, 3072]         --                        --                        --
тФВ    тФВ    тФВ    тФВ    тФВ    тФФтФАGroupedLinear (5)                 [128, 8, 8, 3072]         [128, 8, 8, 768]          --                        590,592                   75,595,776
тФВ    тФВ    тФВ    тФВ    тФВ    тФФтФАPermute (6)                       [128, 8, 8, 768]          [128, 768, 8, 8]          --                        --                        --
тФВ    тФВ    тФВ    тФВ    тФФтФАStochasticDepth (stochastic_depth)     [128, 768, 8, 8]          [128, 768, 8, 8]          --                        --                        --
тФВ    тФВ    тФВ    тФФтФАCNBlock (6)                                 [128, 768, 8, 8]          [128, 768, 8, 8]          --                        768                       --
тФВ    тФВ    тФВ    тФВ    тФФтФАSequential (block)                     [128, 768, 8, 8]          [128, 768, 8, 8]          --                        --                        --
тФВ    тФВ    тФВ    тФВ    тФВ    тФФтФАConv2d (0)                        [128, 768, 8, 8]          [128, 768, 8, 8]          [7, 7]                    38,400                    314,572,800
тФВ    тФВ    тФВ    тФВ    тФВ    тФФтФАPermute (1)                       [128, 768, 8, 8]          [128, 8, 8, 768]          --                        --                        --
тФВ    тФВ    тФВ    тФВ    тФВ    тФФтФАGroupedLayerNorm (2)              [128, 8, 8, 768]          [128, 8, 8, 768]          --                        --                        --
тФВ    тФВ    тФВ    тФВ    тФВ    тФВ    тФФтФАGroupNorm (gn)               [8192, 768]               [8192, 768]               --                        1,536                     12,582,912
тФВ    тФВ    тФВ    тФВ    тФВ    тФФтФАGroupedLinear (3)                 [128, 8, 8, 768]          [128, 8, 8, 3072]         --                        592,896                   75,890,688
тФВ    тФВ    тФВ    тФВ    тФВ    тФФтФАGELU (4)                          [128, 8, 8, 3072]         [128, 8, 8, 3072]         --                        --                        --
тФВ    тФВ    тФВ    тФВ    тФВ    тФФтФАGroupedLinear (5)                 [128, 8, 8, 3072]         [128, 8, 8, 768]          --                        590,592                   75,595,776
тФВ    тФВ    тФВ    тФВ    тФВ    тФФтФАPermute (6)                       [128, 8, 8, 768]          [128, 768, 8, 8]          --                        --                        --
тФВ    тФВ    тФВ    тФВ    тФФтФАStochasticDepth (stochastic_depth)     [128, 768, 8, 8]          [128, 768, 8, 8]          --                        --                        --
тФВ    тФВ    тФВ    тФФтФАCNBlock (7)                                 [128, 768, 8, 8]          [128, 768, 8, 8]          --                        768                       --
тФВ    тФВ    тФВ    тФВ    тФФтФАSequential (block)                     [128, 768, 8, 8]          [128, 768, 8, 8]          --                        --                        --
тФВ    тФВ    тФВ    тФВ    тФВ    тФФтФАConv2d (0)                        [128, 768, 8, 8]          [128, 768, 8, 8]          [7, 7]                    38,400                    314,572,800
тФВ    тФВ    тФВ    тФВ    тФВ    тФФтФАPermute (1)                       [128, 768, 8, 8]          [128, 8, 8, 768]          --                        --                        --
тФВ    тФВ    тФВ    тФВ    тФВ    тФФтФАGroupedLayerNorm (2)              [128, 8, 8, 768]          [128, 8, 8, 768]          --                        --                        --
тФВ    тФВ    тФВ    тФВ    тФВ    тФВ    тФФтФАGroupNorm (gn)               [8192, 768]               [8192, 768]               --                        1,536                     12,582,912
тФВ    тФВ    тФВ    тФВ    тФВ    тФФтФАGroupedLinear (3)                 [128, 8, 8, 768]          [128, 8, 8, 3072]         --                        592,896                   75,890,688
тФВ    тФВ    тФВ    тФВ    тФВ    тФФтФАGELU (4)                          [128, 8, 8, 3072]         [128, 8, 8, 3072]         --                        --                        --
тФВ    тФВ    тФВ    тФВ    тФВ    тФФтФАGroupedLinear (5)                 [128, 8, 8, 3072]         [128, 8, 8, 768]          --                        590,592                   75,595,776
тФВ    тФВ    тФВ    тФВ    тФВ    тФФтФАPermute (6)                       [128, 8, 8, 768]          [128, 768, 8, 8]          --                        --                        --
тФВ    тФВ    тФВ    тФВ    тФФтФАStochasticDepth (stochastic_depth)     [128, 768, 8, 8]          [128, 768, 8, 8]          --                        --                        --
тФВ    тФВ    тФВ    тФФтФАCNBlock (8)                                 [128, 768, 8, 8]          [128, 768, 8, 8]          --                        768                       --
тФВ    тФВ    тФВ    тФВ    тФФтФАSequential (block)                     [128, 768, 8, 8]          [128, 768, 8, 8]          --                        --                        --
тФВ    тФВ    тФВ    тФВ    тФВ    тФФтФАConv2d (0)                        [128, 768, 8, 8]          [128, 768, 8, 8]          [7, 7]                    38,400                    314,572,800
тФВ    тФВ    тФВ    тФВ    тФВ    тФФтФАPermute (1)                       [128, 768, 8, 8]          [128, 8, 8, 768]          --                        --                        --
тФВ    тФВ    тФВ    тФВ    тФВ    тФФтФАGroupedLayerNorm (2)              [128, 8, 8, 768]          [128, 8, 8, 768]          --                        --                        --
тФВ    тФВ    тФВ    тФВ    тФВ    тФВ    тФФтФАGroupNorm (gn)               [8192, 768]               [8192, 768]               --                        1,536                     12,582,912
тФВ    тФВ    тФВ    тФВ    тФВ    тФФтФАGroupedLinear (3)                 [128, 8, 8, 768]          [128, 8, 8, 3072]         --                        592,896                   75,890,688
тФВ    тФВ    тФВ    тФВ    тФВ    тФФтФАGELU (4)                          [128, 8, 8, 3072]         [128, 8, 8, 3072]         --                        --                        --
тФВ    тФВ    тФВ    тФВ    тФВ    тФФтФАGroupedLinear (5)                 [128, 8, 8, 3072]         [128, 8, 8, 768]          --                        590,592                   75,595,776
тФВ    тФВ    тФВ    тФВ    тФВ    тФФтФАPermute (6)                       [128, 8, 8, 768]          [128, 768, 8, 8]          --                        --                        --
тФВ    тФВ    тФВ    тФВ    тФФтФАStochasticDepth (stochastic_depth)     [128, 768, 8, 8]          [128, 768, 8, 8]          --                        --                        --
тФВ    тФВ    тФФтФАSequential (6)                                   [128, 768, 8, 8]          [128, 1536, 4, 4]         --                        --                        --
тФВ    тФВ    тФВ    тФФтФАGroupedLayerNorm2d (0)                      [128, 768, 8, 8]          [128, 768, 8, 8]          --                        --                        --
тФВ    тФВ    тФВ    тФВ    тФФтФАGroupedLayerNorm (layer)               [128, 8, 8, 768]          [128, 8, 8, 768]          --                        --                        --
тФВ    тФВ    тФВ    тФВ    тФВ    тФФтФАGroupNorm (gn)                    [8192, 768]               [8192, 768]               --                        1,536                     12,582,912
тФВ    тФВ    тФВ    тФФтФАConv2d (1)                                  [128, 768, 8, 8]          [128, 1536, 4, 4]         [2, 2]                    1,181,184                 2,419,064,832
тФВ    тФВ    тФФтФАSequential (7)                                   [128, 1536, 4, 4]         [128, 1536, 4, 4]         --                        --                        --
тФВ    тФВ    тФВ    тФФтФАCNBlock (0)                                 [128, 1536, 4, 4]         [128, 1536, 4, 4]         --                        1,536                     --
тФВ    тФВ    тФВ    тФВ    тФФтФАSequential (block)                     [128, 1536, 4, 4]         [128, 1536, 4, 4]         --                        --                        --
тФВ    тФВ    тФВ    тФВ    тФВ    тФФтФАConv2d (0)                        [128, 1536, 4, 4]         [128, 1536, 4, 4]         [7, 7]                    76,800                    157,286,400
тФВ    тФВ    тФВ    тФВ    тФВ    тФФтФАPermute (1)                       [128, 1536, 4, 4]         [128, 4, 4, 1536]         --                        --                        --
тФВ    тФВ    тФВ    тФВ    тФВ    тФФтФАGroupedLayerNorm (2)              [128, 4, 4, 1536]         [128, 4, 4, 1536]         --                        --                        --
тФВ    тФВ    тФВ    тФВ    тФВ    тФВ    тФФтФАGroupNorm (gn)               [2048, 1536]              [2048, 1536]              --                        3,072                     6,291,456
тФВ    тФВ    тФВ    тФВ    тФВ    тФФтФАGroupedLinear (3)                 [128, 4, 4, 1536]         [128, 4, 4, 6144]         --                        2,365,440                 302,776,320
тФВ    тФВ    тФВ    тФВ    тФВ    тФФтФАGELU (4)                          [128, 4, 4, 6144]         [128, 4, 4, 6144]         --                        --                        --
тФВ    тФВ    тФВ    тФВ    тФВ    тФФтФАGroupedLinear (5)                 [128, 4, 4, 6144]         [128, 4, 4, 1536]         --                        2,360,832                 302,186,496
тФВ    тФВ    тФВ    тФВ    тФВ    тФФтФАPermute (6)                       [128, 4, 4, 1536]         [128, 1536, 4, 4]         --                        --                        --
тФВ    тФВ    тФВ    тФВ    тФФтФАStochasticDepth (stochastic_depth)     [128, 1536, 4, 4]         [128, 1536, 4, 4]         --                        --                        --
тФВ    тФВ    тФВ    тФФтФАCNBlock (1)                                 [128, 1536, 4, 4]         [128, 1536, 4, 4]         --                        1,536                     --
тФВ    тФВ    тФВ    тФВ    тФФтФАSequential (block)                     [128, 1536, 4, 4]         [128, 1536, 4, 4]         --                        --                        --
тФВ    тФВ    тФВ    тФВ    тФВ    тФФтФАConv2d (0)                        [128, 1536, 4, 4]         [128, 1536, 4, 4]         [7, 7]                    76,800                    157,286,400
тФВ    тФВ    тФВ    тФВ    тФВ    тФФтФАPermute (1)                       [128, 1536, 4, 4]         [128, 4, 4, 1536]         --                        --                        --
тФВ    тФВ    тФВ    тФВ    тФВ    тФФтФАGroupedLayerNorm (2)              [128, 4, 4, 1536]         [128, 4, 4, 1536]         --                        --                        --
тФВ    тФВ    тФВ    тФВ    тФВ    тФВ    тФФтФАGroupNorm (gn)               [2048, 1536]              [2048, 1536]              --                        3,072                     6,291,456
тФВ    тФВ    тФВ    тФВ    тФВ    тФФтФАGroupedLinear (3)                 [128, 4, 4, 1536]         [128, 4, 4, 6144]         --                        2,365,440                 302,776,320
тФВ    тФВ    тФВ    тФВ    тФВ    тФФтФАGELU (4)                          [128, 4, 4, 6144]         [128, 4, 4, 6144]         --                        --                        --
тФВ    тФВ    тФВ    тФВ    тФВ    тФФтФАGroupedLinear (5)                 [128, 4, 4, 6144]         [128, 4, 4, 1536]         --                        2,360,832                 302,186,496
тФВ    тФВ    тФВ    тФВ    тФВ    тФФтФАPermute (6)                       [128, 4, 4, 1536]         [128, 1536, 4, 4]         --                        --                        --
тФВ    тФВ    тФВ    тФВ    тФФтФАStochasticDepth (stochastic_depth)     [128, 1536, 4, 4]         [128, 1536, 4, 4]         --                        --                        --
тФВ    тФВ    тФВ    тФФтФАCNBlock (2)                                 [128, 1536, 4, 4]         [128, 1536, 4, 4]         --                        1,536                     --
тФВ    тФВ    тФВ    тФВ    тФФтФАSequential (block)                     [128, 1536, 4, 4]         [128, 1536, 4, 4]         --                        --                        --
тФВ    тФВ    тФВ    тФВ    тФВ    тФФтФАConv2d (0)                        [128, 1536, 4, 4]         [128, 1536, 4, 4]         [7, 7]                    76,800                    157,286,400
тФВ    тФВ    тФВ    тФВ    тФВ    тФФтФАPermute (1)                       [128, 1536, 4, 4]         [128, 4, 4, 1536]         --                        --                        --
тФВ    тФВ    тФВ    тФВ    тФВ    тФФтФАGroupedLayerNorm (2)              [128, 4, 4, 1536]         [128, 4, 4, 1536]         --                        --                        --
тФВ    тФВ    тФВ    тФВ    тФВ    тФВ    тФФтФАGroupNorm (gn)               [2048, 1536]              [2048, 1536]              --                        3,072                     6,291,456
тФВ    тФВ    тФВ    тФВ    тФВ    тФФтФАGroupedLinear (3)                 [128, 4, 4, 1536]         [128, 4, 4, 6144]         --                        2,365,440                 302,776,320
тФВ    тФВ    тФВ    тФВ    тФВ    тФФтФАGELU (4)                          [128, 4, 4, 6144]         [128, 4, 4, 6144]         --                        --                        --
тФВ    тФВ    тФВ    тФВ    тФВ    тФФтФАGroupedLinear (5)                 [128, 4, 4, 6144]         [128, 4, 4, 1536]         --                        2,360,832                 302,186,496
тФВ    тФВ    тФВ    тФВ    тФВ    тФФтФАPermute (6)                       [128, 4, 4, 1536]         [128, 1536, 4, 4]         --                        --                        --
тФВ    тФВ    тФВ    тФВ    тФФтФАStochasticDepth (stochastic_depth)     [128, 1536, 4, 4]         [128, 1536, 4, 4]         --                        --                        --
тФВ    тФФтФАAdaptiveAvgPool2d (avgpool)                           [128, 1536, 4, 4]         [128, 1536, 1, 1]         --                        --                        --
тФВ    тФФтФАSequential (classifier)                               [128, 1536, 1, 1]         [128, 400]                --                        --                        --
тФВ    тФВ    тФФтФАGroupedLayerNorm2d (0)                           [128, 1536, 1, 1]         [128, 1536, 1, 1]         --                        --                        --
тФВ    тФВ    тФВ    тФФтФАGroupedLayerNorm (layer)                    [128, 1, 1, 1536]         [128, 1, 1, 1536]         --                        --                        --
тФВ    тФВ    тФВ    тФВ    тФФтФАGroupNorm (gn)                         [128, 1536]               [128, 1536]               --                        3,072                     393,216
тФВ    тФВ    тФФтФАFlatten (1)                                      [128, 1536, 1, 1]         [128, 1536]               --                        --                        --
тФВ    тФВ    тФФтФАGroupedLinear (2)                                [128, 1536]               [128, 400]                --                        154,000                   19,712,000
тФЬтФАChunkMerge (chunk_merge)                                   [128, 400]                [128, 100]                --                        --                        --
=========================================================================================================================================================================================
Total params: 28,363,408
Trainable params: 28,363,408
Non-trainable params: 0
Total mult-adds (Units.GIGABYTES): 20.78
=========================================================================================================================================================================================
…
