==========================================================================================================================================================================
Layer (type (var_name))                       Input Shape               Output Shape              Kernel Shape              Param #                   Mult-Adds
==========================================================================================================================================================================
EEWrapper (EEWrapper)                         [64, 3, 32, 32]           [64, 100]                 --                        --                        --
├─RepeatData (repeater)                       [64, 3, 32, 32]           [64, 12, 32, 32]          --                        --                        --
├─ResNet (model)                              [64, 12, 32, 32]          [64, 400]                 --                        --                        --
│    └─Conv2d (conv1)                         [64, 12, 32, 32]          [64, 128, 32, 32]         [3, 3]                    3,456                     226,492,416
│    └─BatchNorm2d (bn1)                      [64, 128, 32, 32]         [64, 128, 32, 32]         --                        256                       16,384
│    └─ReLU (relu)                            [64, 128, 32, 32]         [64, 128, 32, 32]         --                        --                        --
│    └─Identity (maxpool)                     [64, 128, 32, 32]         [64, 128, 32, 32]         --                        --                        --
│    └─Sequential (layer1)                    [64, 128, 32, 32]         [64, 512, 32, 32]         --                        --                        --
│    │    └─Bottleneck (0)                    [64, 128, 32, 32]         [64, 512, 32, 32]         --                        --                        --
│    │    │    └─Conv2d (conv1)               [64, 128, 32, 32]         [64, 256, 32, 32]         [1, 1]                    8,192                     536,870,912
│    │    │    └─BatchNorm2d (bn1)            [64, 256, 32, 32]         [64, 256, 32, 32]         --                        512                       32,768
│    │    │    └─ReLU (relu)                  [64, 256, 32, 32]         [64, 256, 32, 32]         --                        --                        --
│    │    │    └─Conv2d (conv2)               [64, 256, 32, 32]         [64, 256, 32, 32]         [3, 3]                    147,456                   9,663,676,416
│    │    │    └─BatchNorm2d (bn2)            [64, 256, 32, 32]         [64, 256, 32, 32]         --                        512                       32,768
│    │    │    └─ReLU (relu)                  [64, 256, 32, 32]         [64, 256, 32, 32]         --                        --                        --
│    │    │    └─Conv2d (conv3)               [64, 256, 32, 32]         [64, 512, 32, 32]         [1, 1]                    32,768                    2,147,483,648
│    │    │    └─BatchNorm2d (bn3)            [64, 512, 32, 32]         [64, 512, 32, 32]         --                        1,024                     65,536
│    │    │    └─Sequential (downsample)      [64, 128, 32, 32]         [64, 512, 32, 32]         --                        --                        --
│    │    │    │    └─Conv2d (0)              [64, 128, 32, 32]         [64, 512, 32, 32]         [1, 1]                    16,384                    1,073,741,824
│    │    │    │    └─BatchNorm2d (1)         [64, 512, 32, 32]         [64, 512, 32, 32]         --                        1,024                     65,536
│    │    │    └─ReLU (relu)                  [64, 512, 32, 32]         [64, 512, 32, 32]         --                        --                        --
│    │    └─Bottleneck (1)                    [64, 512, 32, 32]         [64, 512, 32, 32]         --                        --                        --
│    │    │    └─Conv2d (conv1)               [64, 512, 32, 32]         [64, 256, 32, 32]         [1, 1]                    32,768                    2,147,483,648
│    │    │    └─BatchNorm2d (bn1)            [64, 256, 32, 32]         [64, 256, 32, 32]         --                        512                       32,768
│    │    │    └─ReLU (relu)                  [64, 256, 32, 32]         [64, 256, 32, 32]         --                        --                        --
│    │    │    └─Conv2d (conv2)               [64, 256, 32, 32]         [64, 256, 32, 32]         [3, 3]                    147,456                   9,663,676,416
│    │    │    └─BatchNorm2d (bn2)            [64, 256, 32, 32]         [64, 256, 32, 32]         --                        512                       32,768
│    │    │    └─ReLU (relu)                  [64, 256, 32, 32]         [64, 256, 32, 32]         --                        --                        --
│    │    │    └─Conv2d (conv3)               [64, 256, 32, 32]         [64, 512, 32, 32]         [1, 1]                    32,768                    2,147,483,648
│    │    │    └─BatchNorm2d (bn3)            [64, 512, 32, 32]         [64, 512, 32, 32]         --                        1,024                     65,536
│    │    │    └─ReLU (relu)                  [64, 512, 32, 32]         [64, 512, 32, 32]         --                        --                        --
│    │    └─Bottleneck (2)                    [64, 512, 32, 32]         [64, 512, 32, 32]         --                        --                        --
│    │    │    └─Conv2d (conv1)               [64, 512, 32, 32]         [64, 256, 32, 32]         [1, 1]                    32,768                    2,147,483,648
│    │    │    └─BatchNorm2d (bn1)            [64, 256, 32, 32]         [64, 256, 32, 32]         --                        512                       32,768
│    │    │    └─ReLU (relu)                  [64, 256, 32, 32]         [64, 256, 32, 32]         --                        --                        --
│    │    │    └─Conv2d (conv2)               [64, 256, 32, 32]         [64, 256, 32, 32]         [3, 3]                    147,456                   9,663,676,416
│    │    │    └─BatchNorm2d (bn2)            [64, 256, 32, 32]         [64, 256, 32, 32]         --                        512                       32,768
│    │    │    └─ReLU (relu)                  [64, 256, 32, 32]         [64, 256, 32, 32]         --                        --                        --
│    │    │    └─Conv2d (conv3)               [64, 256, 32, 32]         [64, 512, 32, 32]         [1, 1]                    32,768                    2,147,483,648
│    │    │    └─BatchNorm2d (bn3)            [64, 512, 32, 32]         [64, 512, 32, 32]         --                        1,024                     65,536
│    │    │    └─ReLU (relu)                  [64, 512, 32, 32]         [64, 512, 32, 32]         --                        --                        --
│    └─Sequential (layer2)                    [64, 512, 32, 32]         [64, 1024, 16, 16]        --                        --                        --
│    │    └─Bottleneck (0)                    [64, 512, 32, 32]         [64, 1024, 16, 16]        --                        --                        --
│    │    │    └─Conv2d (conv1)               [64, 512, 32, 32]         [64, 512, 32, 32]         [1, 1]                    65,536                    4,294,967,296
│    │    │    └─BatchNorm2d (bn1)            [64, 512, 32, 32]         [64, 512, 32, 32]         --                        1,024                     65,536
│    │    │    └─ReLU (relu)                  [64, 512, 32, 32]         [64, 512, 32, 32]         --                        --                        --
│    │    │    └─Conv2d (conv2)               [64, 512, 32, 32]         [64, 512, 16, 16]         [3, 3]                    589,824                   9,663,676,416
│    │    │    └─BatchNorm2d (bn2)            [64, 512, 16, 16]         [64, 512, 16, 16]         --                        1,024                     65,536
│    │    │    └─ReLU (relu)                  [64, 512, 16, 16]         [64, 512, 16, 16]         --                        --                        --
│    │    │    └─Conv2d (conv3)               [64, 512, 16, 16]         [64, 1024, 16, 16]        [1, 1]                    131,072                   2,147,483,648
│    │    │    └─BatchNorm2d (bn3)            [64, 1024, 16, 16]        [64, 1024, 16, 16]        --                        2,048                     131,072
│    │    │    └─Sequential (downsample)      [64, 512, 32, 32]         [64, 1024, 16, 16]        --                        --                        --
│    │    │    │    └─Conv2d (0)              [64, 512, 32, 32]         [64, 1024, 16, 16]        [1, 1]                    131,072                   2,147,483,648
│    │    │    │    └─BatchNorm2d (1)         [64, 1024, 16, 16]        [64, 1024, 16, 16]        --                        2,048                     131,072
│    │    │    └─ReLU (relu)                  [64, 1024, 16, 16]        [64, 1024, 16, 16]        --                        --                        --
│    │    └─Bottleneck (1)                    [64, 1024, 16, 16]        [64, 1024, 16, 16]        --                        --                        --
│    │    │    └─Conv2d (conv1)               [64, 1024, 16, 16]        [64, 512, 16, 16]         [1, 1]                    131,072                   2,147,483,648
│    │    │    └─BatchNorm2d (bn1)            [64, 512, 16, 16]         [64, 512, 16, 16]         --                        1,024                     65,536
│    │    │    └─ReLU (relu)                  [64, 512, 16, 16]         [64, 512, 16, 16]         --                        --                        --
│    │    │    └─Conv2d (conv2)               [64, 512, 16, 16]         [64, 512, 16, 16]         [3, 3]                    589,824                   9,663,676,416
│    │    │    └─BatchNorm2d (bn2)            [64, 512, 16, 16]         [64, 512, 16, 16]         --                        1,024                     65,536
│    │    │    └─ReLU (relu)                  [64, 512, 16, 16]         [64, 512, 16, 16]         --                        --                        --
│    │    │    └─Conv2d (conv3)               [64, 512, 16, 16]         [64, 1024, 16, 16]        [1, 1]                    131,072                   2,147,483,648
│    │    │    └─BatchNorm2d (bn3)            [64, 1024, 16, 16]        [64, 1024, 16, 16]        --                        2,048                     131,072
│    │    │    └─ReLU (relu)                  [64, 1024, 16, 16]        [64, 1024, 16, 16]        --                        --                        --
│    │    └─Bottleneck (2)                    [64, 1024, 16, 16]        [64, 1024, 16, 16]        --                        --                        --
│    │    │    └─Conv2d (conv1)               [64, 1024, 16, 16]        [64, 512, 16, 16]         [1, 1]                    131,072                   2,147,483,648
│    │    │    └─BatchNorm2d (bn1)            [64, 512, 16, 16]         [64, 512, 16, 16]         --                        1,024                     65,536
│    │    │    └─ReLU (relu)                  [64, 512, 16, 16]         [64, 512, 16, 16]         --                        --                        --
│    │    │    └─Conv2d (conv2)               [64, 512, 16, 16]         [64, 512, 16, 16]         [3, 3]                    589,824                   9,663,676,416
│    │    │    └─BatchNorm2d (bn2)            [64, 512, 16, 16]         [64, 512, 16, 16]         --                        1,024                     65,536
│    │    │    └─ReLU (relu)                  [64, 512, 16, 16]         [64, 512, 16, 16]         --                        --                        --
│    │    │    └─Conv2d (conv3)               [64, 512, 16, 16]         [64, 1024, 16, 16]        [1, 1]                    131,072                   2,147,483,648
│    │    │    └─BatchNorm2d (bn3)            [64, 1024, 16, 16]        [64, 1024, 16, 16]        --                        2,048                     131,072
│    │    │    └─ReLU (relu)                  [64, 1024, 16, 16]        [64, 1024, 16, 16]        --                        --                        --
│    │    └─Bottleneck (3)                    [64, 1024, 16, 16]        [64, 1024, 16, 16]        --                        --                        --
│    │    │    └─Conv2d (conv1)               [64, 1024, 16, 16]        [64, 512, 16, 16]         [1, 1]                    131,072                   2,147,483,648
│    │    │    └─BatchNorm2d (bn1)            [64, 512, 16, 16]         [64, 512, 16, 16]         --                        1,024                     65,536
│    │    │    └─ReLU (relu)                  [64, 512, 16, 16]         [64, 512, 16, 16]         --                        --                        --
│    │    │    └─Conv2d (conv2)               [64, 512, 16, 16]         [64, 512, 16, 16]         [3, 3]                    589,824                   9,663,676,416
│    │    │    └─BatchNorm2d (bn2)            [64, 512, 16, 16]         [64, 512, 16, 16]         --                        1,024                     65,536
│    │    │    └─ReLU (relu)                  [64, 512, 16, 16]         [64, 512, 16, 16]         --                        --                        --
│    │    │    └─Conv2d (conv3)               [64, 512, 16, 16]         [64, 1024, 16, 16]        [1, 1]                    131,072                   2,147,483,648
│    │    │    └─BatchNorm2d (bn3)            [64, 1024, 16, 16]        [64, 1024, 16, 16]        --                        2,048                     131,072
│    │    │    └─ReLU (relu)                  [64, 1024, 16, 16]        [64, 1024, 16, 16]        --                        --                        --
│    └─Sequential (layer3)                    [64, 1024, 16, 16]        [64, 2048, 8, 8]          --                        --                        --
│    │    └─Bottleneck (0)                    [64, 1024, 16, 16]        [64, 2048, 8, 8]          --                        --                        --
│    │    │    └─Conv2d (conv1)               [64, 1024, 16, 16]        [64, 1024, 16, 16]        [1, 1]                    262,144                   4,294,967,296
│    │    │    └─BatchNorm2d (bn1)            [64, 1024, 16, 16]        [64, 1024, 16, 16]        --                        2,048                     131,072
│    │    │    └─ReLU (relu)                  [64, 1024, 16, 16]        [64, 1024, 16, 16]        --                        --                        --
│    │    │    └─Conv2d (conv2)               [64, 1024, 16, 16]        [64, 1024, 8, 8]          [3, 3]                    2,359,296                 9,663,676,416
│    │    │    └─BatchNorm2d (bn2)            [64, 1024, 8, 8]          [64, 1024, 8, 8]          --                        2,048                     131,072
│    │    │    └─ReLU (relu)                  [64, 1024, 8, 8]          [64, 1024, 8, 8]          --                        --                        --
│    │    │    └─Conv2d (conv3)               [64, 1024, 8, 8]          [64, 2048, 8, 8]          [1, 1]                    524,288                   2,147,483,648
│    │    │    └─BatchNorm2d (bn3)            [64, 2048, 8, 8]          [64, 2048, 8, 8]          --                        4,096                     262,144
│    │    │    └─Sequential (downsample)      [64, 1024, 16, 16]        [64, 2048, 8, 8]          --                        --                        --
│    │    │    │    └─Conv2d (0)              [64, 1024, 16, 16]        [64, 2048, 8, 8]          [1, 1]                    524,288                   2,147,483,648
│    │    │    │    └─BatchNorm2d (1)         [64, 2048, 8, 8]          [64, 2048, 8, 8]          --                        4,096                     262,144
│    │    │    └─ReLU (relu)                  [64, 2048, 8, 8]          [64, 2048, 8, 8]          --                        --                        --
│    │    └─Bottleneck (1)                    [64, 2048, 8, 8]          [64, 2048, 8, 8]          --                        --                        --
│    │    │    └─Conv2d (conv1)               [64, 2048, 8, 8]          [64, 1024, 8, 8]          [1, 1]                    524,288                   2,147,483,648
│    │    │    └─BatchNorm2d (bn1)            [64, 1024, 8, 8]          [64, 1024, 8, 8]          --                        2,048                     131,072
│    │    │    └─ReLU (relu)                  [64, 1024, 8, 8]          [64, 1024, 8, 8]          --                        --                        --
│    │    │    └─Conv2d (conv2)               [64, 1024, 8, 8]          [64, 1024, 8, 8]          [3, 3]                    2,359,296                 9,663,676,416
│    │    │    └─BatchNorm2d (bn2)            [64, 1024, 8, 8]          [64, 1024, 8, 8]          --                        2,048                     131,072
│    │    │    └─ReLU (relu)                  [64, 1024, 8, 8]          [64, 1024, 8, 8]          --                        --                        --
│    │    │    └─Conv2d (conv3)               [64, 1024, 8, 8]          [64, 2048, 8, 8]          [1, 1]                    524,288                   2,147,483,648
│    │    │    └─BatchNorm2d (bn3)            [64, 2048, 8, 8]          [64, 2048, 8, 8]          --                        4,096                     262,144
│    │    │    └─ReLU (relu)                  [64, 2048, 8, 8]          [64, 2048, 8, 8]          --                        --                        --
│    │    └─Bottleneck (2)                    [64, 2048, 8, 8]          [64, 2048, 8, 8]          --                        --                        --
│    │    │    └─Conv2d (conv1)               [64, 2048, 8, 8]          [64, 1024, 8, 8]          [1, 1]                    524,288                   2,147,483,648
│    │    │    └─BatchNorm2d (bn1)            [64, 1024, 8, 8]          [64, 1024, 8, 8]          --                        2,048                     131,072
│    │    │    └─ReLU (relu)                  [64, 1024, 8, 8]          [64, 1024, 8, 8]          --                        --                        --
│    │    │    └─Conv2d (conv2)               [64, 1024, 8, 8]          [64, 1024, 8, 8]          [3, 3]                    2,359,296                 9,663,676,416
│    │    │    └─BatchNorm2d (bn2)            [64, 1024, 8, 8]          [64, 1024, 8, 8]          --                        2,048                     131,072
│    │    │    └─ReLU (relu)                  [64, 1024, 8, 8]          [64, 1024, 8, 8]          --                        --                        --
│    │    │    └─Conv2d (conv3)               [64, 1024, 8, 8]          [64, 2048, 8, 8]          [1, 1]                    524,288                   2,147,483,648
│    │    │    └─BatchNorm2d (bn3)            [64, 2048, 8, 8]          [64, 2048, 8, 8]          --                        4,096                     262,144
│    │    │    └─ReLU (relu)                  [64, 2048, 8, 8]          [64, 2048, 8, 8]          --                        --                        --
│    │    └─Bottleneck (3)                    [64, 2048, 8, 8]          [64, 2048, 8, 8]          --                        --                        --
│    │    │    └─Conv2d (conv1)               [64, 2048, 8, 8]          [64, 1024, 8, 8]          [1, 1]                    524,288                   2,147,483,648
│    │    │    └─BatchNorm2d (bn1)            [64, 1024, 8, 8]          [64, 1024, 8, 8]          --                        2,048                     131,072
│    │    │    └─ReLU (relu)                  [64, 1024, 8, 8]          [64, 1024, 8, 8]          --                        --                        --
│    │    │    └─Conv2d (conv2)               [64, 1024, 8, 8]          [64, 1024, 8, 8]          [3, 3]                    2,359,296                 9,663,676,416
│    │    │    └─BatchNorm2d (bn2)            [64, 1024, 8, 8]          [64, 1024, 8, 8]          --                        2,048                     131,072
│    │    │    └─ReLU (relu)                  [64, 1024, 8, 8]          [64, 1024, 8, 8]          --                        --                        --
│    │    │    └─Conv2d (conv3)               [64, 1024, 8, 8]          [64, 2048, 8, 8]          [1, 1]                    524,288                   2,147,483,648
│    │    │    └─BatchNorm2d (bn3)            [64, 2048, 8, 8]          [64, 2048, 8, 8]          --                        4,096                     262,144
│    │    │    └─ReLU (relu)                  [64, 2048, 8, 8]          [64, 2048, 8, 8]          --                        --                        --
│    │    └─Bottleneck (4)                    [64, 2048, 8, 8]          [64, 2048, 8, 8]          --                        --                        --
│    │    │    └─Conv2d (conv1)               [64, 2048, 8, 8]          [64, 1024, 8, 8]          [1, 1]                    524,288                   2,147,483,648
│    │    │    └─BatchNorm2d (bn1)            [64, 1024, 8, 8]          [64, 1024, 8, 8]          --                        2,048                     131,072
│    │    │    └─ReLU (relu)                  [64, 1024, 8, 8]          [64, 1024, 8, 8]          --                        --                        --
│    │    │    └─Conv2d (conv2)               [64, 1024, 8, 8]          [64, 1024, 8, 8]          [3, 3]                    2,359,296                 9,663,676,416
│    │    │    └─BatchNorm2d (bn2)            [64, 1024, 8, 8]          [64, 1024, 8, 8]          --                        2,048                     131,072
│    │    │    └─ReLU (relu)                  [64, 1024, 8, 8]          [64, 1024, 8, 8]          --                        --                        --
│    │    │    └─Conv2d (conv3)               [64, 1024, 8, 8]          [64, 2048, 8, 8]          [1, 1]                    524,288                   2,147,483,648
│    │    │    └─BatchNorm2d (bn3)            [64, 2048, 8, 8]          [64, 2048, 8, 8]          --                        4,096                     262,144
│    │    │    └─ReLU (relu)                  [64, 2048, 8, 8]          [64, 2048, 8, 8]          --                        --                        --
│    │    └─Bottleneck (5)                    [64, 2048, 8, 8]          [64, 2048, 8, 8]          --                        --                        --
│    │    │    └─Conv2d (conv1)               [64, 2048, 8, 8]          [64, 1024, 8, 8]          [1, 1]                    524,288                   2,147,483,648
│    │    │    └─BatchNorm2d (bn1)            [64, 1024, 8, 8]          [64, 1024, 8, 8]          --                        2,048                     131,072
│    │    │    └─ReLU (relu)                  [64, 1024, 8, 8]          [64, 1024, 8, 8]          --                        --                        --
│    │    │    └─Conv2d (conv2)               [64, 1024, 8, 8]          [64, 1024, 8, 8]          [3, 3]                    2,359,296                 9,663,676,416
│    │    │    └─BatchNorm2d (bn2)            [64, 1024, 8, 8]          [64, 1024, 8, 8]          --                        2,048                     131,072
│    │    │    └─ReLU (relu)                  [64, 1024, 8, 8]          [64, 1024, 8, 8]          --                        --                        --
│    │    │    └─Conv2d (conv3)               [64, 1024, 8, 8]          [64, 2048, 8, 8]          [1, 1]                    524,288                   2,147,483,648
│    │    │    └─BatchNorm2d (bn3)            [64, 2048, 8, 8]          [64, 2048, 8, 8]          --                        4,096                     262,144
│    │    │    └─ReLU (relu)                  [64, 2048, 8, 8]          [64, 2048, 8, 8]          --                        --                        --
│    └─Sequential (layer4)                    [64, 2048, 8, 8]          [64, 4096, 4, 4]          --                        --                        --
│    │    └─Bottleneck (0)                    [64, 2048, 8, 8]          [64, 4096, 4, 4]          --                        --                        --
│    │    │    └─Conv2d (conv1)               [64, 2048, 8, 8]          [64, 2048, 8, 8]          [1, 1]                    1,048,576                 4,294,967,296
│    │    │    └─BatchNorm2d (bn1)            [64, 2048, 8, 8]          [64, 2048, 8, 8]          --                        4,096                     262,144
│    │    │    └─ReLU (relu)                  [64, 2048, 8, 8]          [64, 2048, 8, 8]          --                        --                        --
│    │    │    └─Conv2d (conv2)               [64, 2048, 8, 8]          [64, 2048, 4, 4]          [3, 3]                    9,437,184                 9,663,676,416
│    │    │    └─BatchNorm2d (bn2)            [64, 2048, 4, 4]          [64, 2048, 4, 4]          --                        4,096                     262,144
│    │    │    └─ReLU (relu)                  [64, 2048, 4, 4]          [64, 2048, 4, 4]          --                        --                        --
│    │    │    └─Conv2d (conv3)               [64, 2048, 4, 4]          [64, 4096, 4, 4]          [1, 1]                    2,097,152                 2,147,483,648
│    │    │    └─BatchNorm2d (bn3)            [64, 4096, 4, 4]          [64, 4096, 4, 4]          --                        8,192                     524,288
│    │    │    └─Sequential (downsample)      [64, 2048, 8, 8]          [64, 4096, 4, 4]          --                        --                        --
│    │    │    │    └─Conv2d (0)              [64, 2048, 8, 8]          [64, 4096, 4, 4]          [1, 1]                    2,097,152                 2,147,483,648
│    │    │    │    └─BatchNorm2d (1)         [64, 4096, 4, 4]          [64, 4096, 4, 4]          --                        8,192                     524,288
│    │    │    └─ReLU (relu)                  [64, 4096, 4, 4]          [64, 4096, 4, 4]          --                        --                        --
│    │    └─Bottleneck (1)                    [64, 4096, 4, 4]          [64, 4096, 4, 4]          --                        --                        --
│    │    │    └─Conv2d (conv1)               [64, 4096, 4, 4]          [64, 2048, 4, 4]          [1, 1]                    2,097,152                 2,147,483,648
│    │    │    └─BatchNorm2d (bn1)            [64, 2048, 4, 4]          [64, 2048, 4, 4]          --                        4,096                     262,144
│    │    │    └─ReLU (relu)                  [64, 2048, 4, 4]          [64, 2048, 4, 4]          --                        --                        --
│    │    │    └─Conv2d (conv2)               [64, 2048, 4, 4]          [64, 2048, 4, 4]          [3, 3]                    9,437,184                 9,663,676,416
│    │    │    └─BatchNorm2d (bn2)            [64, 2048, 4, 4]          [64, 2048, 4, 4]          --                        4,096                     262,144
│    │    │    └─ReLU (relu)                  [64, 2048, 4, 4]          [64, 2048, 4, 4]          --                        --                        --
│    │    │    └─Conv2d (conv3)               [64, 2048, 4, 4]          [64, 4096, 4, 4]          [1, 1]                    2,097,152                 2,147,483,648
│    │    │    └─BatchNorm2d (bn3)            [64, 4096, 4, 4]          [64, 4096, 4, 4]          --                        8,192                     524,288
│    │    │    └─ReLU (relu)                  [64, 4096, 4, 4]          [64, 4096, 4, 4]          --                        --                        --
│    │    └─Bottleneck (2)                    [64, 4096, 4, 4]          [64, 4096, 4, 4]          --                        --                        --
│    │    │    └─Conv2d (conv1)               [64, 4096, 4, 4]          [64, 2048, 4, 4]          [1, 1]                    2,097,152                 2,147,483,648
│    │    │    └─BatchNorm2d (bn1)            [64, 2048, 4, 4]          [64, 2048, 4, 4]          --                        4,096                     262,144
│    │    │    └─ReLU (relu)                  [64, 2048, 4, 4]          [64, 2048, 4, 4]          --                        --                        --
│    │    │    └─Conv2d (conv2)               [64, 2048, 4, 4]          [64, 2048, 4, 4]          [3, 3]                    9,437,184                 9,663,676,416
│    │    │    └─BatchNorm2d (bn2)            [64, 2048, 4, 4]          [64, 2048, 4, 4]          --                        4,096                     262,144
│    │    │    └─ReLU (relu)                  [64, 2048, 4, 4]          [64, 2048, 4, 4]          --                        --                        --
│    │    │    └─Conv2d (conv3)               [64, 2048, 4, 4]          [64, 4096, 4, 4]          [1, 1]                    2,097,152                 2,147,483,648
│    │    │    └─BatchNorm2d (bn3)            [64, 4096, 4, 4]          [64, 4096, 4, 4]          --                        8,192                     524,288
│    │    │    └─ReLU (relu)                  [64, 4096, 4, 4]          [64, 4096, 4, 4]          --                        --                        --
│    └─AdaptiveAvgPool2d (avgpool)            [64, 4096, 4, 4]          [64, 4096, 1, 1]          --                        --                        --
│    └─GroupedLinear (fc)                     [64, 4096]                [64, 400]                 --                        410,000                   26,240,000
├─ChunkMerge (chunk_merge)                    [64, 400]                 [64, 100]                 --                        --                        --
==========================================================================================================================================================================
Total params: 67,306,512
Trainable params: 67,306,512
Non-trainable params: 0
Total mult-adds (Units.GIGABYTES): 235.95
==========================================================================================================================================================================
…
